examples/dce/models/branin_rs/constraint_gp_0.pth (torch, 6194 bytes, 5 tensors)

covar_module.base_kernel.raw_lengthscale f4 [1, 4]
0	0x3f0edff5	0.5581048
1	0x3ec88514	0.3916403
2	0x404a285a	3.1587129
3	0x4027bb3b	2.6208026

train_x f4 [50, 4]
0	0x3d839cea	0.06426413
1	0x3f7c2ff7	0.9851069
2	0x3f000000	0.5
3	0x3f2aaaab	0.6666667
4	0x3f76d2d4	0.9641545
5	0x3f5193f9	0.81866413
6	0x00000000	0.0
7	0x3eaaaaaa	0.3333333
8	0x3e169c9b	0.14708178
9	0x3e85af61	0.26110366
10	0x3f000000	0.5
11	0x3f2aaaab	0.6666667
12	0x3e95459a	0.29154664
13	0x3f3a552d	0.7278622
14	0x3f000000	0.5
15	0x00000000	0.0
16	0x3f613032	0.87964165
17	0x3f73de69	0.95261246
18	0x00000000	0.0
19	0x3f800000	1.0
20	0x3f2c9c4d	0.67425996
21	0x3e618b1f	0.22025727
22	0x00000000	0.0
23	0x3eaaaaaa	0.3333333
24	0x3f257191	0.64626414
25	0x3f2a7e44	0.66598916
26	0x3f800000	1.0
27	0x3f2aaaab	0.6666667
28	0x3f18f2d1	0.5974551
29	0x3f652655	0.89511615
30	0x3f000000	0.5
31	0x00000000	0.0
32	0x3e4074d5	0.18794568
33	0x3f56c5a1	0.8389531
34	0x3f800000	1.0
35	0x3eaaaaaa	0.3333333
36	0x3eef972d	0.46795025
37	0x3e90bcaf	0.28268954
38	0x3f000000	0.5
39	0x3f800000	1.0
40	0x3f43e6a7	0.7652382
41	0x3f0d7f73	0.552726
42	0x3f000000	0.5
43	0x3f2aaaab	0.6666667
44	0x3f04d0a8	0.51880884
45	0x3f4129e4	0.75454545
46	0x3f000000	0.5
47	0x3f2aaaab	0.6666667
48	0x3f0b8e17	0.54513687
49	0x3f3534d4	0.70783734
50	0x3f000000	0.5
51	0x3eaaaaaa	0.3333333
52	0x3f729903	0.9476473
53	0x3ecab00c	0.39587438
54	0x3f000000	0.5
55	0x00000000	0.0
56	0x3f36b836	0.71374834
57	0x3dc5a7e5	0.09651164
58	0x3f000000	0.5
59	0x3f2aaaab	0.6666667
60	0x3d935b58	0.07195157
61	0x3f6a969b	0.91636056
62	0x3f000000	0.5
63	0x3f2aaaab	0.6666667
64	0x3f6e26f3	0.9302818
65	0x3f1d1f59	0.6137596
66	0x3f800000	1.0
67	0x3f2aaaab	0.6666667
68	0x3f1aecc6	0.6051754
69	0x3e9cab7f	0.3059959
70	0x3f000000	0.5
71	0x00000000	0.0
72	0x3edc6146	0.43042964
73	0x3ded386e	0.11583029
74	0x00000000	0.0
75	0x3eaaaaaa	0.3333333
76	0x3f7f31fb	0.9968564
77	0x3ebf217c	0.37330234
78	0x3f000000	0.5
79	0x3eaaaaaa	0.3333333
80	0x3f275945	0.6537059
81	0x3f1168f9	0.568008
82	0x3f000000	0.5
83	0x3f2aaaab	0.6666667
84	0x3ed0d1f1	0.40785173
85	0x3f2f99fb	0.6859433
86	0x3f800000	1.0
87	0x3f800000	1.0
88	0x00000000	0.0
89	0x3f800000	1.0
90	0x3f000000	0.5
91	0x3eaaaaaa	0.3333333
92	0x3df7b94c	0.120958894
93	0x3e480ffa	0.19537345
94	0x00000000	0.0
95	0x3f2aaaab	0.6666667
96	0x3ec05296	0.37563008
97	0x3e1add71	0.15123536
98	0x3f800000	1.0
99	0x3eaaaaaa	0.3333333
100	0x3f5ec2f2	0.8701621
101	0x3f473daf	0.77828497
102	0x3f000000	0.5
103	0x3eaaaaaa	0.3333333
104	0x3f5a7ada	0.85343707
105	0x3eea1b45	0.4572393
106	0x3f800000	1.0
107	0x3f2aaaab	0.6666667
108	0x3f4d28ae	0.801402
109	0x3f2110c5	0.62916213
110	0x3f000000	0.5
111	0x3f800000	1.0
112	0x3e5fcc68	0.21855319
113	0x3e27743c	0.16352934
114	0x3f000000	0.5
115	0x3f2aaaab	0.6666667
116	0x3e999a13	0.30000362
117	0x3eacbc4e	0.33737415
118	0x3f800000	1.0
119	0x3eaaaaaa	0.3333333
120	0x3ea1956c	0.31559312
121	0x3f60dfa8	0.8784127
122	0x00000000	0.0
123	0x3f2aaaab	0.6666667
124	0x3e4b4aa8	0.19852698
125	0x3f4df355	0.8044942
126	0x3f800000	1.0
127	0x3eaaaaaa	0.3333333
128	0x3f540d21	0.82832533
129	0x3e0c8b63	0.13725047
130	0x3f800000	1.0
131	0x00000000	0.0
132	0x3f45c259	0.77249676
133	0x3f19b237	0.6003756
134	0x00000000	0.0
135	0x3f2aaaab	0.6666667
136	0x3e828457	0.25491592
137	0x3f073dd0	0.52828693
138	0x3f000000	0.5
139	0x3f2aaaab	0.6666667
140	0x3ec8c377	0.39211628
141	0x3cf823b9	0.030290471
142	0x3f000000	0.5
143	0x3eaaaaaa	0.3333333
144	0x3ee83939	0.45356157
145	0x3eb882d2	0.36037308
146	0x3f800000	1.0
147	0x3f800000	1.0
148	0x3ef7d593	0.48405132
149	0x3f3d65e8	0.7398362
150	0x3f000000	0.5
151	0x3f800000	1.0
152	0x3f136dbc	0.57589316
153	0x3d8e61d4	0.06952253
154	0x00000000	0.0
155	0x3f2aaaab	0.6666667
156	0x3f3f6323	0.74760646
157	0x3f069b25	0.5258048
158	0x00000000	0.0
159	0x00000000	0.0
160	0x3c4bc1d3	0.012436348
161	0x00000000	0.0
162	0x00000000	0.0
163	0x3eaaaaaa	0.3333333
164	0x3d2614d0	0.040547192
165	0x3f788574	0.97078633
166	0x3f800000	1.0
167	0x3f2aaaab	0.6666667
168	0x3e7678b8	0.24069488
169	0x3edef639	0.43547228
170	0x3f000000	0.5
171	0x3eaaaaaa	0.3333333
172	0x3dd82f6b	0.10555919
173	0x3e771062	0.24127343
174	0x00000000	0.0
175	0x3f800000	1.0
176	0x3eb1d002	0.3472901
177	0x3efe84c2	0.4971066
178	0x3f000000	0.5
179	0x3eaaaaaa	0.3333333
180	0x3f800000	1.0
181	0x3f5b9ecb	0.85789174
182	0x3f000000	0.5
183	0x3eaaaaaa	0.3333333
184	0x3f30ae26	0.6901573
185	0x3ed9379e	0.42425245
186	0x3f000000	0.5
187	0x3eaaaaaa	0.3333333
188	0x3e25c7ef	0.1618955
189	0x3e8d435a	0.27590448
190	0x00000000	0.0
191	0x00000000	0.0
192	0x3f6711d1	0.9026156
193	0x3d4b313a	0.049607493
194	0x3f800000	1.0
195	0x00000000	0.0
196	0x3f06a821	0.52600294
197	0x3ef58a12	0.47956902
198	0x3f800000	1.0
199	0x3eaaaaaa	0.3333333

train_y f4 [50]
0	0x3f5d6e1c	0.8649614
1	0x3fa6e638	1.3039007
2	0xbf90a50f	-1.1300372
3	0xbef83feb	-0.48486266
4	0x3ff6ab83	1.9271091
5	0xbf5d4ee2	-0.8644849
6	0x3f51b530	0.81917095
7	0x3f1e31fd	0.61795026
8	0x3ef3773c	0.47551906
9	0xbe7e070d	-0.24807377
10	0x3efc92ac	0.49330652
11	0x3ecfb3b2	0.40566784
12	0x3d2b4706	0.04181578
13	0x3ee561dd	0.44801226
14	0xbdc89e30	-0.09795797
15	0x3f1b6c7f	0.60712427
16	0x3fbbb4fc	1.4664607
17	0xbf67af3c	-0.9050176
18	0xbfdb0f52	-1.711405
19	0x3f42b662	0.76059544
20	0x3e5ad8c9	0.2137176
21	0x3f4a70fc	0.7907865
22	0x3f35dfe2	0.71044743
23	0xbfcd9457	-1.6060895
24	0xbf40f75a	-0.7537743
25	0x3f8d4294	1.1035943
26	0x3f7a4a80	0.9776993
27	0x3f8b3c8c	1.0877852
28	0xbf93ea3a	-1.1555855
29	0xbf3a23f0	-0.72711086
30	0x3e9779d6	0.2958514
31	0x3eb9c084	0.3627969
32	0x3e879c9a	0.26486665
33	0x3ebf3273	0.37343177
34	0xbf18fbe9	-0.59759384
35	0xbfa63c5b	-1.2987169
36	0x3e83056e	0.2559008
37	0x3f28afbb	0.65893143
38	0xbf52f908	-0.8241124
39	0xbeaf8fed	-0.34289494
40	0xbfffd311	-1.9986287
41	0x3f96b676	1.1774433
42	0xbf9c198f	-1.21953
43	0xbf759e9e	-0.95945156
44	0xbf6fe99f	-0.9371585
45	0x3fdc2d0b	1.7201246
46	0xbe82219c	-0.25416267
47	0xc0229fd5	-2.5410054
48	0x3f0bee41	0.5466042
49	0xbde94fae	-0.11392151

min f4 [1, 4]
0	0xbe34fc77	-0.17674433
1	0xbe4938ab	-0.19650523
2	0x3e800000	0.25
3	0x3e4ccccd	0.2

max f4 [1, 4]
0	0x3f962710	1.1730671
1	0x3f972754	1.1808877
2	0x3f400000	0.75
3	0x3f4ccccd	0.8
