examples/dce/models/branin_rs/constraint_gp_0.pth (torch, 7282 bytes, 5 tensors)

covar_module.base_kernel.raw_lengthscale f4 [1, 4]
000000 41 8a 45 3f 60 36 5f 3f df a4 62 40 cc ed 1d 40
       0.77164084 0.87192345 3.541313 2.467639

train_x f4 [100, 4]
000000 f2 45 14 3f 18 4e be 3e 00 00 00 3f aa aa aa 3e
       0.5791923 0.37168956 0.5 0.3333333
000010 45 0c 6a 3f 00 00 80 3f 00 00 80 3f aa aa aa 3e
       0.9142497 1.0 1.0 0.3333333
000020 d8 03 23 3f 72 f7 3b 3f 00 00 00 3f ab aa 2a 3f
       0.6367774 0.73424447 0.5 0.6666667
000030 50 4c 72 3f 16 aa 66 3f 00 00 00 3f aa aa aa 3e
       0.94647694 0.9010328 0.5 0.3333333
000040 dc 9a 1e 3f 42 f7 1e 3f 00 00 00 3f ab aa 2a 3f
       0.61955047 0.62096035 0.5 0.6666667
000050 00 00 80 3f 88 ec 38 3f 00 00 00 00 00 00 00 00
       1.0 0.7223592 0.0 0.0
000060 8b a0 6a 3e 24 80 92 3e 00 00 00 3f ab aa 2a 3f
       0.22912805 0.2861339 0.5 0.6666667
000070 18 29 3a 3f be 24 2d 3f 00 00 00 3f 00 00 80 3f
       0.72718954 0.6763419 0.5 1.0
000080 57 6d 3c 3f 10 6a 27 3f 00 00 80 3f ab aa 2a 3f
       0.7360434 0.65396214 1.0 0.6666667
000090 e7 81 6e 3f d5 1c 5f 3e 00 00 00 3f 00 00 80 3f
       0.93166965 0.21788342 0.5 1.0
0000a0 d2 46 51 3f 58 6f 72 3f 00 00 80 3f aa aa aa 3e
       0.8174869 0.9470115 1.0 0.3333333
0000b0 32 73 4b 3f 13 c4 6d 3f 00 00 00 3f 00 00 00 00
       0.7947265 0.9287731 0.5 0.0
0000c0 65 9d 10 3f 74 17 25 3e 00 00 80 3f 00 00 80 3f
       0.56490165 0.16122228 1.0 1.0
0000d0 df 0e 59 3f 1f ae b5 3e 00 00 00 00 ab aa 2a 3f
       0.84788316 0.35484406 0.0 0.6666667
0000e0 f4 de 75 3f 4b e5 37 3e 00 00 00 3f 00 00 80 3f
       0.96043324 0.17958562 0.5 1.0
0000f0 21 3f 4f 3e e8 a0 55 3f 00 00 80 3f aa aa aa 3e
       0.20238926 0.8344865 1.0 0.3333333
000100 48 e0 fa 3e a9 50 7c 3c 00 00 00 00 ab aa 2a 3f
       0.48999238 0.01540009 0.0 0.6666667
000110 c2 1a b2 3e ce 2d f9 3e 00 00 80 3f ab aa 2a 3f
       0.3478604 0.4866776 1.0 0.6666667
000120 83 24 98 3d 0f d1 77 3f 00 00 00 3f aa aa aa 3e
       0.07428839 0.96803373 0.5 0.3333333
000130 78 88 1b 3f 0e 4a 2b 3e 00 00 80 3f 00 00 80 3f
       0.6075511 0.16727468 1.0 1.0
000140 dd 1f ca 3e 56 bf ac 3e 00 00 00 3f aa aa aa 3e
       0.39477435 0.33739728 0.5 0.3333333
000150 8e 2a 25 3e f2 50 79 3e 00 00 00 3f aa aa aa 3e
       0.16129515 0.24347284 0.5 0.3333333
000160 e3 5d f5 3e 5d 46 33 3f 00 00 00 3f ab aa 2a 3f
       0.47923192 0.7002924 0.5 0.6666667
000170 4e de 89 3e c0 94 b5 3d 00 00 80 3f 00 00 00 00
       0.26927418 0.088662624 1.0 0.0
000180 32 56 ee 3c 41 74 62 3f 00 00 80 3f aa aa aa 3e
       0.029093836 0.8845864 1.0 0.3333333
000190 4d da 53 3f 80 28 fa 3e 00 00 00 00 aa aa aa 3e
       0.82754976 0.48859024 0.0 0.3333333
0001a0 a4 f8 37 3e 73 0e a3 3e 00 00 00 3f 00 00 80 3f
       0.17965943 0.3184696 0.5 1.0
0001b0 b9 40 01 3f f2 41 36 3f 00 00 80 3f aa aa aa 3e
       0.50489384 0.71194375 1.0 0.3333333
0001c0 ef af a3 3e 14 f6 08 3f 00 00 00 3f aa aa aa 3e
       0.31970164 0.53500485 0.5 0.3333333
0001d0 47 18 60 3f 62 4b 34 3c 00 00 80 3f ab aa 2a 3f
       0.87537044 0.011004301 1.0 0.6666667
0001e0 6a d8 3e 3f b1 fe 5c 3f 00 00 80 3f 00 00 00 00
       0.7454897 0.8632613 1.0 0.0
0001f0 8d 62 94 3e 17 8f ed 3e 00 00 00 00 00 00 80 3f
       0.28981438 0.4639823 0.0 1.0
000200 b8 05 c0 3e 69 fd 5a 3f 00 00 80 3f aa aa aa 3e
       0.37504363 0.85542923 1.0 0.3333333
000210 47 18 5d 3f 2d 28 59 3f 00 00 80 3f ab aa 2a 3f
       0.8636517 0.8482693 1.0 0.6666667
000220 f8 93 19 3f 52 22 7d 3f 00 00 80 3f ab aa 2a 3f
       0.5999141 0.98880494 1.0 0.6666667
000230 fd 94 fd 3d 86 bf cc 3e 00 00 00 3f aa aa aa 3e
       0.12381933 0.3998987 0.5 0.3333333
000240 b6 93 05 3e 06 55 51 3f 00 00 00 3f aa aa aa 3e
       0.13044629 0.8177036 0.5 0.3333333
000250 d3 13 67 3d 00 00 00 00 00 00 00 3f 00 00 00 00
       0.05641539 0.0 0.5 0.0
000260 d4 c8 57 3e db 0e a3 3d 00 00 00 00 aa aa aa 3e
       0.21072704 0.07961818 0.0 0.3333333
000270 0b d4 2d 3f d6 a8 9d 3e 00 00 80 3f aa aa aa 3e
       0.67901677 0.30792874 1.0 0.3333333
000280 d5 54 62 3f 34 22 60 3f 00 00 00 3f ab aa 2a 3f
       0.88410693 0.8755219 0.5 0.6666667
000290 52 25 73 3e 93 fa 91 3e 00 00 00 3f 00 00 80 3f
       0.23744705 0.28511485 0.5 1.0
0002a0 71 b2 b0 3d da 47 1c 3f 00 00 00 00 ab aa 2a 3f
       0.08627785 0.61047137 0.0 0.6666667
0002b0 27 54 7a 3f 0d ba 30 3f 00 00 00 3f 00 00 00 00
       0.97784656 0.6903389 0.5 0.0
0002c0 84 f6 41 3f 73 0d 7b 3f 00 00 00 3f ab aa 2a 3f
       0.7576678 0.98067397 0.5 0.6666667
0002d0 af 2a 2f 3f 19 80 3e 3f 00 00 80 3f 00 00 80 3f
       0.68424505 0.7441421 1.0 1.0
0002e0 d6 6f 16 3f f6 df 48 3e 00 00 00 00 aa aa aa 3e
       0.587644 0.19616684 0.0 0.3333333
0002f0 d0 5b 34 3e 43 ef 44 3f 00 00 00 3f aa aa aa 3e
       0.17613149 0.76927584 0.5 0.3333333
000300 50 1a 27 3f 7e 18 41 3f 00 00 00 3f 00 00 80 3f
       0.65274525 0.75428 0.5 1.0
000310 ab c5 c6 3e 94 92 6b 3f 00 00 00 3f aa aa aa 3e
       0.38822684 0.92020535 0.5 0.3333333
000320 94 e6 36 3f 48 22 87 3e 00 00 00 00 00 00 80 3f
       0.71445584 0.26393342 0.0 1.0
000330 98 92 31 3f 67 a2 d0 3e 00 00 00 3f aa aa aa 3e
       0.6936431 0.40748903 0.5 0.3333333
000340 94 e7 c8 3d 29 fe 04 3f 00 00 00 00 ab aa 2a 3f
       0.09809795 0.5195032 0.0 0.6666667
000350 12 63 7b 3e ff 66 04 3f 00 00 00 00 00 00 80 3f
       0.24549511 0.5171966 0.0 1.0
000360 32 af 04 3f 79 d7 25 3f 00 00 00 3f ab aa 2a 3f
       0.51829827 0.6478191 0.5 0.6666667
000370 8b c5 26 3f cd f0 4d 3f 00 00 00 3f aa aa aa 3e
       0.65145177 0.8044556 0.5 0.3333333
000380 2b 2e 8b 3d 5a 4a 47 3e 00 00 00 3f ab aa 2a 3f
       0.06795915 0.19461957 0.5 0.6666667
000390 f2 55 84 3e 33 54 54 3f 00 00 00 00 aa aa aa 3e
       0.2584682 0.8294098 0.0 0.3333333
0003a0 2d 0f 66 3f c4 b0 f3 3d 00 00 00 3f aa aa aa 3e
       0.89866906 0.1189895 0.5 0.3333333
0003b0 7c aa 0b 3f c8 63 22 3d 00 00 00 3f ab aa 2a 3f
       0.54557014 0.03964594 0.5 0.6666667
0003c0 fd ff ce 3e 0e 28 e5 3e 00 00 00 00 ab aa 2a 3f
       0.4042968 0.44757122 0.0 0.6666667
0003d0 a4 ca 1f 3e 05 26 16 3e 00 00 00 3f ab aa 2a 3f
       0.15604645 0.14662941 0.5 0.6666667
0003e0 50 f4 55 3f 97 04 0a 3f 00 00 00 00 ab aa 2a 3f
       0.83575916 0.53913254 0.0 0.6666667
0003f0 85 f8 b7 3e 92 24 ba 3e 00 00 00 00 aa aa aa 3e
       0.35931793 0.36356026 0.0 0.3333333

train_y f4 [100]
000000 3b 1c 15 bf dd 0a 07 40 4d 70 23 3f 5c 16 cc 3f
       -0.582462 2.110038 0.6384323 1.5944324
000010 15 5a a8 3e 89 b3 71 3f a9 13 71 bf 47 fc 88 3f
       0.32881227 0.94414574 -0.94170624 1.0701989
000020 36 d7 8a 3f 7d ce 81 3f d4 74 de 3f 23 a4 90 3f
       1.0846927 1.014114 1.7379403 1.130009
000030 31 c8 f5 3e a7 74 61 3e 62 05 8b 3f 02 d7 fc 3e
       0.48004296 0.22017156 1.0861018 0.49382788
000040 cd cf 82 bf cf f6 6c 3d 0e 0a ed 3e d8 5a 11 3f
       -1.0219666 0.057852563 0.46296734 0.5677924
000050 3c 54 88 bf 5e 24 c1 bf c3 52 7c 3e 19 2e 86 bf
       -1.0650706 -1.5089223 0.24640946 -1.0482818
000060 89 e8 1f 3f 9c 2f 3c 3d 6c b0 cb be 94 7f f7 3e
       0.62464195 0.04594384 -0.39783037 0.48339522
000070 d5 27 45 bf cd 01 5c 3f 96 b5 9a 3f 26 23 d5 be
       -0.77013904 0.8594025 1.2086666 -0.4162838
000080 ed 48 32 3f 93 4c e8 3f ba be d2 3f 39 0a a1 bf
       0.69642526 1.8148369 1.6464455 -1.2581245
000090 f0 e8 63 bd 2b 76 fb bf 26 37 09 c0 f2 47 02 3e
       -0.05564207 -1.9645437 -2.143991 0.12722757
0000a0 a4 2a cb 3f 76 05 cc be 62 2c 32 bf ab bd 84 3f
       1.5872388 -0.39847916 -0.6959897 1.0370382
0000b0 b0 52 c9 3f 8e aa bf 3f 31 52 93 bf 13 70 4e be
       1.5728359 1.4973924 -1.1509458 -0.2015994
0000c0 9b e0 8a 3f 6b b5 f8 3e 7c 6f 1b 3e 14 42 54 be
       1.0849794 0.4857591 0.15179247 -0.20728332
0000d0 b1 b8 72 bf e3 23 b2 be 9c 2f 3b 3e 13 b3 15 3f
       -0.94813067 -0.34793004 0.1827988 0.5847637
0000e0 6c 99 8c bf b3 ba 83 be 00 40 5a 3e 5c 41 05 bf
       -1.0984321 -0.25728378 0.21313477 -0.52052855
0000f0 d5 a4 50 bf f5 0e 8e bf 62 3a ed 3e 47 8a c4 bf
       -0.81501514 -1.1098315 0.46333605 -1.5354699
000100 ac a0 3e 3f b9 bc 3f 3e a9 8d dd bf 93 f0 87 3f
       0.74463916 0.18724336 -1.7308856 1.0620292
000110 66 30 dc bf 12 7d 80 be d8 73 ca bf ae 97 fc bf
       -1.720227 -0.2509542 -1.5816603 -1.9733789
000120 22 37 98 3e 8d 4b 3d 3e 11 ae bd 3d 24 c8 e0 be
       0.29729563 0.18485852 0.09261716 -0.43902695
000130 7e b2 98 3f c1 a8 80 3f 98 01 c4 bf 33 b6 25 3f
       1.1929471 1.00515 -1.5312986 0.6473114
000140 64 85 dd 3f e0 27 17 3f f4 a6 21 bf 8a 62 38 3f
       1.7306333 0.5904522 -0.63145375 0.7202536
000150 1f a2 26 bf 90 f5 73 bf 52 f6 70 bf bd 91 e6 be
       -0.6509113 -0.95296574 -0.94125855 -0.45033064
000160 e4 38 bc bf 1e 5f 8f bf 26 d5 70 3f 58 69 c8 3e
       -1.4704862 -1.1200902 0.9407524 0.3914287
000170 d5 1e b6 bf ab 7a 25 bf d8 00 46 3e 6f 22 fb bd
       -1.4228159 -0.646403 0.1933626 -0.12262427
000180 dc b9 3f bf 88 97 2d 3e 7c 4d 02 bf c8 22 dc be
       -0.74892974 0.16952336 -0.5089948 -0.42995286

min f4 [1, 4]
000000 3b 1e c8 bd 05 29 bc bd 00 00 80 3e cd cc 4c 3e
       -0.09771391 -0.09187511 0.25 0.2

max f4 [1, 4]
000000 85 26 8c 3f e4 74 8c 3f 00 00 40 3f cd cc 4c 3f
       1.0949255 1.0973172 0.75 0.8
