examples/dce/models/branin_rs/constraint_gp_0.pth (torch, 6194 bytes, 5 tensors)

covar_module.base_kernel.raw_lengthscale f4 [1, 4]
00000000: 4b28 f53e 39ea 033e 854a 2640 1ae5 1040
0.47882304 0.12882318 2.5982983 2.2639832

train_x f4 [50, 4]
00000000: f814 523f c5be 9d3d 0000 0000 aaaa aa3e
00000010: 3102 0b3f 4bfa 5b3e 0000 003f abaa 2a3f
00000020: 8148 5c3f 98cd 793f 0000 0000 aaaa aa3e
00000030: 726c d93d f780 db3e 0000 0000 aaaa aa3e
00000040: c87b a23e b624 b03e 0000 003f 0000 803f
00000050: c5ba b43e 44c4 153f 0000 003f 0000 0000
00000060: fd4f 2a3f 7fcc 683f 0000 003f 0000 803f
00000070: 8faf 463f b719 1d3f 0000 803f aaaa aa3e
00000080: 39e2 7b3e 1261 ee3d 0000 003f abaa 2a3f
00000090: e639 793f e1a4 393e 0000 003f aaaa aa3e
000000a0: ab52 c93e adf0 0f3f 0000 003f aaaa aa3e
000000b0: 0000 803f 0000 803f 0000 003f aaaa aa3e
000000c0: 2b43 733f ddd3 cb3e 0000 003f abaa 2a3f
000000d0: d879 313f 7dd9 253f 0000 0000 0000 0000
000000e0: cf5b bc3e d6e5 593f 0000 0000 abaa 2a3f
000000f0: 8a52 163f 5a53 fe3e 0000 803f abaa 2a3f
00000100: f36c 5e3d bdff bb3c 0000 803f aaaa aa3e
00000110: 9587 5a3e 55d5 9d3e 0000 0000 0000 0000
00000120: 4fd7 5d3f e191 bb3e 0000 0000 abaa 2a3f
00000130: 42f8 3e3f f0e8 543f 0000 003f aaaa aa3e
00000140: 6761 073f e640 393f 0000 803f 0000 803f
00000150: ada6 383f f397 943e 0000 803f abaa 2a3f
00000160: e4b3 e63e ab5c 733e 0000 003f abaa 2a3f
00000170: 67dc 6c3f 6d68 203d 0000 003f abaa 2a3f
00000180: 4d2d 1c3f 66ff 773f 0000 803f 0000 803f
00000190: 9ee4 df3e f099 4a3f 0000 0000 abaa 2a3f
000001a0: 783e 563f 8bc6 213f 0000 003f 0000 0000
000001b0: 649c 6a3f c82f c13d 0000 803f aaaa aa3e
000001c0: 5bbc 263f a10d 1c3e 0000 803f 0000 0000
000001d0: 235f 8d3d b35e d13e 0000 003f abaa 2a3f
000001e0: e310 c03d 00b5 063e 0000 0000 0000 803f
000001f0: 2a46 213f 29a4 423f 0000 003f aaaa aa3e
00000200: 1382 393e bc14 483f 0000 803f aaaa aa3e
00000210: 0c31 3b3f dedb 2d3f 0000 003f 0000 0000
00000220: 4222 fe3e ef34 023f 0000 0000 aaaa aa3e
00000230: 9f3f 8f3e dc75 3d3f 0000 003f 0000 803f
00000240: 8d87 6b3e b66d 5f3f 0000 803f abaa 2a3f
00000250: cda2 033f e9f8 f23e 0000 003f aaaa aa3e
00000260: 801e 003e eabb 283e 0000 003f abaa 2a3f
00000270: d1c9 363e 4039 e73e 0000 003f 0000 803f
00000280: 0000 0000 46a2 aa3e 0000 003f 0000 0000
00000290: a684 103e 8228 833e 0000 003f abaa 2a3f
000002a0: bc61 a63e d296 8a3e 0000 003f aaaa aa3e
000002b0: 07f6 ac3c fd8b 6f3f 0000 003f aaaa aa3e
000002c0: 38ce 123f 0000 0000 0000 0000 aaaa aa3e
000002d0: ea0c 4d3f 73b7 0a3f 0000 0000 abaa 2a3f
000002e0: b0a0 f33e e78c 523f 0000 803f abaa 2a3f
000002f0: a9e1 653f 37ec 333f 0000 003f abaa 2a3f
00000300: 2384 d63e 25d9 193f 0000 803f aaaa aa3e
00000310: 80c0 913e 4aea 693f 0000 003f aaaa aa3e
0.82063246 0.07702402 0.0 0.3333333 0.5430022 0.21482198 0.5 0.6666667
0.8604813 0.97579336 0.0 0.3333333 0.106163874 0.4287183 0.0 0.3333333
0.31735063 0.34403008 0.5 1.0 0.35298744 0.585026 0.5 0.0
0.665283 0.90937036 0.5 1.0 0.7761163 0.6136736 1.0 0.3333333
0.24598016 0.116396084 0.5 0.6666667 0.9735397 0.18129303 0.5 0.3333333
0.39320883 0.5622662 0.5 0.3333333 1.0 1.0 0.5 0.3333333
0.95024365 0.39810076 0.5 0.6666667 0.69326544 0.64784986 0.0 0.0
0.36788794 0.85116327 0.0 0.6666667 0.58719695 0.49672967 1.0 0.6666667
0.05430312 0.022949094 1.0 0.3333333 0.21340783 0.30826822 0.0 0.0
0.8665666 0.36634734 0.0 0.6666667 0.7459756 0.83167934 0.5 0.3333333
0.52883 0.7236465 1.0 1.0 0.7212933 0.29022178 1.0 0.6666667
0.4505912 0.23765819 0.5 0.6666667 0.9252381 0.03916209 0.5 0.6666667
0.61006624 0.9687408 1.0 1.0 0.4372911 0.7914114 0.0 0.6666667
0.8368907 0.6319358 0.5 0.0 0.91644883 0.09432942 1.0 0.3333333
0.6513116 0.15239574 1.0 0.0 0.069029115 0.40892562 0.5 0.6666667
0.09378221 0.13154984 0.0 1.0 0.62997687 0.7603174 0.5 0.3333333
0.18116026 0.7815664 1.0 0.3333333 0.73121715 0.67913616 0.5 0.0
0.49635512 0.5086202 0.0 0.3333333 0.27978227 0.74007964 0.5 1.0
0.23000927 0.8727678 1.0 0.6666667 0.5142029 0.47455528 0.5 0.3333333
0.12511635 0.16477934 0.5 0.6666667 0.17850424 0.45160866 0.5 1.0
0.0 0.3332693 0.5 0.0 0.14113101 0.25616843 0.5 0.6666667
0.3249644 0.27068192 0.5 0.3333333 0.021113409 0.9357298 0.5 0.3333333
0.57345915 0.0 0.0 0.3333333 0.8009783 0.5418617 0.0 0.6666667
0.47583532 0.8224625 1.0 0.6666667 0.89797455 0.7028231 0.5 0.6666667
0.41897687 0.6009696 1.0 0.3333333 0.28467178 0.9137312 0.5 0.3333333

train_y f4 [50]
00000000: 0061 87be a0f1 13bf 5e58 c23f 01d9 ddbf
00000010: 3e19 d5be 7296 68bf 34d2 c13f 06b9 533f
00000020: db58 92bf ea95 1d3f 9459 30bf 8494 0c40
00000030: c6c2 6a3f 33d7 36be c4e6 823e 2430 b23e
00000040: 4b0a 61bf 2202 1cc0 8bcb aa3e 4ef2 703f
00000050: ea7a 893f 329e e03e f58b 4abf e49a 323f
00000060: aea5 f33f 19d8 0d3e caa4 063f 259c 483f
00000070: 5a45 95be cc11 65bf 2765 7dbf 92a7 d53e
00000080: fa35 953e 411c 9a3e cfab 76bf aaf4 db3e
00000090: 5893 5c3f 1013 27bf 10d3 97bf 022f adbe
000000a0: c3d5 d7bf 338a 91bf 59f4 b5bf 6ac2 ef3e
000000b0: 5e76 95bf ab0e c13e 4661 703f 4012 a33f
000000c0: a6a6 15bd e4ca ca3e
-0.26441193 -0.57790565 1.5183218 -1.7331849 -0.4162082 -0.9085456 1.5142274 0.827042
-1.1433367 0.61556876 -0.68886685 2.1965647 0.9170345 -0.1785553 0.25566685 0.34802353
-0.8790633 -2.4376302 0.33358416 0.9411973 1.0740635 0.43870693 -0.7911981 0.69767594
1.9034936 0.13851966 0.525952 0.7836326 -0.29154474 -0.8948028 -0.9898247 0.41729409
0.29142743 0.3009968 -0.9635591 0.429601 0.8616233 -0.6526346 -1.1861286 -0.33824927
-1.686211 -1.13703 -1.4215194 0.46828014 -1.1676748 0.37706503 0.9389843 1.2739944
-0.03653588 0.39607918

min f4 [1, 4]
00000000: 5f78 4bbe 14e6 47be 0000 803e cdcc 4c3e
-0.19870137 -0.19521362 0.25 0.2

max f4 [1, 4]
00000000: a2c9 983f 7166 973f 0000 403f cdcc 4c3f
1.1936533 1.1828138 0.75 0.8
