examples/dce/models/branin_rs/constraint_gp_0.pth (torch, 7218 bytes, 5 tensors)

covar_module.base_kernel.raw_lengthscale f4 [1, 4]
0.59609115 0.35800698 3.0581224 2.532131
00000000: 6e99 183f b14c b73e 47b8 4340 6f0e 2240

train_x f4 [100, 4]
0.80268854 0.099740036 0.5 0.3333333 0.6029168 0.72540313 0.5 0.6666667
0.016910238 0.34942687 0.5 0.6666667 0.49687043 0.17565253 0.5 0.0
0.63274866 0.15015914 1.0 0.6666667 0.27342394 0.3131073 0.5 1.0
0.05933672 0.98798466 0.5 0.3333333 0.20086832 0.084703706 0.0 0.0
0.06907219 0.63454837 1.0 0.6666667 0.3544734 0.10795945 0.0 0.0
0.38001364 0.2366347 0.0 0.6666667 0.09294518 0.4075933 0.5 0.3333333
0.9815232 0.0 1.0 0.6666667 0.8988112 0.46845043 0.5 0.6666667
0.5155553 0.28164303 1.0 0.6666667 0.34001866 0.89207244 0.5 1.0
0.717043 0.47595584 0.5 0.0 0.4067671 0.38046756 0.5 0.3333333
0.9165118 0.8036845 1.0 0.3333333 0.9662569 0.6020292 0.5 0.6666667
0.21845213 0.12960623 0.0 0.3333333 0.0 0.13806576 1.0 1.0
0.2553152 0.30536914 0.5 0.0 0.46985495 0.76690406 0.5 0.3333333
0.8874405 0.71753633 0.5 0.3333333 0.29720768 0.91813064 0.5 0.6666667
1.0 0.18750583 0.5 0.0 0.76767355 0.08932983 1.0 0.3333333
0.57657564 0.7734991 0.0 0.3333333 0.122991465 0.36429763 1.0 0.6666667
0.66914904 0.70573807 0.5 0.6666667 0.18464293 0.16113167 0.5 0.6666667
0.57040536 0.5097069 0.5 0.3333333 0.65649194 0.6173919 0.0 0.3333333
0.676513 0.057753064 1.0 0.0 0.87027705 0.33374667 0.5 0.6666667
0.6844709 0.12225205 0.5 0.6666667 0.4762891 0.565139 0.5 0.3333333
0.16017327 0.57900804 0.0 0.3333333 0.083397225 0.8758752 0.5 0.6666667
0.049315576 0.8979591 0.0 1.0 0.6958459 0.69478816 0.5 0.3333333
0.4504997 0.045056984 0.5 0.3333333 0.55081457 0.85480297 1.0 0.3333333
0.29930672 0.3748966 1.0 0.6666667 0.13526887 0.2587996 0.0 0.6666667
0.86112475 0.9457487 0.5 0.0 0.5955072 0.6912511 1.0 0.6666667
0.90594256 0.07704355 0.5 0.0 0.94842875 0.007382621 0.5 1.0
0.39514124 0.7450382 1.0 0.3333333 0.44471976 0.4974498 0.0 0.6666667
0.85508734 0.028903747 0.5 1.0 0.32982022 0.7827196 0.5 0.6666667
0.031677164 0.5820359 0.0 0.6666667 0.73894536 0.972585 1.0 0.0
0.80975056 0.22497052 1.0 0.3333333 0.37472603 0.924871 0.0 0.3333333
0.13977487 0.04738094 0.5 0.3333333 0.76142967 0.9368459 1.0 0.0
0.16850391 0.67434996 0.0 0.3333333 0.19545193 0.97780377 0.5 0.3333333
0.78443927 0.95567614 0.5 0.6666667 0.27975118 0.8161313 0.5 0.3333333
00000000: ff7c 4d3f 8144 cc3d 0000 003f aaaa aa3e
00000010: c158 1a3f 05b4 393f 0000 003f abaa 2a3f
00000020: 5787 8a3c 14e8 b23e 0000 003f abaa 2a3f
00000030: cd65 fe3e 42de 333e 0000 003f 0000 0000
00000040: d1fb 213f 51c3 193e 0000 803f abaa 2a3f
00000050: 39fe 8b3e 9a4f a03e 0000 003f 0000 803f
00000060: 0f0b 733d 90ec 7c3f 0000 003f aaaa aa3e
00000070: 6db0 4d3e 2379 ad3d 0000 0000 0000 0000
00000080: b875 8d3d c371 223f 0000 803f abaa 2a3f
00000090: 8a7d b53e d819 dd3d 0000 0000 0000 0000
000000a0: 2691 c23e 5e50 723e 0000 0000 abaa 2a3f
000000b0: 0b5a be3d 12b0 d03e 0000 003f aaaa aa3e
000000c0: 1b45 7b3f 0000 0000 0000 803f abaa 2a3f
000000d0: 7e18 663f bcd8 ef3e 0000 003f abaa 2a3f
000000e0: 6ffb 033f 8433 903e 0000 803f abaa 2a3f
000000f0: ed16 ae3e dc5e 643f 0000 003f 0000 803f
00000100: 2190 373f 7cb0 f33e 0000 003f 0000 0000
00000110: c743 d03e a5cc c23e 0000 003f aaaa aa3e
00000120: 84a0 6a3f 44be 4d3f 0000 803f aaaa aa3e
00000130: 9d5c 773f 961e 1a3f 0000 003f abaa 2a3f
00000140: eab1 5f3e 7fb7 043e 0000 0000 aaaa aa3e
00000150: 0000 0000 1c61 0d3e 0000 803f 0000 803f
00000160: adb8 823e 5859 9c3e 0000 003f 0000 0000
00000170: d490 f03e d353 443f 0000 003f aaaa aa3e
00000180: 4d2f 633f 76b0 373f 0000 003f aaaa aa3e
00000190: 9b2b 983e 9c0a 6b3f 0000 003f abaa 2a3f
000001a0: 0000 803f 8701 403e 0000 003f 0000 0000
000001b0: 4186 443f 8ff2 b63d 0000 803f aaaa aa3e
000001c0: 769a 133f 0904 463f 0000 0000 aaaa aa3e
000001d0: f3e2 fb3d 3885 ba3e 0000 803f abaa 2a3f
000001e0: 5a4d 2b3f 40ab 343f 0000 003f abaa 2a3f
000001f0: 0913 3d3e b3ff 243e 0000 003f abaa 2a3f
00000200: 1606 123f 277c 023f 0000 003f aaaa aa3e
00000210: db0f 283f 650d 1e3f 0000 0000 aaaa aa3e
00000220: f52f 2d3f 7a8e 6c3d 0000 803f 0000 0000
00000230: 7aca 5e3f d8e0 aa3e 0000 003f abaa 2a3f
00000240: 7c39 2f3f 485f fa3d 0000 003f abaa 2a3f
00000250: 2adc f33e f3ac 103f 0000 003f aaaa aa3e
00000260: 7604 243e df39 143f 0000 0000 aaaa aa3e
00000270: 2acc aa3d 5b39 603f 0000 003f abaa 2a3f
00000280: 21ff 493d a6e0 653f 0000 0000 0000 803f
00000290: f522 323f a3dd 313f 0000 003f aaaa aa3e
000002a0: e6a7 e63e ac8d 383d 0000 003f aaaa aa3e
000002b0: 2f02 0d3f 5ed4 5a3f 0000 803f aaaa aa3e
000002c0: bb3e 993e 72f2 bf3e 0000 803f abaa 2a3f
000002d0: ec83 0a3e 6281 843e 0000 0000 abaa 2a3f
000002e0: ac72 5c3f 961c 723f 0000 003f 0000 0000
000002f0: 2973 183f d5f5 303f 0000 803f abaa 2a3f
00000300: daeb 673f 02c9 9d3d 0000 003f 0000 0000
00000310: 3acc 723f eae9 f13b 0000 003f 0000 803f
00000320: f44f ca3e d3ba 3e3f 0000 803f aaaa aa3e
00000330: 4fb2 e33e bdb1 fe3e 0000 0000 abaa 2a3f
00000340: 01e7 5a3f 8dc7 ec3c 0000 003f 0000 803f
00000350: 32de a83e 5060 483f 0000 003f abaa 2a3f
00000360: eabf 013d 4e00 153f 0000 0000 abaa 2a3f
00000370: 862b 3d3f 55fb 783f 0000 803f 0000 0000
00000380: d04b 4f3f ac5e 663e 0000 803f aaaa aa3e
00000390: 17dc bf3e 59c4 6c3f 0000 0000 aaaa aa3e
000003a0: 2521 0f3e 8412 423d 0000 003f aaaa aa3e
000003b0: 0eed 423f 22d5 6f3f 0000 803f 0000 0000
000003c0: 4a8c 2c3e 33a2 2c3f 0000 0000 aaaa aa3e
000003d0: 8d24 483e 5951 7a3f 0000 003f aaaa aa3e
000003e0: 03d1 483f 31a7 743f 0000 003f abaa 2a3f
000003f0: 8c3b 8f3e fbed 503f 0000 003f aaaa aa3e

train_y f4 [100]
-0.065224186 0.5191323 -0.9588321 -1.3461825 0.12696119 -0.4928236 0.67829126 -2.6445532
0.14730933 -2.3159664 -1.3143814 -1.3136183 1.2640024 0.8135382 -0.09939151 0.9745044
-0.22987723 -1.0868928 1.6914041 1.2771277 -2.1676424 -0.08862963 -1.7629452 0.11084636
1.0492517 0.6985988 0.55565363 0.25708935 0.09005194 -0.43072754 0.6225943 -1.1771396
-0.415361 -0.18739505 -0.19610532 0.54701275 -0.1787317 -0.5033468 -1.2197409 0.4912148
0.69869345 0.4079374 -1.1806384 0.9443232 -0.33691216 -1.5529076 1.4995551 0.7964374
0.17334475 1.1085871 0.35227153 -0.7260203 0.7812254 0.24806052 -0.7737251 1.5908177
0.40796775 0.3032734 -1.6098557 1.5293657 -0.85949206 0.62998545 1.6536555 0.043207925
-0.19789752 2.1460824 1.79816 1.0718572 0.019251723 -0.454722 -0.6783939 1.2795662
-0.09875995 -2.5968118 -0.22273012 1.4778141 0.46735403 -0.9722748 -0.9462662 -0.7438865
-0.5983971 0.66378415 -0.62139827 -1.0581747 -1.3164203 0.65029967 -0.14901136 1.2483351
-1.0658396 0.47342014 0.9812518 0.85432756 0.009234162 0.039602626 0.18072447 0.89408404
-0.27904332 0.10161925 -0.31756538 0.11259205
00000000: 4294 85bd dbe5 043f 0576 75bf b54f acbf
00000010: 1d02 023e 6053 fcbe 7fa4 2d3f 5c40 29c0
00000020: 42d8 163e cb38 14c0 a63d a8bf a524 a8bf
00000030: d5ca a13f 0a44 503f c78d cbbd 1f79 793f
00000040: f064 6bbe 4e1f 8bbf ee7f d83f ec78 a33f
00000050: a7ba 0ac0 7483 b5bd 30a8 e1bf 6b03 e33d
00000060: e14d 863f 5fd7 323f 513f 0e3f 37a1 833e
00000070: 276d b83d 5288 dcbe 5762 1f3f 83ac 96bf
00000080: 32aa d4be 7de4 3fbe d5cf 48be 0709 0c3f
00000090: 7105 37be 56db 00bf 7820 9cbf 8280 fb3e
000000a0: 93dd 323f 2cdd d03e 291f 97bf 2abf 713f
000000b0: c07f acbe adc5 c6bf 6cf1 bf3f 52e3 4b3f
000000c0: 4981 313e 2fe6 8d3f ef5c b43e 77dc 39bf
000000d0: 63fe 473f 9403 7e3e d912 46bf ea9f cb3f
000000e0: 26e1 d03e a746 9b3e c00f cebf 41c2 c33f
000000f0: ac07 5cbf ba46 213f fcaa d33f cbfa 303d
00000100: a6a5 4abe 6a59 0940 1b2a e63f 9e32 893f
00000110: cab5 9d3c 52d1 e8be 39ab 2dbf d3c8 a33f
00000120: a842 cabd 2a32 26c0 5d13 64be 0329 bd3f
00000130: 0749 ef3e 00e7 78bf 803e 72bf 586f 3ebf
00000140: 8d30 19bf c2ed 293f f513 1fbf 4572 87bf
00000150: 7680 a8bf 0a7a 263f 6f96 18be 72c9 9f3f
00000160: 6f6d 88bf 2064 f23e 5133 7b3f 36b5 5a3f
00000170: e24a 173c 5d36 223d d60f 393e b1e2 643f
00000180: c4de 8ebe c11d d03d ee97 a2be a996 e63d

min f4 [1, 4]
-0.19189514 -0.19529487 0.25 0.2
00000000: 2980 44be 61fb 47be 0000 803e cdcc 4c3e

max f4 [1, 4]
1.1902893 1.1945666 0.75 0.8
00000000: 665b 983f 8fe7 983f 0000 403f cdcc 4c3f
