examples/iwoba/models/prestress/constraint_gp_0.pth (torch, 145266 bytes, 5 tensors)

covar_module.base_kernel.raw_lengthscale f4 [1, 6]
0	0xbf1fcc8e	-0.624215
1	0xc0345489	-2.8176596
2	0x417bbf89	15.7342615
3	0xc044c759	-3.0746672
4	0xc006395e	-2.0972514
5	0xc024b98f	-2.5738256

train_x f4 [5000, 6]
0	0x3d174d54	0.03693898
1	0x3f562598	0.83651114
2	0x3ea7750f	0.32706496
3	0x3f1043a0	0.5635319
4	0x3f075507	0.52864116
5	0x3f181929	0.5941339
6	0x3ed452d2	0.41469437
7	0x3eed24c7	0.4631712
8	0x3f02c6cd	0.51084596
9	0x3f021f34	0.5082886
10	0x3edd0b69	0.43172768
11	0x3f25e059	0.6479545
12	0x3f1a5de4	0.60299516
13	0x3f046fa1	0.5173283
14	0x3ed93d31	0.42429498
15	0x3f2ec7af	0.68273443
16	0x3f4130cd	0.7546509
17	0x3f16444d	0.5869797
18	0x3f284e33	0.6574432
19	0x3eb309db	0.34968457
20	0x3eb61ca5	0.3556873
21	0x3f22dcfd	0.6361845
22	0x3f2cde41	0.6752663
23	0x3f1dfda1	0.6171513
24	0x3eb07331	0.34462884
25	0x3f2b7c55	0.6698659
26	0x3f2f6ba7	0.6852364
27	0x3ed94655	0.42436472
28	0x3e948fbb	0.29015908
29	0x3ef76088	0.48315835
30	0x3e6d952c	0.23201436
31	0x3d3c7532	0.046010204
32	0x3ee250ee	0.4420237
33	0x3f091ac6	0.5355648
34	0x3ef6a8bf	0.48175618
35	0x3f237ae5	0.638594
36	0x3f4b2269	0.7934938
37	0x3f793afa	0.97355616
38	0x3f0807fb	0.5313718
39	0x3e5f692b	0.21817462
40	0x3e5b376c	0.2140786
41	0x3e546d3b	0.20744793
42	0x3f56a8f5	0.8385156
43	0x3edc3b99	0.4301422
44	0x3ef30092	0.47461373
45	0x3ee75cfc	0.4518813
46	0x3eda2896	0.4260909
47	0x3edb72be	0.4286098
48	0x3e1b3645	0.15157421
49	0x3f1ce3a3	0.61284846
50	0x3f101fd3	0.5629856
51	0x3f1a213f	0.6020698
52	0x3f1b0369	0.6055208
53	0x3f4370cf	0.7634401
54	0x3e8afcf2	0.27146107
55	0x3e7141e8	0.23560297
56	0x3ec57b78	0.38570762
57	0x3ea8d602	0.32975775
58	0x3ecda60f	0.40165755
59	0x3ee576c0	0.44817162
60	0x3f35f95f	0.71083635
61	0x3f4eb1fb	0.80740327
62	0x3f43ae69	0.76438004
63	0x3f02f007	0.511475
64	0x3ee0405c	0.43799102
65	0x3ef0ef14	0.47057402
66	0x3f07e251	0.53079706
67	0x3d9a197b	0.07524391
68	0x3efc6124	0.49292862
69	0x3f18c11b	0.59669656
70	0x3ef9816b	0.4873155
71	0x3ece1ac1	0.40254787
72	0x3eef2830	0.46710348
73	0x3f61bda1	0.88179976
74	0x3eccbcb7	0.39987728
75	0x3ec10bc9	0.37704304
76	0x3ed1940d	0.40933266
77	0x3f06d442	0.5266763
78	0x3da5deab	0.08099111
79	0x3e821156	0.2540385
80	0x3f1835a9	0.5945688
81	0x3f58dadf	0.8470897
82	0x3f542a31	0.8287688
83	0x3f5192e4	0.8186476
84	0x3f64bba2	0.89348805
85	0x3f33f92d	0.7030209
86	0x3e6ba237	0.23011099
87	0x3ef56c4a	0.4793418
88	0x3edbf891	0.4296308
89	0x3f00827e	0.50199115
90	0x3f6c9ed6	0.92429864
91	0x3e923029	0.28552368
92	0x3f13b2d1	0.5769473
93	0x3f0c7086	0.548592
94	0x3f3711c5	0.7151149
95	0x3f332e24	0.6999228
96	0x3de70886	0.112809226
97	0x3f3bea38	0.73404264
98	0x3ef73ebf	0.4829006
99	0x3e8c9ba2	0.27462488
100	0x3e3f47e4	0.18679768
101	0x3e14eaca	0.1454269
102	0x3eff6caa	0.49887592
103	0x3dda91b2	0.106723204
104	0x3f366774	0.71251607
105	0x3f288297	0.65824264
106	0x3f1e2d8c	0.6178825
107	0x3f1e65c7	0.6187405
108	0x3f0fca88	0.56168413
109	0x3f69af0d	0.9128273
110	0x3ebc7274	0.3680607
111	0x3ede0aa5	0.43367496
112	0x3ee77797	0.45208427
113	0x3f0db8fe	0.553604
114	0x3f3dda58	0.7416129
115	0x3e50fe39	0.20409478
116	0x3ed48b6b	0.41512617
117	0x3efdbc44	0.49557698
118	0x3efc4868	0.49273992
119	0x3f3978b7	0.7244982
120	0x3e9b4ae9	0.3033059
121	0x3f46c276	0.77640474
122	0x3f00a35a	0.50249255
123	0x3f2a433a	0.6650883
124	0x3f19f305	0.60136443
125	0x3f0ce811	0.55041605
126	0x3e3bc62e	0.18337318
127	0x3ecc187f	0.3986244
128	0x3e1bb015	0.15203889
129	0x3ecd819b	0.40137944
130	0x3e87d29f	0.2652788
131	0x3ebca499	0.36844328
132	0x3f5e8eec	0.8693683
133	0x3f14f4bb	0.5818593
134	0x3f144c79	0.5792919
135	0x3f0e1121	0.55494887
136	0x3f18ac42	0.59637845
137	0x3f19c8c5	0.60071975
138	0x3f433330	0.7624998
139	0x3c757af8	0.014982931
140	0x3e98e8b5	0.2986504
141	0x3f3bbeb3	0.7333786
142	0x3f29f664	0.6639159
143	0x3f34dddb	0.70651025
144	0x3e4cf037	0.2001351
145	0x3f712beb	0.9420764
146	0x3f1f7581	0.6228867
147	0x3ef14adc	0.47127426
148	0x3f06c050	0.52637196
149	0x3f03e689	0.51523644
150	0x3ea016b9	0.31267336
151	0x3ea327cd	0.31866303
152	0x3eddd966	0.43329924
153	0x3f14e161	0.581564
154	0x3f15493c	0.5831487
155	0x3ef5f314	0.48037016
156	0x3f2061fe	0.62649524
157	0x3f236cea	0.63838065
158	0x3f05cf1f	0.52269167
159	0x3eba0972	0.3633533
160	0x3eae9e36	0.3410508
161	0x3f05823b	0.5215184
162	0x3f1270ec	0.57203555
163	0x3efd029b	0.4941605
164	0x3f280579	0.6563335
165	0x3eb74bd0	0.35800028
166	0x3ea33b3a	0.31881124
167	0x3ee4c5a9	0.44682053
168	0x3ec3fcdd	0.38278857
169	0x3f0c8129	0.5488458
170	0x3eaf3a78	0.34224296
171	0x3f04f58f	0.5193719
172	0x3eff8cf3	0.49912223
173	0x3f02c741	0.5108529
174	0x3ba26c40	0.004956752
175	0x3e332bbd	0.17497154
176	0x3f0aa599	0.5415893
177	0x3eee6703	0.46562967
178	0x3efb7e5e	0.49119848
179	0x3edd28f7	0.43195316
180	0x3f7128e5	0.94203025
181	0x3f5e3680	0.8680191
182	0x3ee934c9	0.45548084
183	0x3f1ccf7e	0.6125411
184	0x3f03128a	0.51200163
185	0x3f3050b7	0.6887316
186	0x3f76bf7e	0.96385944
187	0x3ee19224	0.4405681
188	0x3ec7d240	0.39027596
189	0x3f0f127a	0.5588757
190	0x3f0d1f85	0.5512622
191	0x3f281b32	0.65666497
192	0x3cd7f214	0.026360549
193	0x3f0238b9	0.508678
194	0x3f5d12d2	0.8635684
195	0x3ecafd02	0.39646155
196	0x3eaf04d5	0.34183374
197	0x3eb078a4	0.34467041
198	0x3ecb2914	0.39679778
199	0x3e0a0a27	0.13480435
200	0x3eef1f20	0.46703434
201	0x3f2dbc31	0.6786528
202	0x3f0e055a	0.55476916
203	0x3f19d065	0.6008361
204	0x3f15eae7	0.5856156
205	0x3f507e38	0.81442595
206	0x3f0eaf4f	0.5573625
207	0x3efaa29f	0.48952195
208	0x3f06abcc	0.5260589
209	0x3f11ccce	0.5695313
210	0x3f27f8db	0.656141
211	0x3d58e587	0.05295327
212	0x3f19f248	0.60135317
213	0x3ee1ba38	0.44087386
214	0x3f07d01b	0.5305192
215	0x3f210172	0.6289283
216	0x3eaf0c2d	0.34188977
217	0x3f7f742e	0.9978665
218	0x3e87326a	0.2640565
219	0x3f25ac9a	0.64716494
220	0x3f101e7b	0.5629651
221	0x3f070660	0.527441
222	0x3e53479c	0.20632786
223	0x3ebfb867	0.37445375
224	0x3ef92fa1	0.4866915
225	0x3e94dde2	0.29075533
226	0x3e86e564	0.26346886
227	0x3eb576b3	0.35442123
228	0x3f44ad28	0.76826715
229	0x3f2d2549	0.6763502
230	0x3eca81e3	0.3955222
231	0x3f0b8148	0.5449414
232	0x3f0dd603	0.5540468
233	0x3f16035a	0.58598864
234	0x3f5914ce	0.8479737
235	0x3e681f46	0.2266818
236	0x3f0451a7	0.5168709
237	0x3f1e4663	0.6182615
238	0x3f114e88	0.56760454
239	0x3f270650	0.6524401
240	0x3e256d2e	0.1615493
241	0x3f48fa6a	0.785071
242	0x3edb0bb7	0.42782375
243	0x3eec101a	0.46106035
244	0x3ee57126	0.44812888
245	0x3efda99b	0.4954346
246	0x3e9455c2	0.28971678
247	0x3ed08854	0.4072901
248	0x3f21ae9e	0.6315707
249	0x3f06adbe	0.5260886
250	0x3f0f0ab8	0.5587573
251	0x3eca7400	0.39541626
252	0x3f3a43e2	0.7275983
253	0x3f1abd0c	0.6044471
254	0x3e9fcc7d	0.312107
255	0x3eb006a2	0.3438006

train_y f4 [5000]
0	0x3eff8986	0.4990961
1	0xbf0495bf	-0.51790994
2	0xbef63206	-0.4808504
3	0xbfb25928	-1.3933458
4	0xbc75fa59	-0.015013301
5	0x3f51b79d	0.81920797
6	0x3f51b79d	0.81920797
7	0x3f3f2438	0.7466464
8	0x3d04af1f	0.03239357
9	0x3f51b79d	0.81920797
10	0xbd803991	-0.0626098
11	0x3f51b79d	0.81920797
12	0x3f011323	0.50419825
13	0x3e0bf81a	0.13668862
14	0x3e0a1a3f	0.13486575
15	0xc020abcd	-2.510486
16	0xbe954a2e	-0.29158157
17	0x3f51b79d	0.81920797
18	0x3ec2eec5	0.38072792
19	0xc0067bb8	-2.1013012
20	0x3f249bba	0.6430012
21	0xbee9639b	-0.45583805
22	0x3d08b8c4	0.03337933
23	0x3f51b79d	0.81920797
24	0x3f4218b7	0.7581896
25	0xbed940a4	-0.4243213
26	0x3ed9c046	0.42529505
27	0x3ee33f24	0.4438411
28	0x3d958ebc	0.07302615
29	0x3f51b79d	0.81920797
30	0x3ea611e0	0.32435513
31	0xbfbe1ac5	-1.485192
32	0x3e960556	0.29300946
33	0x3f51b79d	0.81920797
34	0x3f17a542	0.5923654
35	0x3f51b79d	0.81920797
36	0x3f0a229d	0.53959066
37	0x3e46e6f1	0.19424035
38	0x3f45c5ab	0.7725474
39	0xc0137b88	-2.3044147
40	0x3f1a0dd1	0.6017733
41	0x3ecb7f4d	0.3974556
42	0x3f000011	0.500001
43	0xbf26dbf1	-0.65179354
44	0x3f1b8d9e	0.60762966
45	0x3f51b79d	0.81920797
46	0x3f1b11d6	0.6057409
47	0x3f51b79d	0.81920797
48	0x3f36e714	0.7144635
49	0xbf53df34	-0.82762456
50	0x3f4a11b4	0.7893326
51	0xbfbeec70	-1.4915905
52	0x3c5ac947	0.013353652
53	0x3f51b79d	0.81920797
54	0xc00f5844	-2.2397623
55	0x3f08c38c	0.5342338
56	0xbe268013	-0.16259794
57	0x3f51b79d	0.81920797
58	0xbb88921d	-0.0041678087
59	0xbfaf7d71	-1.3710157
60	0x3f51b79d	0.81920797
61	0x3e7ed119	0.24884452
62	0x3e97627a	0.2956732
63	0xbfb43c23	-1.4080852
64	0x3ebc459c	0.36771858
65	0x3f51b79d	0.81920797
66	0x3f51b79d	0.81920797
67	0x3f51b79d	0.81920797
68	0x3d9756b3	0.073895834
69	0xbe40c923	-0.18826728
70	0xbe61591e	-0.22006652
71	0x3f51b79d	0.81920797
72	0x3ebaebd4	0.36508048
73	0xbed69edc	-0.41918075
74	0xbfb60ab5	-1.4222018
75	0xbf252a3f	-0.6451759
76	0xbeaac326	-0.3335201
77	0x3e4d287f	0.2003498
78	0xbea02154	-0.31275427
79	0x3f51b79d	0.81920797
80	0x3ea80d48	0.32822633
81	0x3f51b79d	0.81920797
82	0xbecc99d2	-0.39961106
83	0xbfd665fd	-1.6749874
84	0x3f23b8c8	0.6395383
85	0x3f51b79d	0.81920797
86	0xbe085c4b	-0.13316457
87	0xbfd2abf5	-1.6458727
88	0x3e925a98	0.28584743
89	0x3f51b79d	0.81920797
90	0x3f28ebc6	0.6598476
91	0x3f51b79d	0.81920797
92	0x3f51b79d	0.81920797
93	0x3ec3c97d	0.3823966
94	0xbdfa147c	-0.12210938
95	0x3f51b79d	0.81920797
96	0x3f0ace58	0.54221106
97	0xbe73fca1	-0.23826839
98	0xbe6cbce5	-0.23118933
99	0xbf0f1179	-0.55886036
100	0xbe40ec0f	-0.18840049
101	0x3f51b79d	0.81920797
102	0x3e96cded	0.29453984
103	0xbfbd5532	-1.4791625
104	0x3f0535d5	0.52035266
105	0x3f51b79d	0.81920797
106	0x3f03c5b9	0.51473576
107	0xbfb74390	-1.4317493
108	0xbe47b162	-0.1950126
109	0x3de786a4	0.113049775
110	0x3ec5fd74	0.38669932
111	0xbb828dc3	-0.0039841845
112	0x3dfe07e7	0.12403851
113	0xbf8de24e	-1.1084688
114	0xbef4dad3	-0.478232
115	0x3f51b79d	0.81920797
116	0x3ec6ab96	0.38802785
117	0xbd913139	-0.070894666
118	0x3f4cbc4c	0.7997482
119	0x3f51b79d	0.81920797
120	0x3f485abb	0.78263444
121	0xbf058c64	-0.52167344
122	0x3d57b228	0.052660137
123	0xbf1592d3	-0.5842716
124	0xbcf8cf94	-0.030372418
125	0x3f51b79d	0.81920797
126	0xbf7291f5	-0.9475396
127	0x3d9c4d79	0.07631964
128	0x3eb9e0f0	0.36304426
129	0xbf03c29c	-0.51468825
130	0x3f393d1c	0.7235887
131	0x3f51b79d	0.81920797
132	0x3f0ec55d	0.557699
133	0xbe9e63c4	-0.3093549
134	0x3eea47f7	0.4575803
135	0x3f51b79d	0.81920797
136	0x3f4a8892	0.7911464
137	0x3d57c7a4	0.052680627
138	0xbf370c53	-0.7150318
139	0xbf9646bd	-1.1740338
140	0x3f51b79d	0.81920797
141	0x3f51b79d	0.81920797
142	0xbf86c8f5	-1.0530077
143	0x3f51b79d	0.81920797
144	0x3e61fb08	0.22068417
145	0xbf8f18dc	-1.1179461
146	0x3f51b79d	0.81920797
147	0xc055c0d2	-3.3398938
148	0xbec5621c	-0.38551414
149	0x3f51b79d	0.81920797
150	0xbdb6e833	-0.08931007
151	0xbfdb466f	-1.713087
152	0x3f10c2dd	0.5654734
153	0x3f51b79d	0.81920797
154	0x3f51b79d	0.81920797
155	0xbfb706f6	-1.4298999
156	0x3f092001	0.5356446
157	0x3ec7d79c	0.39031684
158	0x3f320cae	0.695506
159	0xbfbe6a90	-1.487627
160	0xbe9bfe84	-0.30467618
161	0xbf2a3b08	-0.66496325
162	0x3f116bb1	0.5680495
163	0x3ede8d52	0.43467194
164	0xbe160c04	-0.14653021
165	0x3f51b79d	0.81920797
166	0xbdc74556	-0.09730022
167	0xbf8e92d7	-1.1138562
168	0x3e4a39b7	0.19748579
169	0x3f51b79d	0.81920797
170	0xbf927800	-1.1442871
171	0x3f51b79d	0.81920797
172	0x3f09c50b	0.5381629
173	0x3e4b7b01	0.19871141
174	0x3dc95399	0.09830398
175	0xbfbdfbe5	-1.4842497
176	0x3e9e4831	0.30914453
177	0x3f51b79d	0.81920797
178	0x3f4fd233	0.81180114
179	0x3f51b79d	0.81920797
180	0x3f1fb299	0.62381893
181	0x3e50be2f	0.2038505
182	0x3f51b79d	0.81920797
183	0x3f51b79d	0.81920797
184	0x3f37bbaf	0.7177076
185	0x3f51b79d	0.81920797
186	0x3f42f955	0.761617
187	0xbfa77db7	-1.308524
188	0xbf01bb15	-0.5067609
189	0x3e81b226	0.2533123
190	0xbcb8b23c	-0.022545926
191	0x3f51b79d	0.81920797
192	0x3f33b5c3	0.7019922
193	0xbf531c3b	-0.8246495
194	0xc09410d6	-4.627055
195	0xbf73a25b	-0.9516961
196	0x3e446c23	0.19181876
197	0xbe667937	-0.22507177
198	0x3f48ff8f	0.7851495
199	0xbfc2e122	-1.5224955
200	0x3e97116b	0.29505476
201	0x3f51b79d	0.81920797
202	0x3e613854	0.21994144
203	0x3f51b79d	0.81920797
204	0x3f41bfea	0.7568346
205	0x3f51b79d	0.81920797
206	0xbe25c846	-0.1618968
207	0x3dd1bd67	0.10241204
208	0x3e2a98d5	0.16659863
209	0xbf76554e	-0.96223915
210	0x3e8a3aa7	0.26997873
211	0x3f51b79d	0.81920797
212	0x3f51b79d	0.81920797
213	0xbddb0b87	-0.10695558
214	0xbf25ea12	-0.6481029
215	0x3f51b79d	0.81920797
216	0x3e8e0484	0.2773782
217	0xbf111275	-0.5666879
218	0x3b479b23	0.003045746
219	0xbfa57e12	-1.2929099
220	0xbda094bc	-0.07840869
221	0x3f51b79d	0.81920797
222	0xc0100e8a	-2.2508874
223	0xc0051151	-2.079182
224	0x3f021c60	0.50824547
225	0x3f51b79d	0.81920797
226	0xbee268b8	-0.4422052
227	0xbfc6273d	-1.5480725
228	0x3f272745	0.65294296
229	0xbe3435a5	-0.17598589
230	0x3f27bd71	0.6552344
231	0x3f51b79d	0.81920797
232	0x3ee74e49	0.45176914
233	0xbed3d700	-0.4137497
234	0x3eb5a8c7	0.3548033
235	0xbeb88c72	-0.3604465
236	0xbf325bb9	-0.6967121
237	0x3f51b79d	0.81920797
238	0x3f51b79d	0.81920797
239	0x3f51b79d	0.81920797
240	0x3f4b2bf8	0.79363966
241	0xbc927f1e	-0.01788288
242	0xbe120815	-0.14260896
243	0xbf037196	-0.51345193
244	0x3f374431	0.71588427
245	0x3f51b79d	0.81920797
246	0x3e260fb9	0.16216935
247	0xbf850b14	-1.0394006
248	0x3da5fa29	0.08104355
249	0x3f51b79d	0.81920797
250	0x3ebf502b	0.3736585
251	0x3f51b79d	0.81920797
252	0x3f1c32ae	0.6101483
253	0x3e5b3334	0.21406251
254	0x3f1e899f	0.61928743
255	0xbf8452de	-1.0337789

min f4 [1, 6]
0	0x3dcd1ed3	0.10015645
1	0x3dcce0c9	0.10003812
2	0x41b49a4b	22.575338
3	0xc018e987	-2.3892534
4	0xbff57e8a	-1.9179242
5	0xc02e1d76	-2.7205482

max f4 [1, 6]
0	0x3f7ff9f0	0.9999075
1	0x3f7ffc07	0.9999394
2	0x4202df47	32.718044
3	0x40a820a4	5.2539845
4	0x40a2d368	5.0883064
5	0x40a54750	5.164955
