examples/iwoba/models/prestress/problem.pth (torch, 143172 bytes, 8 tensors)

x f4 [5000, 6]
000000 00 98 08 3e 1f 52 5a 3f 2c 24 cf 41 8a 7f f5 3f
       0.13339233 0.85281557 25.892662 1.9179547
000010 fa 96 e4 3f a0 74 fb 3f 84 51 f2 3e 0d 50 04 3f
       1.7858574 1.9644966 0.47327816 0.5168465
000020 b8 0d de 41 ad 73 bf 3f 93 ad 8d 3f bb e3 18 40
       27.756699 1.4957176 1.1068596 2.3888996
000030 1e 88 24 3f 04 ca 10 3f dc 07 d7 41 20 0f 35 40
       0.642702 0.5655825 26.878838 2.8290482
000040 2c a3 57 40 07 3c f4 3f b5 12 31 3f 24 56 d4 3e
       3.3693342 1.9080819 0.6916917 0.4147197
000050 b9 76 d1 41 d6 49 1e 40 9a 0a 34 40 12 58 09 40
       26.18297 2.4732566 2.813147 2.1460004
000060 89 0a d2 3e 10 ee 33 3f 34 34 ec 41 40 b1 5a 3f
       0.41023663 0.7028513 29.52549 0.8542671
000070 a0 83 eb 3d 6a 71 8b 3f aa 29 9e 3e 5f d6 10 3e
       0.11499715 1.0893986 0.30891162 0.14144276
000080 20 78 d8 41 16 23 da 3f 1d 8b ba 3f 63 2a 14 40
       27.058655 1.7041957 1.4573704 2.315087
000090 13 69 50 3f 7a e4 79 3f 16 b8 df 41 dc c0 38 bf
       0.8141033 0.9761425 27.964886 -0.7216928
0000a0 5c 09 d6 be 00 d8 8a bf d5 c7 5a 3f 44 68 f9 3e
       -0.41804016 -1.0847168 0.8546117 0.4871236
0000b0 18 1d db 41 40 44 88 3f 7b 9f 88 3f fc c4 28 3f
       27.389206 1.0645828 1.067367 0.65925574
0000c0 5e 36 72 3e 68 cb 26 3f c7 48 e2 41 c2 99 0d 40
       0.23653552 0.65154123 28.285536 2.2125096
0000d0 82 c4 14 40 02 2c 53 40 b3 55 b0 3e 01 c6 9f 3e
       2.324494 3.299561 0.34440383 0.31205752
0000e0 50 e6 d3 41 c0 4f 06 3e 21 6c 65 3f 3c 42 50 3f
       26.487457 0.1311636 0.89618117 0.81351066
0000f0 17 5f 3d 3f 75 9d 53 3f 32 a0 f2 41 bb 91 c2 3f
       0.7397322 0.82662135 30.32822 1.5200723
000100 81 4b 93 3f 6f 7b 7d 3f e1 e6 13 3f b6 c6 2b 3e
       1.1507417 0.9901647 0.5777417 0.16775021
000110 89 99 dc 41 e2 f8 0a 40 6e 87 bf 3f 34 51 e8 3e
       27.574968 2.1714406 1.4963205 0.45374453
000120 1e 3b 05 3f 0f c1 64 3f a6 0c d5 41 f4 32 fc 3e
       0.5204333 0.89357084 26.631176 0.49257624
000130 3d 30 73 3f 1c 5e b7 3f 54 2e 31 3e 83 44 a8 3e
       0.9499548 1.4325595 0.17302829 0.3286477
000140 d5 d8 e4 41 69 ba 82 40 2b df 78 40 9c 08 6f 40
       28.605875 4.085255 3.888621 3.7349005
000150 58 71 67 3f 68 91 3b 3f 38 46 c7 41 d7 21 a3 3f
       0.90407324 0.7326875 24.909286 1.2744702
000160 2b cc 8b 3f a9 73 9e 3f 20 8a 6e 3f 3f c6 b6 3e
       1.0921682 1.2379047 0.9317951 0.35698125
000170 cb 6a e3 41 c9 e1 e6 3f d2 e8 45 40 d4 1d 33 40
       28.427145 1.8037654 3.0923352 2.7986956
000180 16 7f 4e 3e f2 b6 42 3f 3b c9 db 41 08 99 94 be
       0.20165667 0.760604 27.473257 -0.29023004
000190 00 f3 1b bf c0 71 c9 bf 9d 8c 0c 3f cb c8 48 3e
       -0.60917664 -1.5737839 0.5490206 0.19607846
0001a0 dd 6a ee 41 18 14 29 40 84 4f 1a 40 64 25 0a 40
       29.80218 2.6418514 2.4111032 2.1585321
0001b0 2b 04 1b 3f f0 e6 6b 3f bf 77 d2 41 d5 e8 6c 3f
       0.60553235 0.9214926 26.30847 0.92542773
0001c0 0a ef 9f 3f 04 8c d2 3f dd 75 44 3f 8e 41 91 3e
       1.2494824 1.6448979 0.76742345 0.28370327
0001d0 67 49 d6 41 ff 03 b3 3f c4 64 c4 3f e0 84 3f 40
       26.785841 1.3985595 1.5343251 2.992485
0001e0 3b 01 bf 3e 4a 79 4c 3f 33 60 dd 41 5e 6d 2c 40
       0.37305626 0.7987257 27.671972 2.6941752
0001f0 68 e7 12 40 48 54 cf 3f 4e c1 87 3e af e2 ea 3e
       2.295374 1.6197596 0.26514667 0.4587607
000200 7c f0 c0 41 c3 b7 2d 3f 80 f9 72 bd 88 3f 3d 3e
       24.117424 0.67858523 -0.059319973 0.18481266
000210 19 e3 61 3f ca a7 1f 3f 7f 9b e3 41 e6 19 ed 3f
       0.8823715 0.623654 28.450926 1.8523529
000220 0e ab 10 40 2f 0d 01 40 7b 45 49 3f d8 7d e8 3d
       2.2604403 2.0164297 0.78621644 0.11352128
000230 f0 d5 cc 41 23 d5 4d 40 b0 f3 2e 40 e7 70 36 40
       25.604462 3.2161338 2.7336235 2.850641
000240 13 7a 8f 3e ee a3 72 3f 0f 25 e7 41 4a 3d 9b 3f
       0.28022823 0.94781387 28.893095 1.2128079
000250 06 8e e2 3f 24 d2 ab 3f f5 51 c3 3e 18 0b c6 3e
       1.7699592 1.3423505 0.38148466 0.3868034
000260 e6 c2 d7 41 e0 91 03 40 6a bc 0a 40 f9 a0 88 3f
       26.970165 2.0557785 2.16775 1.0674125
000270 d3 f1 29 3f 31 ad 2c 3f c8 03 df 41 64 a0 c6 3e
       0.6638462 0.6745177 27.876846 0.38794243
000280 d8 6f f1 3e 5b 29 b2 3f 8d 66 1d 3f ac 73 0b 3f
       0.47155643 1.3918871 0.61484605 0.54473376
000290 d3 db e9 41 ac ad b1 3e c8 a8 a1 3e 03 88 4d 3f
       29.232336 0.34702814 0.31574082 0.8028566
0002a0 cb 9e e3 3e ca 0c 18 3f 74 5f d0 41 87 4b ca 3f
       0.44457087 0.59394515 26.046608 1.5804299
0002b0 06 1e ca 3f 79 65 a7 3f 11 41 d6 3d 6a d6 83 3e
       1.5790412 1.3077842 0.10461629 0.25749522
0002c0 54 8c e0 41 97 b7 95 3f e2 02 c3 3f c6 84 2f 3f
       28.06852 1.1696652 1.5235255 0.6856197
0002d0 b0 9f 72 3f 55 94 61 3f a9 8f d9 41 0b b9 12 40
       0.94774914 0.8811696 27.195147 2.2925441
0002e0 e1 aa d5 3f f8 77 2d 40 df a6 77 3f 05 36 fe 3e
       1.6692773 2.7104473 0.96739 0.4965059
0002f0 35 45 d4 41 62 f1 f0 3f 52 e0 f8 3f 15 49 1d 40
       26.533792 1.8823664 1.9443457 2.4575856
000300 da b1 fd 3d db cb 0e 3f 90 ac fa 41 5c 18 24 3f
       0.12387438 0.5577981 31.334259 0.6409967
000310 d0 3e f4 3e 00 90 2d bb ee 12 ea 3e 3e a9 62 3e
       0.47704172 -0.0026483536 0.45717567 0.22134873
000320 a7 7f da 41 02 10 33 40 72 05 fc 3f 37 1c 01 40
       27.31233 2.797852 1.9689162 2.017347
000330 4f 87 20 3f a0 3b 55 3f f9 d3 e1 41 7e 17 ad 3f
       0.62706465 0.83294106 28.228502 1.3522794
000340 27 46 e2 3f 82 9f e2 3f eb c5 30 3f 44 3c 17 3e
       1.7677659 1.7704928 0.69052 0.14769083
000350 c2 65 e5 41 ca fe 7a 3f 23 46 e6 3f 9f 49 0f 40
       28.674686 0.9804503 1.7990154 2.2388685
000360 83 c7 d0 3e 34 7e 7f 3f 58 07 ca 41 e2 a8 23 40
       0.40777215 0.99801946 25.253586 2.5571828
000370 8a af 01 40 b6 23 b8 3f 66 54 92 3e b6 bf df 3e
       2.026339 1.4385898 0.28580016 0.4370095
000380 fa 17 dc 41 a0 f2 2a be 10 75 93 bd 10 0c 98 3d
       27.511707 -0.16694117 -0.07200062 0.07424176
000390 8f 99 4a 3f 7a 6c 35 3f 2f b2 d4 41 84 4f e3 3f
       0.7914056 0.7086865 26.587004 1.7758641
0003a0 9e 5f fb 3f f3 3b f3 3f 8b f5 5c 3f bc a9 9b 3e
       1.9638555 1.900267 0.8631217 0.30402935
0003b0 df 8a de 41 65 85 15 40 19 c4 03 40 3f 27 1b 40
       27.817808 2.3362668 2.0588439 2.4242704
0003c0 22 67 7b 3e 64 78 4e 3f 29 51 d7 41 2e 3f 91 3f
       0.24551061 0.8065245 26.914629 1.1347406
0003d0 f6 62 9c 3f 80 d5 97 3f a3 be b8 3e d2 e0 ee 3e
       1.22177 1.186203 0.36082944 0.466559
0003e0 72 d9 e7 41 be dd d0 3f 0e 99 ff 3f 30 86 cb 3e
       28.981174 1.631767 1.9968584 0.39750814
0003f0 7a 3b 41 3f ee db 24 3f 76 ed cd 41 70 38 74 3e
       0.7548138 0.64398086 25.740948 0.23849654

m f4 [5000, 1]
000000 02 ea 63 48 4d 00 6e 49 9d 67 67 49 98 e9 c4 49
       233384.03 974852.8 947833.8 1.613107e+06
000010 de 7c 14 49 00 00 00 00 00 00 00 00 7c a6 4e 47
       608205.9 0.0 0.0 52902.484
000020 af 0c 0c 49 00 00 00 00 b1 f5 1c 49 00 00 00 00
       573642.94 0.0 642907.06 0.0
000030 0e 48 60 48 91 f8 f2 48 b1 9e f3 48 f2 2a 14 4a
       229664.22 497604.53 498933.53 2.4275805e+06
000040 39 b7 45 49 00 00 00 00 58 18 9c 48 a1 f5 01 4a
       809843.56 0.0 319682.75 2.1292562e+06
000050 92 e9 fa 47 e1 f3 62 49 c4 df 0b 49 00 00 00 00
       128467.14 929598.06 572924.25 0.0
000060 b0 c6 2d 47 c2 57 5d 49 c6 3a 8c 48 9a a0 85 48
       44486.688 906620.1 287190.2 273668.8
000070 2f d1 04 49 00 00 00 00 cf 29 b0 48 2a 16 cd 49
       544018.94 0.0 360782.47 1.6800692e+06
000080 75 52 bb 48 00 00 00 00 0c 82 21 48 00 00 00 00
       383635.66 0.0 165384.19 0.0
000090 2a 15 47 48 a9 7b de 48 ce e2 04 47 71 ff 0a 4a
       203860.66 455645.28 34018.805 2.2773402e+06
0000a0 47 cf 1a 48 e3 23 96 48 14 45 63 48 7b ea 82 49
       158525.11 307487.1 232724.31 1.0724634e+06
0000b0 dd a3 16 48 00 00 00 00 1e fc 17 48 00 00 00 00
       154255.45 0.0 155632.47 0.0
0000c0 10 27 95 47 84 90 92 49 75 2a aa 46 f2 a7 cd 49
       76366.125 1.2006565e+06 21781.229 1.6847342e+06
0000d0 46 70 0f 49 00 00 00 00 f0 1e 08 4a 8d e5 4a 48
       587524.4 0.0 2.230204e+06 207766.2
0000e0 d7 c1 2e 49 00 00 00 00 ac 8e 12 49 d6 ec c2 49
       715805.44 0.0 600298.75 1.5968268e+06
0000f0 00 00 00 00 60 0b cb 48 b4 5f ba 48 69 39 c6 49
       0.0 415835.0 381693.62 1.6238531e+06
000100 ef b9 a0 48 00 00 00 00 00 00 00 00 00 00 00 00
       329167.47 0.0 0.0 0.0
000110 8e a9 04 49 83 53 33 49 81 fc 38 49 00 00 00 00
       543384.9 734520.2 757704.06 0.0
000120 5b aa a1 48 85 6d 5c 49 08 7b c7 49 b5 53 82 49
       331090.84 902872.3 1.634145e+06 1.0676386e+06
000130 3b 2e 4d 49 e2 4e dc 48 ff 7b 49 49 00 00 00 00
       840419.7 451191.06 825279.94 0.0
000140 03 c9 ae 48 00 00 00 00 ca f1 58 49 5c fa dd 49
       357960.1 0.0 888604.6 1.8184435e+06
000150 eb d7 ff 47 00 00 00 00 a7 84 29 49 07 63 db 49
       130991.836 0.0 694346.44 1.7972169e+06
000160 29 df bd 48 00 00 00 00 75 ec e2 47 00 00 00 00
       388857.28 0.0 116184.914 0.0
000170 00 00 00 00 45 80 9b 48 e7 8c 27 49 00 00 00 00
       0.0 318466.16 686286.44 0.0
000180 8d 37 45 48 e8 39 3c 49 56 f7 3a 49 49 4a 75 49
       201950.2 770974.5 765813.4 1.00470856e+06
000190 95 59 33 49 00 00 00 00 fd c6 ba 48 cb 8c cc 49
       734617.3 0.0 382519.9 1.6756734e+06
0001a0 9f c7 54 48 00 00 00 00 67 c7 58 48 8f 54 c8 49
       217886.48 0.0 221981.61 1.6411059e+06
0001b0 e0 86 34 49 dd 62 fb 48 26 f8 99 48 4e 86 12 49
       739438.0 514838.9 315329.2 600164.9
0001c0 6b 79 f7 48 1d 8f ab 49 4d f0 66 49 00 00 00 00
       506827.34 1.4054116e+06 945924.8 0.0
0001d0 13 7f 99 48 35 6f 1e 49 3a ae 5d 46 00 00 00 00
       314360.6 648947.3 14187.557 0.0
0001e0 68 51 d0 46 cb ab 6e 49 33 71 08 49 32 d0 79 49
       26664.703 977596.7 558867.2 1.0232351e+06
0001f0 bc 38 17 49 00 00 00 00 98 3c 9d 49 1c 3b 04 49
       619403.75 0.0 1.288083e+06 541617.75
000200 ec 63 a2 48 80 6d 6d 49 96 28 88 47 00 00 00 00
       332575.38 972504.0 69713.17 0.0
000210 98 30 3a 48 19 e1 48 49 7f bc 80 48 00 00 00 00
       190658.38 822801.56 263651.97 0.0
000220 b8 d5 9f 46 44 70 08 49 44 8b 88 49 e9 64 b1 49
       20458.86 558852.25 1.1185685e+06 1.4532131e+06
000230 00 00 00 00 00 00 00 00 85 9f a6 49 00 00 00 00
       0.0 0.0 1.3649766e+06 0.0
000240 bc 11 d5 48 0b 67 ac 49 00 00 00 00 54 13 39 4a
       436365.88 1.4123214e+06 0.0 3.032277e+06
000250 70 6f 56 49 00 00 00 00 57 b6 21 49 66 5e e1 49
       878327.0 0.0 662373.44 1.8462208e+06
000260 96 a7 34 48 00 00 00 00 00 00 00 00 6c 2a c8 49
       184990.34 0.0 0.0 1.6397575e+06
000270 69 e4 49 48 78 ae 98 48 b6 25 b0 47 a5 4d cd 49
       206737.64 312691.75 90187.42 1.6818446e+06
000280 e7 0b 48 49 88 16 84 49 0c d2 32 48 39 e4 88 48
       819390.44 1.082065e+06 183112.19 280353.78
000290 af e5 2b 49 00 00 00 00 6d 22 23 49 dc 09 ac 49
       704090.94 0.0 668198.8 1.4093395e+06
0002a0 e4 53 dd 48 00 00 00 00 2e bf ae 49 00 00 00 00
       453279.12 0.0 1.4315258e+06 0.0
0002b0 67 19 48 48 32 e4 dc 48 5a 51 00 49 b3 00 cd 49
       204901.61 452385.56 525589.6 1.6793824e+06
0002c0 02 94 b5 48 00 00 00 00 0a c1 a8 45 00 00 00 00
       371872.06 0.0 5400.13 0.0
0002d0 16 1d 0b 48 da 0f db 48 00 00 00 00 00 00 00 00
       142452.34 448638.8 0.0 0.0
0002e0 7a 88 90 47 00 00 00 00 e3 03 24 47 10 5d bd 49
       74000.95 0.0 41987.887 1.551266e+06
0002f0 46 04 6c 49 36 74 c9 48 1b d4 15 49 00 00 00 00
       966724.4 412577.7 613697.7 0.0
000300 43 e9 a6 47 bc 4c 92 49 50 5a 72 4a 4b 9b 9d 49
       85458.52 1.1984875e+06 3.970708e+06 1.2911134e+06
000310 59 58 df 48 94 e0 39 49 0e fe c1 46 12 68 d0 49
       457410.78 761353.25 24831.027 1.7072662e+06
000320 10 98 ba 48 00 00 00 00 6c 55 d5 48 00 00 00 00
       382144.5 0.0 436907.38 0.0
000330 92 a2 31 47 00 00 00 00 e4 a1 2e 49 52 2c ff 48
       45474.57 0.0 715294.25 522594.56
000340 c1 52 e8 48 80 8b 9e 49 56 85 c3 48 00 00 00 00
       475798.03 1.2988e+06 400426.7 0.0
000350 00 00 00 00 64 da 24 49 65 96 82 49 00 00 00 00
       0.0 675238.25 1.0697726e+06 0.0
000360 fe e2 c0 48 f6 ae 76 49 f9 45 11 49 51 f9 bb 49
       395031.94 1.0104154e+06 595039.56 1.5398821e+06
000370 99 c5 1f 49 00 00 00 00 ac 9d 08 4a a7 f9 00 4a
       654425.56 0.0 2.238315e+06 2.1131298e+06
000380 5f 66 5d 48 00 00 00 00 ac 86 60 49 cd ae d2 49
       226713.48 0.0 919658.75 1.7259136e+06
000390 71 c1 ec 47 e3 23 31 49 24 7e e9 47 00 00 00 00
       121218.88 725566.2 119548.28 0.0
0003a0 17 ce 82 48 0b 76 5b 49 f4 52 a5 48 2f f9 51 49
       267888.72 898912.7 338583.62 860050.94
0003b0 e1 e9 86 49 00 00 00 00 00 00 00 00 00 00 00 00
       1.1052121e+06 0.0 0.0 0.0
0003c0 3a a2 91 46 a0 ff 14 49 01 33 2b 49 2a 35 6d 49
       18641.113 610298.0 701232.06 971602.6
0003d0 20 21 93 47 00 00 00 00 69 e6 e9 48 81 69 a5 49
       75330.25 0.0 479027.28 1.3550561e+06
0003e0 db 63 03 49 00 00 00 00 9b 9c 9e 48 00 00 00 00
       538173.7 0.0 324836.84 0.0
0003f0 cb d8 14 48 31 6d d7 48 09 57 0e 48 6c e9 a4 49
       152419.17 441193.53 145756.14 1.3509575e+06

b f4 [2]
000000 cd cc cc 3d 00 00 80 3f
       0.1 1.0

h f4 [2]
000000 cd cc cc 3d 00 00 80 3f
       0.1 1.0

covariance_matrix f4 [4, 4]
000000 f6 de f7 3f 00 00 00 00 00 00 00 00 00 00 00 00
       1.9364917 0.0 0.0 0.0
000010 00 00 00 00 00 00 80 3f 66 66 66 3f 33 33 33 3f
       0.0 1.0 0.9 0.7
000020 00 00 00 00 66 66 66 3f 00 00 80 3f 33 33 33 3f
       0.0 0.9 1.0 0.7
000030 00 00 00 00 33 33 33 3f 33 33 33 3f 00 00 80 3f
       0.0 0.7 0.7 1.0

loc f4 [4]
000000 00 00 dc 41 00 00 c0 3f 00 00 c0 3f 00 00 c0 3f
       27.5 1.5 1.5 1.5

mu f4 [4]
000000 00 00 dc 41 00 00 c0 3f 00 00 c0 3f 00 00 c0 3f
       27.5 1.5 1.5 1.5

cov f4 [4, 4]
000000 f6 de f7 3f 00 00 00 00 00 00 00 00 00 00 00 00
       1.9364917 0.0 0.0 0.0
000010 00 00 00 00 00 00 80 3f 66 66 66 3f 33 33 33 3f
       0.0 1.0 0.9 0.7
000020 00 00 00 00 66 66 66 3f 00 00 80 3f 33 33 33 3f
       0.0 0.9 1.0 0.7
000030 00 00 00 00 33 33 33 3f 33 33 33 3f 00 00 80 3f
       0.0 0.7 0.7 1.0
