examples/iwoba/models/prestress/problem.pth (torch, 31172 bytes, 8 tensors)

x f4 [1000, 6]
000000 33 d3 14 3f f9 81 14 3f 21 c5 e2 41 71 cf 40 3f
       0.58134764 0.5801082 28.346254 0.7531653
000010 50 6c 74 3e 80 90 86 3e 24 5e 68 3f 25 5c e9 3e
       0.23869443 0.2628212 0.9076865 0.45578113
000020 f6 d2 c6 41 7a dd d3 3f ba 2e c0 3f f3 d1 a9 3f
       24.853008 1.6551964 1.501426 1.3267196
000030 e9 2e 0c 3f 2b 93 66 3f d1 3a e7 41 c2 b4 a7 3f
       0.5475908 0.9006831 28.903719 1.3102038
000040 53 7b ab 3f 38 8b c9 3f 20 98 cb 3e af 52 aa 3e
       1.339701 1.5745611 0.397645 0.33266208
000050 14 51 de 41 0b aa 7b 3f ed ad 99 3f 4d a8 dd 3f
       27.789589 0.9830634 1.2006203 1.7316986
000060 c9 3d 53 3f 0a 91 4a 3f 32 3f d5 41 34 c8 fb 3f
       0.8251615 0.7912756 26.655857 1.9670472
000070 55 42 d5 3f a0 67 95 3e b3 5e 2c 3f c8 08 7a 3e
       1.6660868 0.29180622 0.67332 0.24417412
000080 4f 17 f1 41 f8 8d 85 3e 00 13 9c 3b 60 99 a2 3e
       30.136381 0.26084876 0.004763007 0.3175764
000090 1c 97 9b 3e 0b 9a 37 3f d1 ca d0 41 f3 e9 5a 40
       0.30388725 0.71719426 26.099031 3.4205291
0000a0 5d b8 68 40 4b 51 50 40 56 78 6f 3e 55 1f 01 3f
       3.6362526 3.2549617 0.23385748 0.50438434
0000b0 9d 11 ed 41 3e b7 0a 40 36 d9 99 3f 6b 6e d3 3f
       29.6336 2.1674342 1.2019413 1.6518072
0000c0 a9 b1 43 3f 57 96 76 3f fc 63 d4 41 55 10 92 3f
       0.7644296 0.9632315 26.54882 1.1411234
0000d0 6e 58 df 3f f2 3b 80 3f 5a 4b 56 3f 1e 63 3d 3e
       1.7448862 1.0018294 0.8370873 0.18494841
0000e0 f4 43 dc 41 be c6 36 40 e2 02 33 40 ae 20 dd 3f
       27.53318 2.8558803 2.797051 1.7275598
0000f0 66 ae ba 3e 52 61 28 3f 47 e7 d6 41 e0 b7 62 be
       0.3646118 0.657735 26.862928 -0.22140455
000100 f0 90 d0 bd c3 25 8a 3f 98 54 e1 3e d2 fc a4 3e
       -0.10183895 1.0792774 0.44009852 0.32224137
000110 44 f9 ca 41 e5 57 0a 3f 90 f2 e2 3e 62 04 97 3f
       25.371712 0.54040366 0.44325686 1.1798213
000120 d9 e1 7a 3f a9 c2 40 3f 76 97 e3 41 aa fc 11 40
       0.98000866 0.7529703 28.448956 2.2810464
000130 40 a0 1c 40 ba fe 05 40 50 86 21 3f 81 92 ca 3e
       2.447281 2.0936723 0.6309557 0.395649
000140 a6 bf db 41 bc 45 bd 3f a4 bc e3 3f 77 bd 3c 3f
       27.468578 1.4786906 1.7791944 0.737266
000150 5f 7f 18 3e 0d 1f 57 3f f8 14 e1 41 3e fb e6 3f
       0.14892338 0.84031755 28.135239 1.8045423
000160 e4 7c a5 3f ed 5d 0f 40 c6 d2 f7 3d d6 c5 d8 3e
       1.2928739 2.2401078 0.12100749 0.42338437
000170 7d 94 d2 41 80 57 2b 3e 44 5e af 3e 94 76 f7 3e
       26.322504 0.16732597 0.34251606 0.48332655
000180 e8 c5 28 3f 9c e5 60 3f a7 51 e9 41 74 72 4b 40
       0.6592698 0.87850356 29.16487 3.1788607
000190 98 18 3b 40 aa 43 40 40 31 a3 73 3f bb 16 8b 3e
       2.923376 3.00413 0.95170885 0.2716578
0001a0 3b 64 d8 41 a8 53 58 3f 70 28 c5 3e 10 94 bc 3f
       27.04894 0.8450265 0.38507414 1.4732685
0001b0 4e a1 ef 3e 55 bc 3d 3f 80 ba dd 41 33 a7 ec 3f
       0.46802753 0.74115497 27.716064 1.8488525
0001c0 33 6f 44 40 56 d2 99 3f b9 6a ac 3e 9a 16 3c 3e
       3.069287 1.2017314 0.33675173 0.18367997
0001d0 5e 70 e5 41 f5 f3 c3 3f b5 ce fc 3f 73 a9 a5 3f
       28.679867 1.5308825 1.9750582 1.2942337
0001e0 7e 8e 5d 3f ad 54 1c 3f 00 a7 ce 41 3a a7 97 3f
       0.8654555 0.61066705 25.831543 1.1847908
0001f0 5c 9c 64 3f 4a c7 9d 3f 5a 6f 3c 3f 7d ff 09 3f
       0.89301085 1.2326443 0.7360741 0.5390547
000200 8f 9f df 41 70 74 1e 40 da 5c 09 40 80 e7 41 40
       27.95291 2.4758568 2.1462922 3.0297546
000210 ca 01 86 3e cf fc 7a 3f 14 42 da 41 77 b7 34 3f
       0.2617324 0.98042005 27.282265 0.70592445
000220 0e 7d 7d 3f 98 27 b4 3e 9d 11 8d 3e 28 72 72 3e
       0.99018943 0.35186458 0.275525 0.2367636
000230 5e 6e e2 41 d7 6e ad 3f fc f1 aa 3f 58 9c 66 3e
       28.30389 1.3549451 1.3355098 0.22520578
000240 25 80 33 3f 14 f9 29 3f 68 4a d9 41 d5 11 d7 3f
       0.7011741 0.6639569 27.161331 1.6802317
000250 a6 53 e3 3f 30 3a 12 40 7b 1b 4c 3f 25 37 bf 3e
       1.7759902 2.2848015 0.7972943 0.3734676
000260 95 aa e7 41 6c f8 f8 3e ef bd 9b 3f 31 f1 ab 3f
       28.958292 0.4862703 1.2167338 1.3432981
000270 bb 1b da 3e 64 8b 50 3f 9e dc c8 41 5e f4 0e 40
       0.42599282 0.81462693 25.107723 2.233665
000280 0c 9e bc 3f e8 cb d1 3f d2 ef 04 3f 09 84 f3 3e
       1.4735732 1.6390352 0.51928437 0.47561672
000290 a3 8d d5 41 35 ba 30 40 1f 08 0d 40 62 c5 d2 3f
       26.694159 2.7613652 2.2036207 1.6466486
0002a0 21 83 6f 3f 32 52 6e 3f 4d b9 de 41 00 44 f8 be
       0.9355946 0.9309417 27.840479 -0.4848938
0002b0 e0 8f 93 3d d1 18 c4 3f 3d ad 0d 3f f6 f9 da 3d
       0.07205176 1.5320073 0.55342466 0.106922075
0002c0 2a 4f d0 41 eb c8 01 40 7a 7e 10 40 5a d1 07 40
       26.038654 2.027888 2.2577195 2.1221528
0002d0 6f 48 44 3e b7 82 13 3f 36 32 ef 41 ba c2 82 3f
       0.19168256 0.5762133 29.899517 1.0215676
0002e0 c4 ad 6d 3f c9 41 52 3f f9 76 4c 3e a4 09 e3 3e
       0.9284327 0.8213163 0.1996726 0.44343293
0002f0 3c 90 dc 41 6c 4d 24 3f ec 8d 93 3f c6 07 6b 3f
       27.570427 0.64180636 1.1527686 0.91808736
000300 b6 d5 12 3f af b6 69 3f 2d 3c d7 41 eb 26 1a 40
       0.57357347 0.9129438 26.904383 2.4086254
000310 6d ff fc 3f 0e a5 12 40 a5 e6 6d 3f fa a4 0c 3e
       1.976545 2.2913241 0.9293006 0.13734809
000320 ff dd ea 41 a4 bd 9d 3f 12 bb 78 3f c4 67 e2 3f
       29.358397 1.2323499 0.97160447 1.7687917
000330 ff b3 fe 3e 07 ab 17 3f 77 5b d3 41 4a 7b c9 3f
       0.497467 0.5924534 26.41966 1.574075
000340 70 46 dc 3f 74 f5 bc 3e 67 f1 d6 3e e2 1b 85 3e
       1.7208996 0.36906016 0.4198105 0.25997835
000350 23 73 db 41 0e 22 f1 3f e0 e3 ee 3f d0 82 bb 3f
       27.43122 1.8838518 1.8663292 1.4649296
000360 5a 7e 46 3f 2a 8c 33 3f de bf e0 41 2d 55 63 3f
       0.7753655 0.7013575 28.093685 0.8880184
000370 59 0e 57 3f 02 0e 92 3f dc 92 35 3f f0 6d b2 3e
       0.8400627 1.1410525 0.70927215 0.348495
000380 c4 2a cd 41 48 b2 43 40 30 f1 0e 40 d6 0c 5e 40
       25.645882 3.0577564 2.233471 3.4695334
000390 5f 54 97 3e 1a 85 46 3f f9 9f e4 41 80 8c 9c 3d
       0.29556558 0.77546847 28.578112 0.07643986
0003a0 99 ef 6b 3f 18 23 26 3e d2 7b 77 3e a8 9a 4d 3e
       0.9216247 0.16224325 0.24168327 0.20078528
0003b0 04 0a b6 41 7a 82 87 3f 14 40 22 3f 10 63 a2 3d
       22.75489 1.0586693 0.63379025 0.07929051
0003c0 33 5d 3a 3f 94 55 24 3f e6 fb e5 41 45 73 04 40
       0.7279846 0.6419308 28.747997 2.0695355
0003d0 96 d4 15 40 b6 68 2c 40 48 2b 63 3f 46 2b 05 3f
       2.3411002 2.693891 0.88737917 0.52019155
0003e0 37 f9 d9 41 5c 0d 51 bf e4 06 bc be 6c 84 b5 3e
       27.246687 -0.8166101 -0.36724007 0.35452592
0003f0 ba 95 af 3e b5 88 72 3f ca 22 e3 41 a8 e1 2b 40
       0.3429392 0.9473985 28.391987 2.685648

m f4 [1000, 1]
000000 b0 b3 0a 49 e4 bc 92 49 45 18 64 48 2e 55 85 49
       568123.0 1.2020765e+06 233569.08 1.0922618e+06
000010 9a 1f bb 49 00 00 00 00 c6 a2 17 49 9e 8d fb 48
       1.5329152e+06 0.0 621100.4 515180.94
000020 96 09 85 49 00 00 00 00 e1 27 b9 49 45 0c 82 49
       1.0898428e+06 0.0 1.5167961e+06 1.0653526e+06
000030 b1 c9 73 48 76 94 7d 49 0f 07 7c 48 b8 3a db 48
       249638.77 1.0386634e+06 258076.23 448981.75
000040 9f 82 e3 46 29 9e 06 4a 13 42 27 47 00 00 00 00
       29121.31 2.2055782e+06 42818.074 0.0
000050 1b 7c b1 47 cc e1 ac 49 94 07 af 48 00 00 00 00
       90872.21 1.4162495e+06 358460.62 0.0
000060 31 06 1e 49 b7 4f fb 49 e3 ba 89 46 b0 91 7c 49
       647267.06 2.0587429e+06 17629.443 1.034523e+06
000070 00 00 00 00 00 00 00 00 b1 77 a6 48 c2 95 06 49
       0.0 0.0 340925.53 551260.1
000080 f1 06 ea 47 00 00 00 00 00 c1 90 48 00 00 00 00
       119821.88 0.0 296456.0 0.0
000090 fe 8f 91 48 f0 80 e4 49 48 3b ff 49 00 00 00 00
       298111.94 1.871902e+06 2.090857e+06 0.0
0000a0 2f a7 67 49 0b 20 71 49 75 7a 1d 47 ea 63 8e 49
       948850.94 987648.7 40314.457 1.1664612e+06
0000b0 04 78 1f 49 ab 2c d2 49 85 37 f2 47 00 00 00 00
       653184.25 1.7217494e+06 124015.04 0.0
0000c0 c1 25 35 4a 50 7f 9e 49 ba b7 13 48 d6 32 67 49
       2.9679202e+06 1.29841e+06 151262.9 946989.4
0000d0 b1 e4 c3 49 00 00 00 00 10 46 fb 48 ba 87 52 49
       1.6047581e+06 0.0 514608.5 862331.6
0000e0 d3 fc c1 48 00 00 00 00 6a ac 09 49 00 00 00 00
       397286.6 0.0 563910.6 0.0
0000f0 5e fc 9b 49 00 00 00 00 aa 70 7e 48 94 e8 f4 48
       1.2778358e+06 0.0 260546.66 501572.62
000100 f8 12 69 47 00 00 00 00 36 92 2b 49 00 00 00 00
       59666.97 0.0 702755.4 0.0
000110 00 00 00 00 d4 66 9b 49 e8 3e b4 47 00 00 00 00
       0.0 1.2730505e+06 92285.81 0.0
000120 bd ed 45 48 76 1f 90 49 d0 42 7a 48 89 8a 88 49
       202678.95 1.1806548e+06 256267.25 1.1185451e+06
000130 1b 2a c5 49 00 00 00 00 2b 0d ac 48 00 00 00 00
       1.6151714e+06 0.0 352361.34 0.0
000140 2d b1 71 49 0e 0b c1 49 00 00 00 00 00 00 00 00
       989970.8 1.5814098e+06 0.0 0.0
000150 4c 54 47 48 10 f6 e8 49 ef e0 a8 48 89 3d 2a 49
       204113.19 1.908418e+06 345863.47 697304.56
000160 78 8b 60 49 00 00 00 00 e4 63 c4 48 00 00 00 00
       919735.5 0.0 402207.12 0.0
000170 f7 64 f8 47 00 00 00 00 a2 63 7f 48 00 00 00 00
       127177.93 0.0 261518.53 0.0
000180 c7 12 55 49 be 72 0e 4a 89 a7 2a 49 9d ce d7 49
       872748.44 2.3338715e+06 699000.56 1.7678916e+06
000190 5b 53 f8 47 00 00 00 00 eb 6d 01 49 12 0f 2f 49
       127142.71 0.0 530142.7 717041.1
0001a0 00 00 00 00 45 db 0c 4a 67 b2 28 48 00 00 00 00
       0.0 2.3077932e+06 172745.61 0.0
0001b0 b8 c2 7b 47 0e 9c 52 49 88 92 c9 47 b3 4f b0 48
       64450.72 862656.9 103205.06 361085.6
0001c0 ce 0e c1 48 00 00 00 00 e9 6b 4f 49 6f 58 73 49
       395382.44 0.0 849598.56 996742.94
0001d0 3d ce 74 49 03 a5 b0 49 cb 7e 9c 48 00 00 00 00
       1.0027238e+06 1.4470724e+06 320502.34 0.0
0001e0 94 f7 12 49 7e 41 47 49 80 30 33 47 5b 4b af 49
       601977.25 816151.9 45872.5 1.4360114e+06
0001f0 91 a3 e5 49 00 00 00 00 af 0c 20 49 ea 2e b3 48
       1.8812021e+06 0.0 655562.94 366967.3
000200 00 00 00 00 00 00 00 00 d6 1d 00 47 c6 6e 65 49
       0.0 0.0 32797.836 939756.4
000210 d0 b6 d7 48 d8 f8 a6 49 c1 6c f1 47 00 00 00 00
       441782.5 1.367835e+06 123609.51 0.0
000220 42 5f 03 49 ef 6f e2 49 c8 14 39 49 69 5d 92 49
       538100.1 1.8549739e+06 758092.5 1.1990211e+06
000230 6b 57 39 48 00 00 00 00 bd b9 8c 48 00 00 00 00
       189789.67 0.0 288205.9 0.0
000240 af e5 8b 48 f0 21 b2 49 a9 16 67 48 ee 09 45 49
       286509.47 1.459262e+06 236634.64 807070.9
000250 9c ba 75 49 00 00 00 00 74 e1 95 48 d2 55 47 49
       1.00650575e+06 0.0 306955.62 816477.1
000260 fe 53 10 49 6d 5c 31 49 ef 52 23 49 00 00 00 00
       591167.9 726470.8 668974.94 0.0
000270 00 00 00 00 03 45 01 49 b3 61 3e 48 00 00 00 00
       0.0 529488.2 194950.8 0.0
000280 6d 02 17 49 fe 20 dd 48 f6 09 a3 47 0d 12 73 49
       618534.8 452871.94 83475.92 995616.8
000290 00 04 05 49 c3 0e ab 49 2c e1 2a 48 5d 02 22 49
       544832.0 1.4013044e+06 174980.69 663589.8
0002a0 29 45 62 49 00 00 00 00 54 aa 3f 49 00 00 00 00
       926802.56 0.0 785061.25 0.0
0002b0 00 00 00 00 95 2c c6 49 5c c7 76 48 80 bb ac 48
       0.0 1.6234426e+06 252701.44 353756.0
0002c0 20 19 2e 48 00 00 00 00 94 ea 7f 48 00 00 00 00
       178276.5 0.0 262058.31 0.0
0002d0 b6 01 a8 49 b0 89 0e 4a b2 e0 2d 48 00 00 00 00
       1.3763108e+06 2.33534e+06 178050.78 0.0
0002e0 f1 2e 92 48 1b 1b f7 49 00 00 00 00 cc 52 e8 48
       299383.53 2.0242914e+06 0.0 475798.38
0002f0 7d c0 1b 49 00 00 00 00 34 ad b7 48 39 14 e9 48
       637959.8 0.0 376169.62 477345.78
000300 9c 77 7d 46 00 00 00 00 42 d3 bf 48 e9 2e 66 49
       16221.902 0.0 392858.06 942830.56
000310 2b a1 6c 49 00 00 00 00 18 08 a2 47 4a 96 d8 48
       969234.7 0.0 82960.19 443570.3
000320 ff 95 9e 48 00 00 00 00 0a d3 20 47 00 00 00 00
       324783.97 0.0 41171.04 0.0
000330 cf 0b 2e 49 c5 75 b0 49 ff f1 a3 48 22 4d a0 48
       712892.94 1.4455606e+06 335759.97 328297.06
000340 0b 16 39 4a 00 00 00 00 53 60 17 49 00 00 00 00
       3.0324508e+06 0.0 620037.2 0.0
000350 c1 04 07 48 00 85 77 49 ef 81 be 48 00 00 00 00
       138259.02 1.01384e+06 390159.47 0.0
000360 00 00 00 00 e2 91 9b 48 28 3e b9 47 4b 35 87 49
       0.0 318607.06 94844.31 1.1076254e+06
000370 d3 ae 65 49 9b 5a 8d 48 ff b3 c0 48 c2 d8 05 49
       940781.2 289492.84 394655.97 548236.1
000380 81 05 ad 49 93 4f 16 4a 41 60 1f 49 00 00 00 00
       1.4173921e+06 2.4626928e+06 652804.06 0.0
000390 aa 39 18 48 11 b3 89 48 f9 0b 9f 46 00 00 00 00
       155878.66 282008.53 20357.986 0.0
0003a0 a9 70 1f 49 8a f9 5a 49 f9 ac 72 48 bf 18 9e 49
       653066.56 896920.6 248499.89 1.2951279e+06
0003b0 98 80 48 49 00 00 00 00 44 d2 99 48 00 00 00 00
       821257.5 0.0 315026.12 0.0
0003c0 62 97 45 49 7e 3b b3 49 97 b0 d2 47 58 87 72 49
       809334.1 1.4682718e+06 107873.18 993397.5
0003d0 6b cc 75 49 00 00 00 00 a6 c9 86 47 ad 84 b0 49
       1.0067907e+06 0.0 69011.3 1.4460376e+06
0003e0 13 38 d7 47 00 00 00 00 81 61 f6 48 42 b1 9c 49
       110192.15 0.0 504588.03 1.2836242e+06
0003f0 6a fc 61 47 06 99 b0 49 39 d7 24 48 20 a0 e1 48
       57852.414 1.4466888e+06 168796.89 462081.0

b f4 [2]
000000 cd cc cc 3d 00 00 80 3f
       0.1 1.0

h f4 [2]
000000 cd cc cc 3d 00 00 80 3f
       0.1 1.0

covariance_matrix f4 [4, 4]
000000 f6 de f7 3f 00 00 00 00 00 00 00 00 00 00 00 00
       1.9364917 0.0 0.0 0.0
000010 00 00 00 00 00 00 80 3f 66 66 66 3f 33 33 33 3f
       0.0 1.0 0.9 0.7
000020 00 00 00 00 66 66 66 3f 00 00 80 3f 33 33 33 3f
       0.0 0.9 1.0 0.7
000030 00 00 00 00 33 33 33 3f 33 33 33 3f 00 00 80 3f
       0.0 0.7 0.7 1.0

loc f4 [4]
000000 00 00 dc 41 00 00 c0 3f 00 00 c0 3f 00 00 c0 3f
       27.5 1.5 1.5 1.5

mu f4 [4]
000000 00 00 dc 41 00 00 c0 3f 00 00 c0 3f 00 00 c0 3f
       27.5 1.5 1.5 1.5

cov f4 [4, 4]
000000 f6 de f7 3f 00 00 00 00 00 00 00 00 00 00 00 00
       1.9364917 0.0 0.0 0.0
000010 00 00 00 00 00 00 80 3f 66 66 66 3f 33 33 33 3f
       0.0 1.0 0.9 0.7
000020 00 00 00 00 66 66 66 3f 00 00 80 3f 33 33 33 3f
       0.0 0.9 1.0 0.7
000030 00 00 00 00 33 33 33 3f 33 33 33 3f 00 00 80 3f
       0.0 0.7 0.7 1.0
