examples/dce/models/prestress_rs/constraint_gp_3.pth (torch, 14898 bytes, 5 tensors)

covar_module.base_kernel.raw_lengthscale f4 [1, 5]
000000 bb bc 97 3f 8a 5a d3 be 90 33 99 3e 66 b3 66 3f
       1.1854471 -0.41280013 0.29922152 0.9011749
000010 fc fb 98 bd
       -0.07469937

train_x f4 [400, 5]
000000 27 c4 9f 3e d9 0e b6 3d 81 93 15 3f 67 de 03 3f
       0.3120434 0.08889551 0.584282 0.51511234
000010 61 b0 17 3f 76 96 1b 3f 39 ce b5 3e 71 bb 2a 3f
       0.5925351 0.6077646 0.35508898 0.6669226
000020 81 cc 05 3f a5 3a be 3e 1b 53 0e 3f 36 46 e5 3d
       0.52265173 0.37154117 0.5559556 0.11195032
000030 b0 d0 f9 3e ab 67 d5 3e 5a 0f 0d 3f c3 66 d4 3e
       0.48792028 0.41680655 0.5510155 0.4148465
000040 56 86 9d 3e 96 75 d8 3e 47 43 e9 3e 12 f2 af 3e
       0.30766553 0.4227721 0.4555914 0.34364372
000050 96 7f 48 3f 5e 34 13 3f cd cf 1c 3f 55 f1 3e 3f
       0.7831968 0.5750178 0.6125458 0.74586993
000060 0b 9c 1e 3f 8c c5 8d 3e 7e 2c 3e 3f 62 1b 3e 3e
       0.6195685 0.2768978 0.7428664 0.18565133
000070 64 ce 13 3f a8 5a e9 3e 32 3d 7d 3f 53 c7 14 3f
       0.577368 0.45576978 0.989215 0.58116645
000080 2d 95 49 3f 6c f1 b0 3e 18 74 08 3f 36 78 8b 3d
       0.7874325 0.3455919 0.53302145 0.06810038
000090 3e 88 40 3f d6 e3 6a 3e e8 20 fb 3e 3f 68 db 3e
       0.7520789 0.22938475 0.49048543 0.4285297
0000a0 4b d1 b9 3e 68 79 5d 3d 8d 1c ba 3d 0c 8d f7 3e
       0.3629249 0.05407086 0.09087477 0.48349798
0000b0 16 19 86 3e 4f ca 2b 3d aa 2c 59 3f 99 bb 10 3f
       0.26191014 0.041940983 0.84833777 0.5653625
0000c0 19 0c 64 3e 75 cd 78 3e da 6a eb 3e 5e 51 12 3f
       0.2227024 0.24297126 0.4597996 0.57155406
0000d0 43 5c 70 3f 17 f4 2c 3f df 2e 15 3f 20 d2 39 3e
       0.9389078 0.6755995 0.58274645 0.18146563
0000e0 86 cf 6c 3e b5 3b e8 3d 3b 4d 48 3f 56 2c 16 3f
       0.23126039 0.11339513 0.78242844 0.586614
0000f0 6c 39 65 3f aa 23 4d 3f 08 f2 8d 3e 2a e1 2d 3f
       0.89540744 0.80132544 0.27723718 0.679217
000100 70 41 1b 3f 42 33 e7 3c 39 c8 27 3f 3b 67 30 3f
       0.60646725 0.028222684 0.6553989 0.6890752
000110 c4 d4 de 3e 3b ff de 3e 48 a1 60 3d 00 00 80 3f
       0.43521702 0.435541 0.05484131 1.0
000120 42 50 32 3e 46 a5 43 3f c6 0c 2d 3f c5 10 65 3f
       0.17413428 0.7642406 0.67597616 0.89478713
000130 19 1a 13 3f fe 61 3c 3f 9f 7a d9 3e 72 8c 03 3f
       0.57461697 0.73587024 0.42476365 0.5138618
000140 e8 c2 5f 3f 4b ba 1a 3f f5 4c 1c 3c 04 03 0a 3f
       0.8740678 0.6044051 0.009539832 0.5391085
000150 69 4c 19 3f ad 80 6e 3f 5e fd 05 3e 25 3d d3 3e
       0.5988222 0.93165094 0.13084933 0.41257587
000160 84 bf 5e 3f a5 e8 52 3f 94 80 7b 3f 55 2c aa 3e
       0.8701098 0.8238624 0.9824307 0.33236948
000170 9c a3 8b 3e df f3 e4 3e e5 01 20 3f e4 d2 10 3e
       0.27273262 0.4471731 0.6250289 0.14142948
000180 b9 1c e5 3e fc c7 f4 3e 52 08 98 3e 01 de a3 3e
       0.44748476 0.47808826 0.29693848 0.32005313
000190 01 40 f0 3e 86 39 95 3d 70 47 7f 3f 32 2e 03 3f
       0.4692383 0.07286362 0.9971838 0.51242363
0001a0 95 21 38 3f 1d 51 db 3e ae 96 94 3e 14 1c 29 3d
       0.7192624 0.42835322 0.2902121 0.041286543
0001b0 67 cb 4a 3f 8b 16 46 3f 1f d3 0d 3e 12 e8 2e 3f
       0.7921662 0.7737815 0.13850068 0.6832286
0001c0 cd 40 1e 3f da d1 14 3f ec f2 0b 3f e6 78 0c 3f
       0.6181763 0.5813271 0.54667544 0.54871976
0001d0 f3 ee d7 3e 46 83 f8 3e b1 73 f8 3e 7e 54 f2 3e
       0.4217449 0.48537654 0.48525766 0.47330087
0001e0 c7 63 c0 3e 53 4e 34 3f ff 76 62 3f 75 e3 1d 3f
       0.37576124 0.70432013 0.88462824 0.61675197
0001f0 68 f4 bb 3e ea 4b eb 3d 49 81 a1 3d a2 20 24 3f
       0.36709905 0.11489089 0.07885987 0.64112294
000200 20 ed 46 3f 3b cf 47 3f e4 81 1f 3d 6f 36 0b 3f
       0.77705574 0.78050584 0.038942233 0.54379934
000210 e0 fb 3e 3e 0c 39 04 3f ee d3 d5 3e 48 b2 61 3f
       0.1865077 0.51649547 0.41763252 0.8816266
000220 8b d2 dc 3e fa 35 4f 3f 54 c8 c1 3e c8 0a 2a 3f
       0.43129382 0.80941737 0.3784815 0.664227
000230 c7 c0 8e 3e 46 08 c2 3e 15 00 f2 3e 9e 4b 09 3f
       0.27881452 0.37896937 0.47265688 0.5363101
000240 e9 d2 2f 3e cd ed 56 3f a1 8f 1d 3f b6 95 00 3f
       0.171703 0.83956605 0.61547285 0.5022844
000250 88 66 9a 3e 09 07 f2 3e 0c d6 80 3d e3 14 4b 3f
       0.3015635 0.47270992 0.06290826 0.79328746
000260 bc 59 d5 3e b2 b6 22 3f 7f d0 45 3f 56 09 39 3f
       0.41670024 0.6356002 0.77271265 0.7227987
000270 71 e5 be 3e af 6c 17 3e 84 fb 41 3f f3 6d 29 3f
       0.37284425 0.14787553 0.7577441 0.66183394
000280 ca d8 d8 3e 20 b2 7b 3f 2a 89 0e 3f 09 a9 eb 3e
       0.42352897 0.9831867 0.55678046 0.460274
000290 55 75 f1 3e 20 b9 25 3f fb 17 50 3f f8 20 3d 3f
       0.4715983 0.64735603 0.8128659 0.7387843
0002a0 17 3b fa 3e 22 d1 05 3f e3 2c 66 3f 1f 24 21 3e
       0.48873207 0.52272236 0.8991224 0.15736435
0002b0 1a e2 4d 3f e1 61 1f 3f 67 21 40 3f 6b 06 78 3f
       0.8042313 0.62258726 0.7505097 0.96884793
0002c0 9f d6 71 3f 23 a8 d6 3b a0 35 2c 3f 64 4e 31 3f
       0.9446811 0.006550805 0.67269325 0.6926024
0002d0 c8 9b 29 3f e7 48 17 3f 90 c5 74 3f 60 c7 0d 3f
       0.6625333 0.59095615 0.95613956 0.5538235
0002e0 bd 18 f4 3e ef 75 a1 3e 72 1d 53 3e 22 01 2e 3f
       0.47675124 0.3153529 0.20616701 0.6797048
0002f0 00 00 80 3f 87 e8 09 3f c2 ec c8 3d 21 22 63 3e
       1.0 0.53870434 0.09810783 0.22180988
000300 4f 7c 98 3d da 40 1a 3f 2b bc 4c 3f f1 9e 42 3e
       0.07445585 0.60255206 0.7997462 0.19005944
000310 34 8f 32 3e f1 3a f3 3c 16 5f ff 3e 5b 86 9d 3e
       0.1743744 0.029691191 0.49877232 0.30766568
000320 4b 3c e0 3e 1d fe 7d 3f ff 55 35 3f ad 83 97 3e
       0.43796 0.9921587 0.70834345 0.29592648
000330 45 52 e1 3e 7e d2 d0 3e ba 00 23 3f e5 48 ed 3e
       0.4400808 0.40785593 0.63672984 0.46344677
000340 ec ee 95 3e 75 12 71 3e 71 f8 72 3e 08 5a dc 3d
       0.29283845 0.23542197 0.23727585 0.107593596
000350 f4 07 61 3f b3 c4 2c 3f e4 30 4c 3f 88 4a 35 3f
       0.8790276 0.6748764 0.797621 0.7081685
000360 ad 97 3a 3f 17 ac fc 3e a6 98 a7 3e 94 73 d5 3e
       0.7288769 0.49350044 0.3273365 0.41689742
000370 af 14 26 3f 95 3e 7b 3e 93 55 68 3f 04 06 3b 3f
       0.6487531 0.24535592 0.90755576 0.73056054
000380 15 e8 3e 3f 48 33 6a 3e e8 cb f2 3e 7a fd 05 3f
       0.7457288 0.22871125 0.47421193 0.523399
000390 0a 77 26 3f 16 8e 0a 3f 64 b8 e9 3e 94 0b 97 3c
       0.6502539 0.54123056 0.4564849 0.018438138
0003a0 e3 4d 52 3e b6 87 2f 3e 46 a6 e9 3e b6 13 2f 3e
       0.20537524 0.17141613 0.4563467 0.17097363
0003b0 f8 16 90 3d 15 e6 40 3f 2d 40 06 3f 19 00 00 3f
       0.07035631 0.7535108 0.52441674 0.5000015
0003c0 90 4d 67 3f b8 e3 62 3f 69 e4 df 3d a1 bc 42 3f
       0.90352726 0.8862872 0.10932238 0.76069075
0003d0 2f a4 5f 3f 8a c0 e0 3d 1c f3 7e 3f 14 d8 2c 3f
       0.873599 0.10974224 0.99589705 0.6751721
0003e0 c5 7b fd 3e be 98 24 3f 47 84 58 3f 2b 3a b0 3e
       0.4950849 0.64295566 0.8457684 0.3441938
0003f0 5c b9 4b 3f b4 99 0e 3f e8 0b c0 3e 64 fa 24 3f
       0.7957971 0.5570328 0.37509084 0.64444566

train_y f4 [400]
000000 cd 97 fa bd 3e c1 17 be ac e3 6c bf 42 ce df bd
       -0.12235985 -0.1481981 -0.925349 -0.109280124
000010 2a 23 f4 be 27 a5 1f 3f dc 0f 09 bf 10 58 8b 3f
       -0.47683078 0.6236138 -0.53539824 1.088625
000020 c3 4d 4a bf 82 ab ec 3f 50 56 05 3f 1c 57 be be
       -0.79024905 1.848984 0.5208483 -0.37175834
000030 60 38 70 bc 97 42 ae 3f e4 6e b0 3f 86 b4 d5 be
       -0.014661878 1.3614072 1.3783841 -0.4173929
000040 b9 e7 a1 bf 1e 7d 0d c0 cb 35 15 c0 59 4c 5f 3f
       -1.2648841 -2.2107615 -2.3314083 0.8722587
000050 12 3e 05 be 68 b2 ae bf 51 de 82 3f ad db b5 be
       -0.13011959 -1.3648195 1.0224096 -0.35519162
000060 10 58 8d 3f 06 4e be 3e a7 8d 46 3f 17 5d 49 bf
       1.10425 0.37168902 0.77559894 -0.7865767
000070 51 91 76 3f ac 30 de be 5e 1b 83 3f 68 d1 e6 bf
       0.96315485 -0.4339651 1.0242727 -1.8032656
000080 fb a1 9d 3f 3d e0 13 3f b6 d6 a6 bf 9d 0a bc 3f
       1.2315058 0.57764035 -1.3034275 1.4690739
000090 21 bd a7 3e 88 21 5b 3e 2c 03 88 be 01 6d 9a be
       0.3276148 0.2139951 -0.2656492 -0.30161288
0000a0 1b 41 a9 3f b5 64 55 3f d0 57 9d 3e 75 a5 61 3e
       1.3222994 0.8335679 0.30731058 0.22035773
0000b0 3e d3 e3 be 36 f5 f2 3e 22 3d af bf 10 8d 09 3f
       -0.44497102 0.47452706 -1.3690531 0.5373087
0000c0 92 28 41 3f d2 80 b6 3f 8a e8 00 bf c7 39 27 3e
       0.7545253 1.4258063 -0.50354826 0.16330634
0000d0 6b 8a b2 3e 58 b0 0d 3f b7 89 8a bf 09 c3 0d 3f
       0.3487123 0.55347204 -1.0823277 0.55375725
0000e0 94 be a0 3f 8d 6e 19 3f e1 67 e5 bf 13 8d d1 bf
       1.255816 0.5993431 -1.7922326 -1.6371177
0000f0 e5 8f cc bf 55 09 a3 bf 2b 85 7e 3f d4 85 8c 3e
       -1.5981413 -1.2737223 0.9942195 0.27445853
000100 fb e9 71 bf b2 31 d8 3e 9b 80 fd 3e be 1b a1 3e
       -0.9449765 0.42225415 0.4951218 0.31466478
000110 62 57 a4 bd b6 a8 15 be d5 e4 c0 bf 8e 64 f6 3e
       -0.080244794 -0.1461514 -1.5069834 0.48123592
000120 2e ff 00 3f 58 68 68 bf 26 cd 39 3f 34 62 79 3f
       0.50389373 -0.90784216 0.72578657 0.9741547
000130 98 9e 52 be 91 a2 b7 be 47 58 43 3e 1b 3f bc 3f
       -0.20568311 -0.35866216 0.19076644 1.4706758
000140 46 80 ac 3e b0 88 20 be 84 49 48 3f 17 0f 13 c0
       0.33691615 -0.15677142 0.78237176 -2.297796
000150 99 d5 9d be 85 d4 2f 3f dc e6 0f bf 3d d5 48 3f
       -0.30827025 0.68683654 -0.5621164 0.78450376
000160 a1 7f aa 3f 2e 62 b4 3d 4b ce 0f be d1 b2 b0 3f
       1.3320199 0.08807789 -0.14043538 1.380457
000170 77 24 1d 3f 0a 04 1a c0 ad 6c 0f bf 03 bb 4d bf
       0.61383766 -2.4064965 -0.560252 -0.8036348
000180 e1 d2 2c bf 2d bf 88 3d a1 be e3 bf bf f1 71 bf
       -0.67509276 0.06677089 -1.779255 -0.945095
000190 32 08 c3 3e c5 e1 0c bf 00 1f 4e bf 71 bd 3f 3f
       0.3809219 -0.55031997 -0.8051605 0.7489844
0001a0 de 11 a4 bf 26 7d 7c 3f 53 5d c8 bb f2 75 63 be
       -1.2817953 0.9862846 -0.0061146407 -0.22212961
0001b0 b1 c1 7a be 4a 90 78 be 40 c3 06 c0 97 40 79 3f
       -0.2448795 -0.24273792 -2.105667 0.9736418
0001c0 8d 12 2e 3e 19 2e ad 3f 82 15 35 be dd 30 f9 3e
       0.16999264 1.3529693 -0.17683986 0.48670092
0001d0 c2 47 eb bd 91 29 dc be 76 05 00 40 f3 ee d5 be
       -0.11488296 -0.43000463 2.0003333 -0.41783866
0001e0 11 10 54 bf ce 8c 2f 3f ce 70 9f 3f 2d 36 cd be
       -0.82837015 0.68574226 1.24563 -0.40080395
0001f0 aa 0b a6 bf 4b f3 86 bf a4 d4 c2 be d5 4b 00 3f
       -1.297231 -1.0542997 -0.38052857 0.5011571
000200 0e 2b 84 bf ef 61 79 3e 00 6b c1 ba 61 b2 f6 3e
       -1.0325639 0.24353765 -0.001475662 0.48182967
000210 72 73 52 3f e6 36 eb bd 5e 68 c7 bf d2 da 6c 3f
       0.82207406 -0.114850804 -1.5578725 0.92521393
000220 17 b4 18 3f 3e 8e 19 c0 e5 c6 8a 3f 61 86 a6 3f
       0.59649795 -2.3993068 1.0841948 1.3009759
000230 63 49 b2 3c fb 32 9b 3f 5d ad d2 3e 18 37 a2 bf
       0.02176351 1.2124933 0.4114789 -1.2673063
000240 0e aa 85 bf 28 38 3d 3f 01 0d 72 3f a3 20 63 3f
       -1.0442522 0.7391381 0.9455109 0.88721675
000250 91 e0 36 3f cb 45 f5 bf 7b 10 45 3f 97 ef 74 3f
       0.7143641 -1.9161924 0.7697827 0.95678085
000260 83 93 c9 3e 41 27 89 3e 04 dc 3b 3f de ae c5 bd
       0.39370355 0.2678776 0.7338259 -0.09652494
000270 c5 b3 1b bf 78 16 5c 3f 14 33 65 3e e5 5d ad 3e
       -0.6082118 0.85971785 0.22382766 0.33860698
000280 66 d5 8f bf 3e 68 17 bd 09 06 af 3f 29 41 33 be
       -1.1236999 -0.036964647 1.3673717 -0.17505325
000290 9b 5b 48 be 65 69 c9 3e c7 99 ea 3d 8b 4d 59 bd
       -0.19566195 0.39338222 0.11455112 -0.053052466
0002a0 f2 6c 99 3f 60 f0 48 3f 8e 82 80 bf 8a ba 3d bf
       1.1986372 0.78491783 -1.0039842 -0.7411276
0002b0 f9 61 0b 3f fd 01 55 3f c1 a7 77 be 32 7e 4b be
       0.5444637 0.8320616 -0.24185087 -0.19872358
0002c0 47 ef da bf 89 99 33 c0 c8 f5 ad 3f 9b 3b 11 3f
       -1.7104272 -2.806246 1.3590631 0.56731576
0002d0 b2 cb 12 bf c8 4c 34 bf 06 52 d4 3f 05 3d 3e 3f
       -0.57342064 -0.7042966 1.6587532 0.7431186
0002e0 09 70 ca bf d2 3d d3 3f 6b 63 98 3f a4 2a 24 3c
       -1.581544 1.6503241 1.190534 0.010019932
0002f0 83 0f b5 3e 61 cd 04 bf 4b d2 8d 3e 71 04 42 3f
       0.35363397 -0.51875883 0.27699503 0.7578803
000300 ac f8 99 3f 80 2c 5f 3f 6d 6d ae 3f 25 50 cd bf
       1.2029014 0.87177277 1.3627144 -1.6040083
000310 34 61 d0 3e c1 46 8d 3f b7 75 a4 3e f6 39 19 3e
       0.4069916 1.1037217 0.3212106 0.14963517
000320 6f ce 4e 3f 8b b6 35 3f cc b5 13 bf 19 1e 0f c0
       0.8078374 0.70981663 -0.57699275 -2.236212
000330 76 11 af bf d4 9f 2d 3f 48 b8 56 be 03 51 bc bf
       -1.3677204 0.67822003 -0.20968735 -1.4712223
000340 43 da ab 3e ee 27 4c bd ef ad bc 3d 9d ca a4 3e
       0.33564958 -0.049842767 0.09212863 0.32185832
000350 29 cc aa 3f df 9b 34 3f 45 7a 0f 3f 0d 1e d4 bf
       1.3343555 0.7055034 0.56045943 -1.6571671
000360 e0 c5 4a 3d 4a fc e0 3e 00 76 6f bf 9e 15 e7 3e
       0.049505115 0.4394248 -0.9353943 0.4513368
000370 ea bb bf 3e fe be 4d 3f a3 ec c2 bd 0d 5f 12 3f
       0.37448055 0.80369556 -0.09517791 0.57176286
000380 f3 3b 3a bf 94 17 8d bf 6f 08 b0 3f b5 f8 06 3e
       -0.72747725 -1.102282 1.3752574 0.13180812
000390 08 b0 ba 3e 3c 71 cf 3d 45 26 3f 3f a4 29 98 3e
       0.36462426 0.101290196 0.7466777 0.2971927
0003a0 ae a6 c6 3f ee ee 15 3f 84 83 ab bf 7d ca 63 bf
       1.5519617 0.585677 -1.339951 -0.8898085
0003b0 7b 29 72 bd c2 a9 50 3e f4 dd 28 bf 42 5d f0 bf
       -0.05912159 0.20377257 -0.65963674 -1.877846
0003c0 b9 9e 28 3f 18 68 3c 3d 11 8a c4 3f a1 ab 05 3d
       0.6586719 0.04599771 1.5354635 0.03263438
0003d0 3e 45 3c bf 2f 79 29 be de 3a 99 3c 3e 7c 9c 3f
       -0.73543155 -0.16550134 0.018704828 1.2225416
0003e0 69 fc 06 3f d9 f0 a8 bf 61 a4 4d bf 0b e8 b4 3f
       0.527289 -1.3198501 -0.8032895 1.4133314
0003f0 0e 8d a2 3d dd b6 bc 3f 50 e5 b4 3f 3f d3 b9 3e
       0.0793706 1.4743305 1.4132481 0.3629398

min f4 [1, 5]
000000 f5 2f 39 42 6d b9 6f be c1 70 1b 40 80 23 d7 40
       46.296833 -0.23410578 2.428757 6.7230835
000010 00 b2 72 40
       3.7921143

max f4 [1, 5]
000000 fe b4 00 43 1e d8 08 3f 37 56 82 40 f4 e9 39 43
       128.707 0.5345477 4.0730243 185.91388
000010 04 c3 34 43
       180.76178
