examples/dce/models/prestress_rs/constraint_gp_7.pth (torch, 14898 bytes, 5 tensors)

covar_module.base_kernel.raw_lengthscale f4 [1, 5]
1.0136265 -0.7050366 1.0227995 0.43713167 0.35248548
00000000: 83be 813f 477d 34bf 18eb 823f b9cf df3e
00000010: fa78 b43e

train_x f4 [400, 5]
0.3120434 0.08889551 0.584282 0.51511234 0.5925351 0.6077646 0.35508898 0.6669226
0.52265173 0.37154117 0.5559556 0.11195032 0.48792028 0.41680655 0.5510155 0.4148465
0.30766553 0.4227721 0.4555914 0.34364372 0.7831968 0.5750178 0.6125458 0.74586993
0.6195685 0.2768978 0.7428664 0.18565133 0.577368 0.45576978 0.989215 0.58116645
0.7874325 0.3455919 0.53302145 0.06810038 0.7520789 0.22938475 0.49048543 0.4285297
0.3629249 0.05407086 0.09087477 0.48349798 0.26191014 0.041940983 0.84833777 0.5653625
0.2227024 0.24297126 0.4597996 0.57155406 0.9389078 0.6755995 0.58274645 0.18146563
0.23126039 0.11339513 0.78242844 0.586614 0.89540744 0.80132544 0.27723718 0.679217
0.60646725 0.028222684 0.6553989 0.6890752 0.43521702 0.435541 0.05484131 1.0
0.17413428 0.7642406 0.67597616 0.89478713 0.57461697 0.73587024 0.42476365 0.5138618
0.8740678 0.6044051 0.009539832 0.5391085 0.5988222 0.93165094 0.13084933 0.41257587
0.8701098 0.8238624 0.9824307 0.33236948 0.27273262 0.4471731 0.6250289 0.14142948
0.44748476 0.47808826 0.29693848 0.32005313 0.4692383 0.07286362 0.9971838 0.51242363
0.7192624 0.42835322 0.2902121 0.041286543 0.7921662 0.7737815 0.13850068 0.6832286
0.6181763 0.5813271 0.54667544 0.54871976 0.4217449 0.48537654 0.48525766 0.47330087
0.37576124 0.70432013 0.88462824 0.61675197 0.36709905 0.11489089 0.07885987 0.64112294
0.77705574 0.78050584 0.038942233 0.54379934 0.1865077 0.51649547 0.41763252 0.8816266
0.43129382 0.80941737 0.3784815 0.664227 0.27881452 0.37896937 0.47265688 0.5363101
0.171703 0.83956605 0.61547285 0.5022844 0.3015635 0.47270992 0.06290826 0.79328746
0.41670024 0.6356002 0.77271265 0.7227987 0.37284425 0.14787553 0.7577441 0.66183394
0.42352897 0.9831867 0.55678046 0.460274 0.4715983 0.64735603 0.8128659 0.7387843
0.48873207 0.52272236 0.8991224 0.15736435 0.8042313 0.62258726 0.7505097 0.96884793
0.9446811 0.006550805 0.67269325 0.6926024 0.6625333 0.59095615 0.95613956 0.5538235
0.47675124 0.3153529 0.20616701 0.6797048 1.0 0.53870434 0.09810783 0.22180988
0.07445585 0.60255206 0.7997462 0.19005944 0.1743744 0.029691191 0.49877232 0.30766568
0.43796 0.9921587 0.70834345 0.29592648 0.4400808 0.40785593 0.63672984 0.46344677
0.29283845 0.23542197 0.23727585 0.107593596 0.8790276 0.6748764 0.797621 0.7081685
0.7288769 0.49350044 0.3273365 0.41689742 0.6487531 0.24535592 0.90755576 0.73056054
0.7457288 0.22871125 0.47421193 0.523399 0.6502539 0.54123056 0.4564849 0.018438138
0.20537524 0.17141613 0.4563467 0.17097363 0.07035631 0.7535108 0.52441674 0.5000015
0.90352726 0.8862872 0.10932238 0.76069075 0.873599 0.10974224 0.99589705 0.6751721
0.4950849 0.64295566 0.8457684 0.3441938 0.7957971 0.5570328 0.37509084 0.64444566
00000000: 27c4 9f3e d90e b63d 8193 153f 67de 033f
00000010: 61b0 173f 7696 1b3f 39ce b53e 71bb 2a3f
00000020: 81cc 053f a53a be3e 1b53 0e3f 3646 e53d
00000030: b0d0 f93e ab67 d53e 5a0f 0d3f c366 d43e
00000040: 5686 9d3e 9675 d83e 4743 e93e 12f2 af3e
00000050: 967f 483f 5e34 133f cdcf 1c3f 55f1 3e3f
00000060: 0b9c 1e3f 8cc5 8d3e 7e2c 3e3f 621b 3e3e
00000070: 64ce 133f a85a e93e 323d 7d3f 53c7 143f
00000080: 2d95 493f 6cf1 b03e 1874 083f 3678 8b3d
00000090: 3e88 403f d6e3 6a3e e820 fb3e 3f68 db3e
000000a0: 4bd1 b93e 6879 5d3d 8d1c ba3d 0c8d f73e
000000b0: 1619 863e 4fca 2b3d aa2c 593f 99bb 103f
000000c0: 190c 643e 75cd 783e da6a eb3e 5e51 123f
000000d0: 435c 703f 17f4 2c3f df2e 153f 20d2 393e
000000e0: 86cf 6c3e b53b e83d 3b4d 483f 562c 163f
000000f0: 6c39 653f aa23 4d3f 08f2 8d3e 2ae1 2d3f
00000100: 7041 1b3f 4233 e73c 39c8 273f 3b67 303f
00000110: c4d4 de3e 3bff de3e 48a1 603d 0000 803f
00000120: 4250 323e 46a5 433f c60c 2d3f c510 653f
00000130: 191a 133f fe61 3c3f 9f7a d93e 728c 033f
00000140: e8c2 5f3f 4bba 1a3f f54c 1c3c 0403 0a3f
00000150: 694c 193f ad80 6e3f 5efd 053e 253d d33e
00000160: 84bf 5e3f a5e8 523f 9480 7b3f 552c aa3e
00000170: 9ca3 8b3e dff3 e43e e501 203f e4d2 103e
00000180: b91c e53e fcc7 f43e 5208 983e 01de a33e
00000190: 0140 f03e 8639 953d 7047 7f3f 322e 033f
000001a0: 9521 383f 1d51 db3e ae96 943e 141c 293d
000001b0: 67cb 4a3f 8b16 463f 1fd3 0d3e 12e8 2e3f
000001c0: cd40 1e3f dad1 143f ecf2 0b3f e678 0c3f
000001d0: f3ee d73e 4683 f83e b173 f83e 7e54 f23e
000001e0: c763 c03e 534e 343f ff76 623f 75e3 1d3f
000001f0: 68f4 bb3e ea4b eb3d 4981 a13d a220 243f
00000200: 20ed 463f 3bcf 473f e481 1f3d 6f36 0b3f
00000210: e0fb 3e3e 0c39 043f eed3 d53e 48b2 613f
00000220: 8bd2 dc3e fa35 4f3f 54c8 c13e c80a 2a3f
00000230: c7c0 8e3e 4608 c23e 1500 f23e 9e4b 093f
00000240: e9d2 2f3e cded 563f a18f 1d3f b695 003f
00000250: 8866 9a3e 0907 f23e 0cd6 803d e314 4b3f
00000260: bc59 d53e b2b6 223f 7fd0 453f 5609 393f
00000270: 71e5 be3e af6c 173e 84fb 413f f36d 293f
00000280: cad8 d83e 20b2 7b3f 2a89 0e3f 09a9 eb3e
00000290: 5575 f13e 20b9 253f fb17 503f f820 3d3f
000002a0: 173b fa3e 22d1 053f e32c 663f 1f24 213e
000002b0: 1ae2 4d3f e161 1f3f 6721 403f 6b06 783f
000002c0: 9fd6 713f 23a8 d63b a035 2c3f 644e 313f
000002d0: c89b 293f e748 173f 90c5 743f 60c7 0d3f
000002e0: bd18 f43e ef75 a13e 721d 533e 2201 2e3f
000002f0: 0000 803f 87e8 093f c2ec c83d 2122 633e
00000300: 4f7c 983d da40 1a3f 2bbc 4c3f f19e 423e
00000310: 348f 323e f13a f33c 165f ff3e 5b86 9d3e
00000320: 4b3c e03e 1dfe 7d3f ff55 353f ad83 973e
00000330: 4552 e13e 7ed2 d03e ba00 233f e548 ed3e
00000340: ecee 953e 7512 713e 71f8 723e 085a dc3d
00000350: f407 613f b3c4 2c3f e430 4c3f 884a 353f
00000360: ad97 3a3f 17ac fc3e a698 a73e 9473 d53e
00000370: af14 263f 953e 7b3e 9355 683f 0406 3b3f
00000380: 15e8 3e3f 4833 6a3e e8cb f23e 7afd 053f
00000390: 0a77 263f 168e 0a3f 64b8 e93e 940b 973c
000003a0: e34d 523e b687 2f3e 46a6 e93e b613 2f3e
000003b0: f816 903d 15e6 403f 2d40 063f 1900 003f
000003c0: 904d 673f b8e3 623f 69e4 df3d a1bc 423f
000003d0: 2fa4 5f3f 8ac0 e03d 1cf3 7e3f 14d8 2c3f
000003e0: c57b fd3e be98 243f 4784 583f 2b3a b03e
000003f0: 5cb9 4b3f b499 0e3f e80b c03e 64fa 243f

train_y f4 [400]
0.24586771 -0.02327934 -0.6882148 0.0091419155 -0.4270139 0.34487012 -0.627976 1.078248
-0.7092696 1.8349465 0.8799933 0.33933598 -1.0029341 1.657118 0.9591381 -0.44356298
-2.5375445 -1.7360592 -2.2552533 0.9586107 0.22005782 -0.69595665 1.2994107 -0.20928538
1.3971978 0.97375447 1.0129604 -0.7041462 0.8552291 -0.8109887 1.1335043 -1.5476071
1.0133274 0.523348 -1.01154 -0.870627 0.58210534 0.64667803 0.5440241 0.05011013
1.1970509 0.7064974 0.8090549 -0.16005535 -0.052365918 0.81771886 -0.9825315 0.8640162
-1.1186816 1.5078865 -0.4120595 -0.17300177 -0.04289095 0.5970639 -0.8379682 0.8982947
1.4711255 0.84642977 -1.4177771 -1.7898525 -1.3608121 -1.2842208 -0.2569199 0.40728366
-1.5537933 0.7328299 0.9158935 0.53334564 -0.25457525 0.19212335 -1.0952417 -0.35353196
0.33299014 -0.8209335 0.67082685 -0.45934212 -0.44211033 -1.3567365 0.3932185 1.5871253
0.4657485 0.04898556 0.94383925 -2.1199703 -0.6646666 0.7453381 -0.07646114 0.724327
1.1699075 0.17092954 0.10612384 1.7340622 0.5250295 -1.8499492 -0.42108762 -0.5311904
-0.5455255 -0.14886142 -1.8422722 -1.6360352 0.8559026 -0.23483711 -0.7069302 -0.044869054
-1.1925765 0.98855054 0.09808519 -0.8635761 -0.118471704 -0.013920096 -2.0451214 1.2485267
0.118744954 0.73421514 0.106737904 0.9203347 -0.7686872 -1.181214 2.1772816 -0.15309004
-0.35638133 0.2481008 0.86135095 -0.23992482 -0.68000585 -1.2159808 -0.041786868 0.6549105
-1.304271 0.51839626 0.8069921 0.7364437 0.59519666 0.033255134 -1.0619131 0.07774324
1.1281441 -1.7929407 1.2900317 1.6427876 0.3811327 1.4358654 0.4288601 -1.2124625
-0.9680508 0.92699385 1.1085091 1.2209837 0.032964993 -1.5963928 -0.026629798 0.9644017
0.4240509 -0.35495305 0.7820529 -0.03489908 -0.26195028 0.95876753 0.24485748 0.69878775
-1.085451 0.13484609 1.5067029 0.0051256297 0.5168611 0.64834315 0.6181568 0.15605734
0.91687477 1.2193179 -0.83757204 -0.85758454 0.6273519 -0.23458906 -0.5406158 -0.055711117
-2.1077983 -2.7446537 1.676544 0.7679894 -0.27557334 0.06983802 1.1490171 1.10208
-1.6430026 1.6696453 1.5605693 -0.40045804 0.7909472 -0.9437764 0.75025195 1.0320512
1.3745695 0.7241627 1.3416469 -1.2930944 0.5686343 1.0489557 0.3625198 -0.39579335
-0.42675865 0.6416602 -1.074137 -1.8313838 -1.2344964 1.0887295 -0.72134864 -1.2386914
0.7191517 0.054011524 -0.8872896 0.8867121 0.35766867 0.39249673 0.7318986 -1.935524
0.44224918 0.4581867 -1.0591706 0.86890334 0.81895113 -0.03782069 0.1593851 1.0753571
-0.5335187 -0.97599727 1.5334218 -0.901525 -0.027917711 -0.751477 -0.021025492 -0.7500551
1.6740594 0.74528635 -1.3958235 -0.3266757 -0.50675213 -0.3637395 -0.4679514 -2.2527876
0.96441436 0.40935755 1.9344885 0.4878267 -0.7669134 -0.7051597 -0.87351817 -0.49823397
0.47728005 -1.0859218 -0.43799964 1.4578995 0.35863158 1.72568 0.9763216 0.12479305
00000000: bfc4 7b3e 50b4 bebc d82e 30bf f9c7 153c
00000010: 91a1 dabe d192 b03e 09c3 20bf 0804 8a3f
00000020: b192 35bf 87df ea3f 3e47 613f 72bd ad3e
00000030: 2560 80bf 711c d43f 138a 753f b01a e3be
00000040: 2167 22c0 3037 debf 1256 10c0 8367 753f
00000050: d656 613e 372a 32bf 1753 a63f e84e 56be
00000060: 61d7 b23f f947 793f b0a8 813f ed42 34bf
00000070: 4bf0 5a3f f59c 4fbf ab16 913f fd17 c6bf
00000080: b6b4 813f 22fa 053f 257a 81bf 69e1 5ebf
00000090: db04 153f b18c 253f 2a45 0b3f 4840 4d3d
000000a0: f738 993f 03dd 343f 391e 4f3f 8de5 23be
000000b0: a57d 56bd 0656 513f 2f87 7bbf 2a30 5d3f
000000c0: f530 8fbf 6d02 c13f 76f9 d2be 6027 31be
000000d0: 6cae 2fbd 2ed9 183f 1585 56bf a4f6 653f
000000e0: d74d bc3f 9faf 583f b879 b5bf e319 e5bf
000000f0: 172f aebf 5961 a4bf 018b 83be 7c87 d03e
00000100: b3e2 c6bf be9a 3b3f ff77 6a3f 5789 083f
00000110: b057 82be fcbb 443e e130 8cbf 2402 b5be
00000120: af7d aa3e b328 52bf 4fbb 2b3f e42e ebbe
00000130: 495c e2be 8ba9 adbf ef53 c93e ec26 cb3f
00000140: 9676 ee3e 15a5 483d 739f 713f 98ad 07c0
00000150: 9727 2abf 7ace 3e3f a897 9cbd 7f6d 393f
00000160: 87bf 953f 2708 2f3e 7557 d93d c0f5 dd3f
00000170: 5568 063f 23cb ecbf cc98 d7be 18fc 07bf
00000180: 8fa7 0bbf 216f 18be 93cf ebbf 9a69 d1bf
00000190: 6f1c 5b3f 2479 70be 61f9 34bf 9dc8 37bd
000001a0: 59a6 98bf a611 7d3f e3e0 c83d 5313 5dbf
000001b0: 4ba1 f2bd 1d11 64bc 45e3 02c0 b9cf 9f3f
000001c0: 8e30 f33d 86f5 3b3f 6799 da3d 0e9b 6b3f
000001d0: afc8 44bf 0532 97bf 9558 0b40 a3c3 1cbe
000001e0: 9d77 b6be 230e 7e3e 7f81 5c3f daae 75be
000001f0: dd14 2ebf 42a5 9bbf b528 2bbd 37a8 273f
00000200: 5af2 a6bf 9eb5 043f 0997 4e3f 9387 3c3f
00000210: cf5e 183f 8936 083d c5ec 87bf d937 9f3d
00000220: 0767 903f 157f e5bf c21f a53f dd46 d23f
00000230: d323 c33e 70ca b73f 8d93 db3e f931 9bbf
00000240: 2dd2 77bf 784f 6d3f a0e3 8d3f 3249 9c3f
00000250: 4d06 073d 9956 ccbf bc26 dabc 08e3 763f
00000260: 331d d93e 68bc b5be 9e34 483f 56f2 0ebd
00000270: 591e 86be ca71 753f ebbb 7a3e c1e3 323f
00000280: 0ff0 8abf 1815 0a3e a4db c03f e6f4 a73b
00000290: 0251 043f d1f9 253f 863f 1e3f 7fcd 1f3e
000002a0: 4eb8 6a3f 9c12 9c3f 1f6b 56bf a98a 5bbf
000002b0: 229a 203f 1d38 70be cc65 0abf 5731 64bd
000002c0: 2be6 06c0 68a8 2fc0 fe98 d63f f49a 443f
000002d0: f317 8dbe 3c07 8f3d fe12 933f f510 8d3f
000002e0: e94d d2bf f0b6 d53f bcc0 c73f d608 cdbe
000002f0: 847b 4a3f 559b 71bf 8310 403f 411a 843f
00000300: e5f1 af3f ba62 393f 16bb ab3f 1e84 a5bf
00000310: 0492 113f 2e44 863f 329c b93e 6da5 cabe
00000320: 1c80 dabe d843 243f 527d 89bf c96a eabf
00000330: fa03 9ebf 7d5b 8b3f 4eaa 38bf 718d 9ebf
00000340: 531a 383f 303b 5d3d 6925 63bf 90ff 623f
00000350: 5920 b73e 55f5 c83e b55d 3b3f 40bf f7bf
00000360: 7c6e e23e 7297 ea3e e792 87bf 7370 5e3f
00000370: c8a6 513f dee9 1abd d935 233e 4da5 893f
00000380: ae94 08bf f5da 79bf 2a47 c43f 58ca 66bf
00000390: afb3 e4bc cc60 40bf a73d acbc 9c03 40bf
000003a0: 9447 d63f 16cb 3e3f 58aa b2bf 0a42 a7be
000003b0: 82ba 01bf 103c babe 5397 efbe ac2d 10c0
000003c0: dce3 763f 5097 d13e 529d f73f 6cc4 f93e
000003d0: 7054 44bf 5985 34bf e39e 5fbf 8618 ffbe
000003e0: 0d5e f43e 7cff 8abf 7d41 e0be 739c ba3f
000003f0: 8f9e b73e 15e3 dc3f 36f0 793f 8093 ff3d

min f4 [1, 5]
46.296833 -0.23410578 2.428757 6.7230835 3.7921143
00000000: f52f 3942 6db9 6fbe c170 1b40 8023 d740
00000010: 00b2 7240

max f4 [1, 5]
128.707 0.5345477 4.0730243 185.91388 180.76178
00000000: feb4 0043 1ed8 083f 3756 8240 f4e9 3943
00000010: 04c3 3443
