examples/dce/models/prestress_rs/constraint_gp_0.pth (torch, 19250 bytes, 5 tensors)

covar_module.base_kernel.raw_lengthscale f4 [1, 6]
0	0xbfbad53e	-1.4596326
1	0xc036595c	-2.849204
2	0x3ff1e7a1	1.8898813
3	0xc01ee9a8	-2.4830112
4	0xbf5298b7	-0.82264274
5	0xbfb13741	-1.3844987

train_x f4 [500, 6]
0	0x3ea30f77	0.31847736
1	0x3da7d4a0	0.08194852
2	0x3f0b4cb9	0.54413944
3	0x3f15ce59	0.58517987
4	0x3ef767d0	0.4832139
5	0x3f2c5add	0.67326146
6	0x3ea52315	0.32253328
7	0x3ebb176e	0.36541313
8	0x3f44f5cb	0.7693755
9	0x3f4eb4d4	0.8074467
10	0x3f5ffb68	0.8749299
11	0x3f32dbff	0.6986694
12	0x3d0ffce1	0.035153273
13	0x3ef62e7e	0.48082346
14	0x3f27d8f9	0.6556545
15	0x3f17cbea	0.59295523
16	0x3f02c78c	0.51085734
17	0x3f0900ac	0.5351665
18	0x3e8655ff	0.26237485
19	0x3f6f4036	0.93457353
20	0x3f277ed0	0.65427876
21	0x3edcbaf1	0.43111375
22	0x3eba1a15	0.36348024
23	0x3eaf1e9a	0.34203035
24	0x3ecbdb89	0.3981593
25	0x3f1e97a6	0.6195015
26	0x3f37e5bf	0.7183494
27	0x3e943724	0.2894832
28	0x3ec1a774	0.3782307
29	0x3edbb0a7	0.42908213
30	0x3d9c7ade	0.076406226
31	0x3f32bdb0	0.6982069
32	0x3f2f78c7	0.68543667
33	0x3f0f421a	0.5596024
34	0x3f0fc626	0.56161726
35	0x3f174196	0.5908445
36	0x3f7bb4d5	0.983228
37	0x3e721347	0.23640166
38	0x3f16384a	0.5867964
39	0x3efe4deb	0.49668822
40	0x3ef3a3fb	0.47586045
41	0x3f07b780	0.53014374
42	0x3e8658ad	0.2623953
43	0x3eb97580	0.36222458
44	0x3f2d2973	0.6764137
45	0x3f3cdc0e	0.73773277
46	0x3f368c36	0.71307695
47	0x3f194fcc	0.59887385
48	0x3e2cace8	0.16862833
49	0x3f28d48e	0.6594933
50	0x3f515e5e	0.8178462
51	0x3f32e8d6	0.6988653
52	0x3f23b3c2	0.63946164
53	0x3f0cf40e	0.550599
54	0x3f1e4efb	0.61839265
55	0x3e2bbdce	0.16771623
56	0x3f050bf9	0.51971394
57	0x3f025114	0.50904965
58	0x3f069afd	0.52580243
59	0x3eecb6c6	0.46233195
60	0x3eca7825	0.39544788
61	0x3eef1d1c	0.46701896
62	0x3f46af68	0.776114
63	0x3f4831ab	0.7820079
64	0x3f371858	0.7152152
65	0x3f2782e7	0.65434116
66	0x3ecf144a	0.40445167
67	0x3e20736b	0.15669028
68	0x3f6ca3d2	0.9243747
69	0x3f1c7a2a	0.6112391
70	0x3f15711b	0.5837571
71	0x3f0af2d6	0.5427679
72	0x3e2c4555	0.16823323
73	0x3f4e53bb	0.8059651
74	0x3f0c5bb9	0.5482746
75	0x3f26d1be	0.6516379
76	0x3f2a81f5	0.6660455
77	0x3ee4a1d5	0.44654718
78	0x3f450ee4	0.76975846
79	0x3f5528fa	0.8326565
80	0x3f02c881	0.51087195
81	0x3f2e2f92	0.68041337
82	0x3f2d0db4	0.67599034
83	0x3f32b09d	0.6980074
84	0x3dc6d5ab	0.09708723
85	0x3e9d31fa	0.30702192
86	0x3f2169fc	0.63052344
87	0x3efa5233	0.48890838
88	0x3f019e2a	0.50631964
89	0x3ebf4994	0.37360823
90	0x3e091114	0.13385421
91	0x3f39c7b1	0.7257033
92	0x3f69a6de	0.91270244
93	0x3f0efb92	0.55852616
94	0x3f1be960	0.60902977
95	0x3ed382d4	0.4131075
96	0x3f41d7e2	0.75720036
97	0x3d1c5904	0.03817083
98	0x3ed5ba6d	0.41743794
99	0x3f08539a	0.53252566
100	0x3ef9a7d2	0.4876085
101	0x3edafb83	0.42770013
102	0x3ecf1b0b	0.4045032
103	0x3ea06478	0.31326652
104	0x3f080b4c	0.5314224
105	0x3f1f9a13	0.62344474
106	0x3f323ea9	0.6962686
107	0x3eef7625	0.46769825
108	0x3e9d7c63	0.30758962
109	0x3e838214	0.2568518
110	0x3f2ef8fe	0.6834868
111	0x3f03eb34	0.51530766
112	0x3f376a4e	0.71646583
113	0x3f1e7cbf	0.619091
114	0x3e2f2427	0.17103635
115	0x3f030147	0.51173824
116	0x3f1f8c94	0.6232388
117	0x3f27057e	0.65242755
118	0x3f1d8054	0.6152394
119	0x3eec83e0	0.46194363
120	0x3f299689	0.66245323
121	0x3eac0067	0.33594057
122	0x3f2fcf7c	0.6867597
123	0x3f21c981	0.63198096
124	0x3f116e53	0.56808966
125	0x3ed93164	0.42420495
126	0x3e02b759	0.12765254
127	0x3da597e4	0.080856115
128	0x3f1e94ea	0.61945975
129	0x3ed984ba	0.42484075
130	0x3edde89d	0.43341532
131	0x3ed77bcc	0.42086637
132	0x3f6fb1b4	0.9363053
133	0x3f7878d8	0.9705939
134	0x3f005438	0.5012851
135	0x3f05cccb	0.52265614
136	0x3eec215f	0.4611921
137	0x3ef3ed1a	0.47641832
138	0x3e0b0ad7	0.13578354
139	0x3f04967a	0.5179211
140	0x3f35b663	0.70981425
141	0x3ebbcf5d	0.36681643
142	0x3ed851de	0.4224996
143	0x3f1f9fd5	0.6235326
144	0x3f25487f	0.64563745
145	0x3f6b1ca7	0.91840595
146	0x3f3a4bc8	0.72771883
147	0x3f4f892e	0.81068695
148	0x3f52012f	0.82033056
149	0x3f175aa5	0.5912269
150	0x3f41ec7a	0.7575146
151	0x3f41cbbb	0.75701493
152	0x3f31d609	0.69467217
153	0x3f03326c	0.5124881
154	0x3ee42e26	0.44566458
155	0x3f064787	0.5245289
156	0x3f17241d	0.5903948
157	0x3e96522e	0.29359573
158	0x3f2dcf83	0.6789476
159	0x3eb93a87	0.36177465
160	0x3ecbba7a	0.39790708
161	0x3ef0eaba	0.47054082
162	0x3ef22ba9	0.47298935
163	0x3f455e70	0.77097225
164	0x3f1173c2	0.5681726
165	0x3f08132b	0.5315425
166	0x3f0b8e95	0.5451444
167	0x3ef44d67	0.47715303
168	0x3f0cdccc	0.5502441
169	0x3ef6e6cc	0.4822296
170	0x3f2ca0f7	0.6743311
171	0x3efb1ad6	0.49043912
172	0x3ec9c953	0.3941141
173	0x3ec58255	0.38575998
174	0x3f2316d8	0.6370673
175	0x3f624cdb	0.8839852
176	0x3f2678f6	0.6502832
177	0x3f0990dd	0.5373667
178	0x3f13af82	0.5768968
179	0x3e432e2c	0.19060582
180	0x3ef8dc16	0.48605412
181	0x3f1030b9	0.56324345
182	0x3f66767d	0.9002455
183	0x3e1b1f5b	0.1514868
184	0x3daabac9	0.08336408
185	0x3e9bf8f3	0.3046337
186	0x3f4a7f00	0.79100037
187	0x3f4c8f7c	0.7990644
188	0x3f46280c	0.77404857
189	0x3f28ec68	0.6598573
190	0x3f0f5d66	0.5600189
191	0x3efa043b	0.48831353
192	0x3f3dfe21	0.74215895
193	0x3f607109	0.8767248
194	0x3f555b94	0.8334286
195	0x3f0941c1	0.5361596
196	0x3f0fc941	0.56166464
197	0x3f065c5a	0.5248467
198	0x3f44ab23	0.76823634
199	0x3eeab296	0.45839375
200	0x3f1840aa	0.5947367
201	0x3ea1a5ed	0.31571904
202	0x3eac1596	0.3361022
203	0x3ea2b7a6	0.31780738
204	0x3f71a199	0.94387203
205	0x3ef3b361	0.47597793
206	0x3f3c110c	0.7346351
207	0x3f3a4cc9	0.72773415
208	0x3f49dc87	0.78852123
209	0x3f488807	0.7833256
210	0x3f77950d	0.9671181
211	0x3f25254f	0.64510053
212	0x3ed43e98	0.41454005
213	0x3f062109	0.5239416
214	0x3efdce4d	0.49571458
215	0x3e89b40a	0.2689517
216	0x3f39c214	0.72561765
217	0x3ed74c73	0.42050514
218	0x3ea91e8b	0.33031115
219	0x3f446647	0.7671856
220	0x3f441486	0.76593816
221	0x3f3c02c9	0.7344175
222	0x3f2c0aaa	0.6720377
223	0x3f7bd7d0	0.9837618
224	0x3f2642e2	0.64945805
225	0x3f48bd80	0.78414154
226	0x3f271269	0.65262467
227	0x3f134cdd	0.5753916
228	0x3e280fed	0.16412325
229	0x3f2919ac	0.660548
230	0x3ec79995	0.3898436
231	0x3e83d71e	0.2575006
232	0x3e2c480f	0.16824363
233	0x3eba5ae1	0.3639746
234	0x3f5b8a7f	0.85758203
235	0x3dae5af8	0.08513445
236	0x3f149caf	0.5805158
237	0x3eeb2319	0.45925215
238	0x3ed3cc7b	0.41366944
239	0x3ebcef1f	0.36901185
240	0x3d8b2995	0.067950405
241	0x3f45657b	0.7710797
242	0x3ec640b7	0.38721249
243	0x3f404aa6	0.75113904
244	0x3f28f79a	0.6600281
245	0x3f0a9cef	0.5414571
246	0x3eb7ca73	0.35896644
247	0x3eb934f8	0.36173224
248	0x3f199cd9	0.60004956
249	0x3e64c4c5	0.22340687
250	0x3e9433b4	0.28945696
251	0x3edbefab	0.4295629
252	0x3bf88e46	0.0075853197
253	0x3f38b661	0.7215329
254	0x3ec8d80f	0.3922734
255	0x3e83f29b	0.2577103

train_y f4 [500]
0	0x3f41a711	0.7564555
1	0xbef95037	-0.48694012
2	0x3f175b11	0.5912333
3	0x3e0aec9b	0.1356682
4	0xc012dced	-2.2947342
5	0x3ef058d1	0.46942762
6	0xc0305984	-2.7554636
7	0xbe7bd935	-0.24594577
8	0x3e9c9afd	0.30586997
9	0x3f41a711	0.7564555
10	0xbeff777d	-0.4989585
11	0x3f41a711	0.7564555
12	0x3f283897	0.6571135
13	0x3eb9234e	0.36159748
14	0x3eb2241c	0.34793174
15	0x3f08afd5	0.533933
16	0x3f41a711	0.7564555
17	0xbf3134a3	-0.6922094
18	0xbf0671b9	-0.52517277
19	0x3e677f57	0.2260717
20	0xbf7a08f2	-0.976699
21	0x3f41a711	0.7564555
22	0xbfa56b23	-1.292332
23	0x3cb04e02	0.021521572
24	0x3de435c5	0.11143068
25	0x3e26a576	0.16274056
26	0xbfc41374	-1.5318437
27	0x3efea004	0.49731457
28	0x3f1f6ed0	0.6227846
29	0xc06a93ff	-3.665283
30	0xbe249382	-0.16071895
31	0xbe4346b3	-0.19069938
32	0xbe5465cf	-0.20741962
33	0xbecd5387	-0.4010279
34	0xbfcf40c3	-1.6191639
35	0xc042e8e3	-3.0454643
36	0xbfbb8df6	-1.4652698
37	0xbdec18eb	-0.1152819
38	0x3f0b82a6	0.5449623
39	0x3f41a711	0.7564555
40	0x3f0bfec3	0.5468561
41	0x3f41a711	0.7564555
42	0x3f2f0b2e	0.68376434
43	0x3f41a711	0.7564555
44	0x3d0d809a	0.034546472
45	0x3f0d1f5b	0.5512597
46	0x3eecfb99	0.46285704
47	0x3f41a711	0.7564555
48	0x3ea60d84	0.32432187
49	0x3f41a711	0.7564555
50	0x3f41a711	0.7564555
51	0xc0074e51	-2.114155
52	0xbf6fba8f	-0.9364404
53	0xbfd19486	-1.6373451
54	0x3f41a711	0.7564555
55	0x3f1a0277	0.6016001
56	0x3f41a711	0.7564555
57	0xc0037b2e	-2.0543933
58	0xbfa158a3	-1.2605175
59	0xbf5845f1	-0.8448172
60	0x3f41a711	0.7564555
61	0xc06e633a	-3.7248063
62	0x3f41a711	0.7564555
63	0x3f41a711	0.7564555
64	0x3f41a711	0.7564555
65	0x3f41a711	0.7564555
66	0x3f41a711	0.7564555
67	0x3f16d7c3	0.58922976
68	0x3e676ce9	0.2260014
69	0x3e51b19a	0.20477906
70	0x3f033ff9	0.5126949
71	0x3f246b92	0.6422664
72	0x3f09db5d	0.53850347
73	0x3eddb8e8	0.43305135
74	0x3f41a711	0.7564555
75	0x3eeccd2b	0.4625028
76	0x3d5449c9	0.05182818
77	0x3ed36d67	0.41294405
78	0x3f41a711	0.7564555
79	0x3f0efc62	0.55853856
80	0x3f41a711	0.7564555
81	0x3f41a711	0.7564555
82	0x3efced72	0.49399906
83	0x3e2ab343	0.16669945
84	0xc0801c09	-4.0034223
85	0x3eb46733	0.35234985
86	0x3de742ca	0.11292036
87	0x3f35b12f	0.70973486
88	0x3f41a711	0.7564555
89	0xbe854624	-0.26030076
90	0xc00f871b	-2.2426212
91	0x3f41a711	0.7564555
92	0x3e78d7a9	0.24301018
93	0xbe84e565	-0.25956264
94	0x3f41a711	0.7564555
95	0x3f41a711	0.7564555
96	0xbfee9685	-1.8639685
97	0x3e050790	0.12991166
98	0x3f41a711	0.7564555
99	0x3f41a711	0.7564555
100	0xbf0f05bf	-0.5586814
101	0xbff9745d	-1.9488636
102	0x3f033279	0.5124889
103	0x3f41a711	0.7564555
104	0xc000f1dc	-2.014762
105	0x3f41a711	0.7564555
106	0x3f41a711	0.7564555
107	0xbfe4145c	-1.7818713
108	0x3f41a711	0.7564555
109	0x3f41a711	0.7564555
110	0x3f41a711	0.7564555
111	0x3f41a711	0.7564555
112	0x3f41a711	0.7564555
113	0xbf10fd8c	-0.5663688
114	0x3f3845ae	0.7198132
115	0x3f41a711	0.7564555
116	0xc07b8d92	-3.9305158
117	0x3ecbf4ad	0.3983511
118	0xbebdb64b	-0.3705314
119	0xbf8f59ff	-1.119934
120	0xc08b290f	-4.348762
121	0x3edf954f	0.436686
122	0x3f131649	0.5745588
123	0xbea9831d	-0.33107844
124	0x3f00106b	0.5002505
125	0xbf46cd20	-0.77656746
126	0x3f2e5416	0.68097055
127	0x3f1c16e6	0.6097244
128	0x3e908ef5	0.28234068
129	0x3eaa1496	0.3321883
130	0x3f044999	0.516748
131	0x3e332587	0.17494784
132	0x3f0e4e34	0.5558808
133	0x3f41a711	0.7564555
134	0x3f41a711	0.7564555
135	0x3e6306da	0.22170582
136	0x3edaac69	0.42709664
137	0x3e971e23	0.2951518
138	0x3f01090d	0.50404435
139	0x3f41a711	0.7564555
140	0x3ede1fd4	0.43383658
141	0x3f10483f	0.5636024
142	0xbdf53f8b	-0.119750105
143	0x3f41a711	0.7564555
144	0x3f41a711	0.7564555
145	0xbf245ab6	-0.64200914
146	0x3dbdf40a	0.092750624
147	0x3f41a711	0.7564555
148	0x3f203dfc	0.6259458
149	0xbfaf38e6	-1.3689239
150	0xbdd6ede3	-0.10494592
151	0x3f41a711	0.7564555
152	0x3f41a711	0.7564555
153	0x3f41a711	0.7564555
154	0xbe8cfe27	-0.27537653
155	0x3e36bcfa	0.17845526
156	0xbfc50400	-1.5391846
157	0x3ebb7269	0.36610726
158	0xbf4874a0	-0.78302956
159	0x3f41a711	0.7564555
160	0x3ef6698c	0.481274
161	0x3f332a4f	0.6998643
162	0xbe03ae13	-0.12859373
163	0x3f41a711	0.7564555
164	0x3f118546	0.56843984
165	0x3f41a711	0.7564555
166	0x3e8b4720	0.27202702
167	0xbf1a68de	-0.60316265
168	0x3e965084	0.29358304
169	0x3f3efd34	0.7460511
170	0x3e8d6c6c	0.27621782
171	0xbfd2b819	-1.6462432
172	0x3ecedbda	0.40402108
173	0x3e815713	0.25261745
174	0xbf1649da	-0.5870644
175	0x3f41a711	0.7564555
176	0xbe7ceb93	-0.2469924
177	0x3e1d4b05	0.15360649
178	0xbe8161c7	-0.2526991
179	0x3f41a711	0.7564555
180	0xbe179507	-0.14802943
181	0x3e95d846	0.29266566
182	0x3e8591ca	0.2608779
183	0x3f41a711	0.7564555
184	0x3f41a711	0.7564555
185	0xbf9e0f39	-1.2348396
186	0x3f190df6	0.5978693
187	0xbf213306	-0.6296848
188	0x3de076dd	0.10960171
189	0xbee5eaf4	-0.44905818
190	0xbf8a613f	-1.0810927
191	0x3f1e8925	0.61928016
192	0xbfa89571	-1.3170606
193	0x3f41a711	0.7564555
194	0xbfcb25d1	-1.5870916
195	0x3f41a711	0.7564555
196	0x3f313494	0.6922085
197	0x3edc3609	0.43009976
198	0xbe6edeb4	-0.23327142
199	0x3ec28fdf	0.3800039
200	0xc0103d17	-2.2537286
201	0x3e15a000	0.14611816
202	0x3f41a711	0.7564555
203	0x3f41a711	0.7564555
204	0xbfe404ed	-1.7814003
205	0x3f41a711	0.7564555
206	0x3f41a711	0.7564555
207	0x3f41a711	0.7564555
208	0x3f41a711	0.7564555
209	0x3f0b49e3	0.5440962
210	0x3f41a711	0.7564555
211	0xbf81a8db	-1.0129656
212	0xbffa472f	-1.9552974
213	0x3e3c5e75	0.18395407
214	0xbf2fe178	-0.68703413
215	0x3f2638a8	0.649302
216	0x3ed5da2f	0.41768023
217	0x3f41a711	0.7564555
218	0x3ebe8cee	0.37216896
219	0x3f41a711	0.7564555
220	0xbe10f226	-0.14154872
221	0x3f41a711	0.7564555
222	0xbed75c97	-0.42062828
223	0x3f2f5025	0.68481666
224	0xbe3580bb	-0.17724888
225	0x3ea9f276	0.33192796
226	0xbffed7f0	-1.9909649
227	0x3e64e44e	0.22352716
228	0x3e4732b3	0.19452934
229	0xc0000499	-2.0002806
230	0x3c2c32bf	0.010510146
231	0x3f16622f	0.58743566
232	0x3ee68ab9	0.45027712
233	0x3f326b10	0.69694614
234	0x3f41a711	0.7564555
235	0x3ee833b4	0.45351946
236	0xbfbbb854	-1.4665627
237	0x3f41a711	0.7564555
238	0xc00e1108	-2.2197895
239	0xbf08782a	-0.53308356
240	0x3f41a711	0.7564555
241	0x3f41a711	0.7564555
242	0xbf575675	-0.841163
243	0x3f284e55	0.65744525
244	0xbf16f492	-0.58966935
245	0xbf8848d6	-1.0647228
246	0x3f090b3a	0.53532755
247	0x3f41a711	0.7564555
248	0x3f225089	0.63404137
249	0x3f17015b	0.58986443
250	0x3e348007	0.17626964
251	0xbf9b6df9	-1.2142936
252	0x3f1bb0fb	0.60816926
253	0x3f04d8a6	0.5189308
254	0xbec735ee	-0.38908333
255	0x3f41a711	0.7564555

min f4 [1, 6]
0	0x3c3b520d	0.011433137
1	0x3c9e7b80	0.019345999
2	0x41ae5540	21.791626
3	0xbfe29cfc	-1.7704158
4	0xbfd9ec26	-1.7025192
5	0xbfd3b15c	-1.6538501

max f4 [1, 6]
0	0x3f8b75ea	1.089536
1	0x3f8a5d31	1.080969
2	0x41fbb845	31.464975
3	0x4084825f	4.1409144
4	0x408389fd	4.1105943
5	0x408fbd5a	4.491864
