examples/dce/models/prestress_rs/constraint_gp_0.pth (torch, 7986 bytes, 5 tensors)

covar_module.base_kernel.raw_lengthscale f4 [1, 6]
000000 70 f7 32 bf 54 b4 aa bf b9 ff b4 41 97 a5 07 c0
       -0.6990881 -1.3336282 22.624865 -2.1194818
000010 f3 b3 b4 41 aa 64 e8 bf
       22.587866 -1.815572

train_x f4 [100, 6]
000000 b6 df 52 3f e1 c1 23 3f 60 a9 13 3f 75 73 a9 3d
       0.82372606 0.6396771 0.5768032 0.08273975
000010 5f fe 04 3e c2 63 ab 3d e8 3f 24 3f 2d 63 13 3f
       0.1298766 0.08368637 0.64160013 0.57573205
000020 90 22 5d 3f ae 6f 2e 3f 61 85 2c 3f ca 00 3b 3f
       0.86380863 0.6813916 0.6739102 0.7304808
000030 59 45 3a 3f e6 4a 26 3f ef 67 5b 3f 1b 68 fc 3e
       0.72762066 0.64958036 0.85705465 0.49298176
000040 d3 cf 0f 3f 54 f4 45 3f 27 86 ed 3e c8 17 6c 3e
       0.5617649 0.7732594 0.46391413 0.23055947
000050 ec 38 19 3f 98 26 51 3f d7 b0 22 3f f1 e2 d8 3e
       0.5985248 0.81699514 0.63551086 0.42360643
000060 60 12 5a 3f cf b9 5a 3e 1b 4a 34 3f 4c 5e a9 3e
       0.8518429 0.21359943 0.70425576 0.33079755
000070 bd 09 34 3e fb de c8 3e a1 bd 81 3e 04 05 57 3f
       0.1758184 0.3923262 0.25339988 0.8399203
000080 b1 2e 4c 3f 1d 7e 17 3f 0b e0 01 3f e7 43 e0 3e
       0.79758745 0.5917681 0.5073249 0.43801805
000090 e1 c4 21 3f 3d 42 46 3f c3 0a ab 3e 5d c2 05 3f
       0.6319104 0.7744482 0.33406648 0.522497
0000a0 41 d0 02 3f e3 ac 23 3f db 67 b5 3e ef aa 51 3e
       0.5109902 0.6393568 0.35430798 0.20475362
0000b0 fe 80 bd 3e e6 1f 06 3f 72 30 16 3f d6 fc 26 3f
       0.37012476 0.52392423 0.5866767 0.6522955
0000c0 54 d8 37 3f 8e 00 2b 3e 4b 67 43 3f c2 a2 eb 3e
       0.71814466 0.1669943 0.7632949 0.46022612
0000d0 ff 47 e4 3e 7c 05 e1 3e 88 ca 00 3f 17 62 42 3e
       0.4458618 0.43949497 0.5030904 0.18982731
0000e0 bb 6d 73 3f f2 a9 b7 3e 81 72 e1 3e 95 57 32 3f
       0.9508931 0.35871845 0.44032672 0.6966489
0000f0 22 76 da 3e 73 84 3d 3f f7 1f 0f 3f ce eb 89 3e
       0.42668253 0.74030226 0.5590815 0.26937717
000100 bc 6e d4 3e 8c 96 8f 3e aa 5d f0 3e e2 69 64 3f
       0.41490734 0.28044546 0.4694646 0.89224064
000110 db fa 66 3f dd f8 43 3d 14 31 0c 3e b6 b9 d9 3e
       0.90226525 0.047844756 0.13690597 0.425245
000120 cb 11 a0 3e 38 1a 72 3f 33 4e 73 3f 50 d8 18 3f
       0.31263575 0.94571257 0.950412 0.59705067
000130 d4 85 24 3f e2 92 3c 3f 78 6a 33 3f 2a c8 fb 3e
       0.64266706 0.73661625 0.70084333 0.4917615
000140 8c f8 b0 3e 96 ae 0f 3f 7d e0 33 3f 42 5b 33 3f
       0.34564626 0.5612577 0.70264417 0.70061123
000150 bb df 0d 3f 7f cf bd 3b 32 cf 16 3f cd 5e 49 3f
       0.5541951 0.0057925577 0.58909905 0.7866028
000160 76 ae 4c 3f 19 8c 5d 3f dc a5 69 3f 9f d2 59 3e
       0.79953706 0.865419 0.91268706 0.21271752
000170 71 0a 4b 3f f7 36 bf 3e 33 01 c4 3e 45 24 e9 3e
       0.7931281 0.37346622 0.38282165 0.45535484
000180 e2 9f 71 3e 00 00 00 00 00 00 80 3f 8b 9c a1 3e
       0.23596147 0.0 1.0 0.31564745
000190 26 f3 ce 3e 8a 55 42 3e 6b 5b d2 3e 62 52 ae 3e
       0.40419883 0.18977943 0.4108537 0.34047228
0001a0 14 dc 1a 3f d6 cd 41 3f 42 3f 6f 3f 2c 81 20 3f
       0.6049206 0.75704706 0.934559 0.626971
0001b0 19 17 7b 3e c5 51 6f 3e 65 45 87 3e b9 e0 bd 3e
       0.2452053 0.23371036 0.2642013 0.37085512
0001c0 8b 03 6f 3e e0 68 bb 3e b5 63 4a 3f a5 b0 4c 3f
       0.23341195 0.3660345 0.7905839 0.7995704
0001d0 4b 56 44 3f 39 71 14 3f ef 40 1a 3f c2 55 18 3f
       0.7669417 0.57985264 0.6025533 0.59505856
0001e0 0f b4 ef 3e 25 51 d7 3e b8 58 42 3f d4 9d be 3e
       0.4681706 0.42054096 0.75916624 0.37229788
0001f0 9d 9e 12 3f c8 be 0b 3f 23 de 3d 3f e9 f7 be 3e
       0.57273275 0.54587984 0.7416708 0.37298515
000200 e4 89 94 3e 9a 26 bb 3e 32 02 b6 3e 80 5b cb 3e
       0.29011452 0.36552888 0.3554855 0.39718246
000210 77 1a 66 3f 4b 19 18 3f 90 8a 2b 3f 68 8d 53 3e
       0.8988413 0.59413594 0.67008305 0.20659411
000220 ed db 9e 3e d5 68 ab 3e 50 5d 37 3f b6 46 2d 3f
       0.31027165 0.33478418 0.7162676 0.6768602
000230 68 3e 1f 3f 00 00 80 3f 00 00 80 3f 61 3c 7b 3f
       0.622046 1.0 1.0 0.98139006
000240 d3 e3 33 3f d2 60 71 3f 76 1c 32 3f 1d 9b 13 3f
       0.7026951 0.9428836 0.6957468 0.5765856
000250 25 7b e5 3e a4 e0 fd 3d f4 23 6a 3f ed 9b 25 3f
       0.44820514 0.123963624 0.9146111 0.6469105
000260 22 b0 25 3f ff f5 9b 3e 07 76 9a 3e d2 33 e4 3e
       0.6472188 0.30461118 0.30168173 0.44570786
000270 e3 0f d8 3d 0e 4e 6b 3f f3 61 2b 3f 93 07 00 3f
       0.10549905 0.91915977 0.66946334 0.5001156
000280 12 40 b7 3e 94 38 00 3f 4d e0 af 3e 14 f4 c3 3e
       0.3579107 0.5008633 0.34350815 0.38272154
000290 b2 7d 29 3f 7c 98 0f 3f 23 6f 03 3f 55 a1 d6 3e
       0.6620742 0.5609205 0.51341456 0.41919962
0002a0 ce d0 76 3f bf 1b 81 3e 1f 3f 2d 3f 7f 76 97 3e
       0.9641236 0.2521648 0.6767444 0.29582593
0002b0 40 a8 d1 3e fc 92 ce 3e b6 9f 6d 3f 50 0c 48 3e
       0.40948677 0.40346515 0.92821825 0.19535947
0002c0 7e 57 1a 3f d0 76 15 3e 5a ed 78 3e 93 7f 2f 3e
       0.6028975 0.14596105 0.24309292 0.1713851
0002d0 35 d2 69 3f a6 4c 57 3f 75 36 1b 3f be 72 1d 3f
       0.91336375 0.8410133 0.6062997 0.6150321
0002e0 dc b7 40 3f 92 c9 05 3f 70 6e 0f 3e 09 32 b2 3e
       0.7528055 0.52260697 0.14006972 0.348038
0002f0 24 9c 4d 3f 8d cd 2b 3f da 25 2b 3f a1 ab 03 3f
       0.80316377 0.6711052 0.6685463 0.5143376
000300 4f 6c 5c 3f 33 0b 27 3f 80 d6 b2 3e 4a 84 0c 3f
       0.86102766 0.65251464 0.34929276 0.5488936
000310 da 4f 17 3f fb 08 bf 3e 31 2e 33 3f 8a 6d ac 3e
       0.5910622 0.3731154 0.6999236 0.33677322
000320 82 6e 5e 3f d5 c2 e2 3e c9 83 fe 3e 53 28 0a 3f
       0.8688737 0.4428927 0.4970992 0.5396778
000330 fa 41 29 3f 24 9e 34 3e a0 30 0d 3f f2 57 05 3f
       0.661163 0.17638451 0.5515232 0.5208732
000340 45 3f 00 3f da 2d 3a 3f 8d ba 1c 3f a0 f9 63 3f
       0.5009654 0.72726214 0.61222154 0.8905277
000350 ff 91 10 3f 12 31 83 3e d5 5a 77 3e f6 e1 be 3e
       0.5647277 0.25623375 0.24155743 0.3728177
000360 f0 02 6f 3f 18 f4 80 3e 68 c4 ed 3e a1 6d 1f 3f
       0.9336386 0.2518623 0.4643891 0.62276655
000370 08 32 11 3f 72 b3 2e 3f 3b 3f 32 3c 4b f9 93 3e
       0.56716967 0.6824256 0.010879333 0.28901133
000380 f4 8d 68 3f 9e 4e 46 3f b4 d1 3e 3f 6e 40 3c 3f
       0.90841603 0.7746371 0.7453873 0.7353581
000390 f2 ca 1c 3f ee 66 99 3e 0b 9e dc 3e f6 91 a2 3e
       0.6124717 0.29961342 0.43089327 0.31751984
0003a0 01 c6 54 3e 69 41 3c 3e 62 21 10 3e 46 e0 56 3f
       0.20778657 0.18384327 0.14075235 0.83935964
0003b0 50 ba 5b 3f 0d cb 09 3f 14 81 24 3f 98 4b 34 3f
       0.85831165 0.53825456 0.6425946 0.70427847
0003c0 a0 74 58 3f 2b 7d 58 3f 86 0d 13 3f 8c 3b e6 3e
       0.84552956 0.8456599 0.5744251 0.44967306
0003d0 35 43 f5 3e 75 e8 ae 3e 98 a9 66 3e 13 91 0c 3f
       0.47902837 0.34161726 0.22525632 0.54908866
0003e0 bf ba 73 3f fd 2e d5 3e 72 1c 03 3f db 54 2e 3f
       0.95206827 0.41637412 0.5121528 0.6809823
0003f0 89 5e 27 3f 68 36 08 3f 0b dc 09 3f 38 45 a5 3e
       0.65378624 0.5320802 0.53851384 0.32279372

train_y f4 [100]
000000 e6 2b 68 3f 87 0f 43 3e 54 22 2c 3e 7f 48 fe be
       0.90691984 0.19048892 0.1680997 -0.49664685
000010 c3 de ba bf e9 9b 3d 3f e3 b4 01 3f 81 26 d8 be
       -1.4599231 0.74066025 0.50666636 -0.42216876
000020 e6 2b 68 3f cf cf 95 bf 1d ca 5d 3e ef f6 a8 c0
       0.90691984 -1.1704043 0.21659131 -5.2801433
000030 fc c3 24 3f fd 60 b5 39 e6 2b 68 3f ab f2 fc bf
       0.6436155 0.00034595272 0.90691984 -1.9761556
000040 e6 2b 68 3f bb 25 df bb dd e8 4b 3e ae 3f 4f 3e
       0.90691984 -0.0068099177 0.19913049 0.20239136
000050 32 f1 4e 3d 1b 03 ca bd 2c a6 dd bd 88 9e 47 3e
       0.05052299 -0.098638736 -0.108227104 0.19494069
000060 0f 75 37 c0 46 55 42 3e b4 cc 4c 3f 24 bb 8f 3e
       -2.8665197 0.18977842 0.7999985 0.28072464
000070 25 fc c0 bf e6 2b 68 3f ea 7d 31 bf bc e2 0c 3f
       -1.5076948 0.90691984 -0.69332755 0.5503347
000080 6b df 23 be c8 f1 ee be 5a d6 04 c0 d6 79 e3 be
       -0.16003196 -0.4666884 -2.075583 -0.4442889
000090 26 31 c9 bf 7b 07 51 3f ff 3a 80 3e db a6 37 3f
       -1.5718124 0.8165204 0.2504501 0.71738976
0000a0 48 6c b2 bf 36 27 fe 3e c7 35 fc 3e b4 d4 d9 3e
       -1.3939295 0.4963929 0.4925978 0.42545092
0000b0 81 ed 11 bd b8 b9 c7 3e e6 2b 68 3f bd ad 73 bd
       -0.035626892 0.3900888 0.90691984 -0.05949186
0000c0 e6 2b 68 3f c0 c9 e6 3e cb 46 6f 3e f2 b9 1b bc
       0.90691984 0.45075798 0.23366849 -0.009504782
0000d0 55 1c 28 3f 40 b1 94 3e 44 de b1 bf e6 2b 68 3f
       0.6566823 0.2904148 -1.3895955 0.90691984
0000e0 e6 2b 68 3f 8b 75 9c bf 0c b5 8f be 28 c9 81 be
       0.90691984 -1.2223371 -0.28067815 -0.25348783
0000f0 04 21 69 bf a9 75 05 c0 c5 7c 47 3f d9 14 34 3f
       -0.91066 -2.0853064 0.7792476 0.7034431
000100 e6 2b 68 3f e5 8e 54 bf 5c 2a df be 65 61 29 3f
       0.90691984 -0.8303054 -0.43587005 0.6616424
000110 4c 89 0b 3f e6 2b 68 3f 6b 64 28 3f 07 32 b7 3d
       0.54506373 0.90691984 0.65778226 0.08945089
000120 65 81 df bd e6 2b 68 3f d1 82 00 bf e6 2b 68 3f
       -0.10913352 0.90691984 -0.5019961 0.90691984
000130 e6 2b 68 3f e5 8e aa 3d bb 00 27 3f 74 1a 58 3e
       0.90691984 0.08328036 0.6523549 0.21103841
000140 10 a2 dc 3d e6 db f8 bd 7c 21 40 3f ba 15 e3 3e
       0.107730985 -0.12151317 0.75051093 0.44352514
000150 78 b7 16 3e 3b a0 69 bf e6 2b 68 3f d6 74 1b 3f
       0.14718425 -0.9126012 0.90691984 0.6072515
000160 94 56 33 3e e6 2b 68 3f d2 d8 c8 3e 8c 02 2a 3f
       0.17513496 0.90691984 0.3922792 0.66410136
000170 0d f7 8e bf e6 2b 68 3f 68 b3 22 3f 53 bc c6 bd
       -1.1169144 0.90691984 0.63555 -0.09703889
000180 e6 2b 68 3f e6 2b 68 3f cf 09 93 bf 00 8a fc bf
       0.90691984 0.90691984 -1.1487368 -1.9729614

min f4 [1, 6]
000000 b4 20 cf 3c 58 6f 20 3d 3c 26 bd 41 88 1a 45 bf
       0.025284149 0.039168686 23.64367 -0.7699361
000010 b8 c4 4d bf 5c db 17 bf
       -0.80378294 -0.5931909

max f4 [1, 6]
000000 5f 8b 88 3f f6 b3 88 3f c8 69 ed 41 0b 35 8e 40
       1.0667533 1.067992 29.676651 4.443975
000010 04 6d 8d 40 ed 1d 7f 40
       4.4195576 3.9862015
