examples/dce/models/prestress_rs/objective_gp_0.pth (torch, 7970 bytes, 5 tensors)

covar_module.base_kernel.raw_lengthscale f4 [1, 6]
0	0xbf59deb6	-0.85105455
1	0xbf9b1ad8	-1.2117567
2	0x3ef5ea59	0.48030356
3	0xbfb8c2da	-1.4434464
4	0x40851c4c	4.159704
5	0xbe5d4a98	-0.21610487

train_x f4 [100, 6]
0	0x3f52dfb6	0.82372606
1	0x3f23c1e1	0.6396771
2	0x3f13a960	0.5768032
3	0x3da97375	0.08273975
4	0x3e04fe5f	0.1298766
5	0x3dab63c2	0.08368637
6	0x3f243fe8	0.64160013
7	0x3f13632d	0.57573205
8	0x3f5d2290	0.86380863
9	0x3f2e6fae	0.6813916
10	0x3f2c8561	0.6739102
11	0x3f3b00ca	0.7304808
12	0x3f3a4559	0.72762066
13	0x3f264ae6	0.64958036
14	0x3f5b67ef	0.85705465
15	0x3efc681b	0.49298176
16	0x3f0fcfd3	0.5617649
17	0x3f45f454	0.7732594
18	0x3eed8627	0.46391413
19	0x3e6c17c8	0.23055947
20	0x3f1938ec	0.5985248
21	0x3f512698	0.81699514
22	0x3f22b0d7	0.63551086
23	0x3ed8e2f1	0.42360643
24	0x3f5a1260	0.8518429
25	0x3e5ab9cf	0.21359943
26	0x3f344a1b	0.70425576
27	0x3ea95e4c	0.33079755
28	0x3e3409bd	0.1758184
29	0x3ec8defb	0.3923262
30	0x3e81bda1	0.25339988
31	0x3f570504	0.8399203
32	0x3f4c2eb1	0.79758745
33	0x3f177e1d	0.5917681
34	0x3f01e00b	0.5073249
35	0x3ee043e7	0.43801805
36	0x3f21c4e1	0.6319104
37	0x3f46423d	0.7744482
38	0x3eab0ac3	0.33406648
39	0x3f05c25d	0.522497
40	0x3f02d041	0.5109902
41	0x3f23ace3	0.6393568
42	0x3eb567db	0.35430798
43	0x3e51aaef	0.20475362
44	0x3ebd80fe	0.37012476
45	0x3f061fe6	0.52392423
46	0x3f163072	0.5866767
47	0x3f26fcd6	0.6522955
48	0x3f37d854	0.71814466
49	0x3e2b008e	0.1669943
50	0x3f43674b	0.7632949
51	0x3eeba2c2	0.46022612
52	0x3ee447ff	0.4458618
53	0x3ee1057c	0.43949497
54	0x3f00ca88	0.5030904
55	0x3e426217	0.18982731
56	0x3f736dbb	0.9508931
57	0x3eb7a9f2	0.35871845
58	0x3ee17281	0.44032672
59	0x3f325795	0.6966489
60	0x3eda7622	0.42668253
61	0x3f3d8473	0.74030226
62	0x3f0f1ff7	0.5590815
63	0x3e89ebce	0.26937717
64	0x3ed46ebc	0.41490734
65	0x3e8f968c	0.28044546
66	0x3ef05daa	0.4694646
67	0x3f6469e2	0.89224064
68	0x3f66fadb	0.90226525
69	0x3d43f8dd	0.047844756
70	0x3e0c3114	0.13690597
71	0x3ed9b9b6	0.425245
72	0x3ea011cb	0.31263575
73	0x3f721a38	0.94571257
74	0x3f734e33	0.950412
75	0x3f18d850	0.59705067
76	0x3f2485d4	0.64266706
77	0x3f3c92e2	0.73661625
78	0x3f336a78	0.70084333
79	0x3efbc82a	0.4917615
80	0x3eb0f88c	0.34564626
81	0x3f0fae96	0.5612577
82	0x3f33e07d	0.70264417
83	0x3f335b42	0.70061123
84	0x3f0ddfbb	0.5541951
85	0x3bbdcf7f	0.0057925577
86	0x3f16cf32	0.58909905
87	0x3f495ecd	0.7866028
88	0x3f4cae76	0.79953706
89	0x3f5d8c19	0.865419
90	0x3f69a5dc	0.91268706
91	0x3e59d29f	0.21271752
92	0x3f4b0a71	0.7931281
93	0x3ebf36f7	0.37346622
94	0x3ec40133	0.38282165
95	0x3ee92445	0.45535484
96	0x3e719fe2	0.23596147
97	0x00000000	0.0
98	0x3f800000	1.0
99	0x3ea19c8b	0.31564745
100	0x3ecef326	0.40419883
101	0x3e42558a	0.18977943
102	0x3ed25b6b	0.4108537
103	0x3eae5262	0.34047228
104	0x3f1adc14	0.6049206
105	0x3f41cdd6	0.75704706
106	0x3f6f3f42	0.934559
107	0x3f20812c	0.626971
108	0x3e7b1719	0.2452053
109	0x3e6f51c5	0.23371036
110	0x3e874565	0.2642013
111	0x3ebde0b9	0.37085512
112	0x3e6f038b	0.23341195
113	0x3ebb68e0	0.3660345
114	0x3f4a63b5	0.7905839
115	0x3f4cb0a5	0.7995704
116	0x3f44564b	0.7669417
117	0x3f147139	0.57985264
118	0x3f1a40ef	0.6025533
119	0x3f1855c2	0.59505856
120	0x3eefb40f	0.4681706
121	0x3ed75125	0.42054096
122	0x3f4258b8	0.75916624
123	0x3ebe9dd4	0.37229788
124	0x3f129e9d	0.57273275
125	0x3f0bbec8	0.54587984
126	0x3f3dde23	0.7416708
127	0x3ebef7e9	0.37298515
128	0x3e9489e4	0.29011452
129	0x3ebb269a	0.36552888
130	0x3eb60232	0.3554855
131	0x3ecb5b80	0.39718246
132	0x3f661a77	0.8988413
133	0x3f18194b	0.59413594
134	0x3f2b8a90	0.67008305
135	0x3e538d68	0.20659411
136	0x3e9edbed	0.31027165
137	0x3eab68d5	0.33478418
138	0x3f375d50	0.7162676
139	0x3f2d46b6	0.6768602
140	0x3f1f3e68	0.622046
141	0x3f800000	1.0
142	0x3f800000	1.0
143	0x3f7b3c61	0.98139006
144	0x3f33e3d3	0.7026951
145	0x3f7160d2	0.9428836
146	0x3f321c76	0.6957468
147	0x3f139b1d	0.5765856
148	0x3ee57b25	0.44820514
149	0x3dfde0a4	0.123963624
150	0x3f6a23f4	0.9146111
151	0x3f259bed	0.6469105
152	0x3f25b022	0.6472188
153	0x3e9bf5ff	0.30461118
154	0x3e9a7607	0.30168173
155	0x3ee433d2	0.44570786
156	0x3dd80fe3	0.10549905
157	0x3f6b4e0e	0.91915977
158	0x3f2b61f3	0.66946334
159	0x3f000793	0.5001156
160	0x3eb74012	0.3579107
161	0x3f003894	0.5008633
162	0x3eafe04d	0.34350815
163	0x3ec3f414	0.38272154
164	0x3f297db2	0.6620742
165	0x3f0f987c	0.5609205
166	0x3f036f23	0.51341456
167	0x3ed6a155	0.41919962
168	0x3f76d0ce	0.9641236
169	0x3e811bbf	0.2521648
170	0x3f2d3f1f	0.6767444
171	0x3e97767f	0.29582593
172	0x3ed1a840	0.40948677
173	0x3ece92fc	0.40346515
174	0x3f6d9fb6	0.92821825
175	0x3e480c50	0.19535947
176	0x3f1a577e	0.6028975
177	0x3e1576d0	0.14596105
178	0x3e78ed5a	0.24309292
179	0x3e2f7f93	0.1713851
180	0x3f69d235	0.91336375
181	0x3f574ca6	0.8410133
182	0x3f1b3675	0.6062997
183	0x3f1d72be	0.6150321
184	0x3f40b7dc	0.7528055
185	0x3f05c992	0.52260697
186	0x3e0f6e70	0.14006972
187	0x3eb23209	0.348038
188	0x3f4d9c24	0.80316377
189	0x3f2bcd8d	0.6711052
190	0x3f2b25da	0.6685463
191	0x3f03aba1	0.5143376
192	0x3f5c6c4f	0.86102766
193	0x3f270b33	0.65251464
194	0x3eb2d680	0.34929276
195	0x3f0c844a	0.5488936
196	0x3f174fda	0.5910622
197	0x3ebf08fb	0.3731154
198	0x3f332e31	0.6999236
199	0x3eac6d8a	0.33677322
200	0x3f5e6e82	0.8688737
201	0x3ee2c2d5	0.4428927
202	0x3efe83c9	0.4970992
203	0x3f0a2853	0.5396778
204	0x3f2941fa	0.661163
205	0x3e349e24	0.17638451
206	0x3f0d30a0	0.5515232
207	0x3f0557f2	0.5208732
208	0x3f003f45	0.5009654
209	0x3f3a2dda	0.72726214
210	0x3f1cba8d	0.61222154
211	0x3f63f9a0	0.8905277
212	0x3f1091ff	0.5647277
213	0x3e833112	0.25623375
214	0x3e775ad5	0.24155743
215	0x3ebee1f6	0.3728177
216	0x3f6f02f0	0.9336386
217	0x3e80f418	0.2518623
218	0x3eedc468	0.4643891
219	0x3f1f6da1	0.62276655
220	0x3f113208	0.56716967
221	0x3f2eb372	0.6824256
222	0x3c323f3b	0.010879333
223	0x3e93f94b	0.28901133
224	0x3f688df4	0.90841603
225	0x3f464e9e	0.7746371
226	0x3f3ed1b4	0.7453873
227	0x3f3c406e	0.7353581
228	0x3f1ccaf2	0.6124717
229	0x3e9966ee	0.29961342
230	0x3edc9e0b	0.43089327
231	0x3ea291f6	0.31751984
232	0x3e54c601	0.20778657
233	0x3e3c4169	0.18384327
234	0x3e102162	0.14075235
235	0x3f56e046	0.83935964
236	0x3f5bba50	0.85831165
237	0x3f09cb0d	0.53825456
238	0x3f248114	0.6425946
239	0x3f344b98	0.70427847
240	0x3f5874a0	0.84552956
241	0x3f587d2b	0.8456599
242	0x3f130d86	0.5744251
243	0x3ee63b8c	0.44967306
244	0x3ef54335	0.47902837
245	0x3eaee875	0.34161726
246	0x3e66a998	0.22525632
247	0x3f0c9113	0.54908866
248	0x3f73babf	0.95206827
249	0x3ed52efd	0.41637412
250	0x3f031c72	0.5121528
251	0x3f2e54db	0.6809823
252	0x3f275e89	0.65378624
253	0x3f083668	0.5320802
254	0x3f09dc0b	0.53851384
255	0x3ea54538	0.32279372

train_y f4 [100]
0	0xbeff79ac	-0.49897516
1	0xbe83b094	-0.25720656
2	0xbf1979f1	-0.5995169
3	0x3e9047b3	0.28179702
4	0xbf17db8d	-0.5931938
5	0x3f23d749	0.64000374
6	0xbee13491	-0.43985417
7	0x3ef6f33e	0.48232454
8	0x3f280cab	0.6564433
9	0x3b755d7c	0.0037439754
10	0x3d14bfb8	0.03631565
11	0xc024770e	-2.5697665
12	0x3eac4350	0.33645105
13	0xbe9eeb42	-0.31038862
14	0x3f8af8f3	1.0857223
15	0xbf626ad9	-0.88444287
16	0x3fa96eb4	1.3236909
17	0x3eddcc54	0.43319952
18	0x3f5bc12c	0.8584163
19	0xbf869000	-1.0512695
20	0x3e8717d5	0.2638537
21	0xbe4b1f83	-0.1983624
22	0xbf7e4e9c	-0.993387
23	0xbf1cf9ed	-0.61318856
24	0xc0170323	-2.3595665
25	0xbf841931	-1.0320188
26	0x3f885bad	1.0652977
27	0x3f1f0105	0.6211093
28	0xbf5ab170	-0.85427
29	0x3eb095a0	0.34489155
30	0xbfef1a43	-1.867989
31	0x3f8c4b67	1.0960511
32	0xbf8815ff	-1.0631713
33	0xbe5ba1d3	-0.2144845
34	0xbf0ae545	-0.5425609
35	0xbf798e2c	-0.9748256
36	0xbf56aba3	-0.83855647
37	0x3fb5ff5e	1.4218557
38	0x3e923b43	0.28560838
39	0x3f74a9df	0.955717
40	0xbffcdec1	-1.9755479
41	0x3f4e64b2	0.806224
42	0xbda68e44	-0.08132604
43	0x3ee09114	0.43860686
44	0xbe86f1fb	-0.2635649
45	0x3f758c20	0.9591694
46	0x3f8ff5b7	1.1246861
47	0x3ed04fb3	0.40685806
48	0x3f7ec623	0.9952108
49	0xbf8394d0	-1.0279789
50	0x3f40fd36	0.7538637
51	0xbf8379f7	-1.0271596
52	0x3f8ad0a8	1.0844927
53	0x3ee6c0b6	0.45068902
54	0xbffb16d5	-1.9616343
55	0x3f9150ed	1.1352822
56	0x3f45ac87	0.7721638
57	0xbf8ebb69	-1.1150943
58	0x3cda9819	0.026683854
59	0xbf285164	-0.6574919
60	0xbef31a54	-0.47481024
61	0xbfeef40c	-1.8668227
62	0x3fac635e	1.3467824
63	0x3f40dcfb	0.7533719
64	0x3fa7b2ea	1.3101475
65	0xbffeb6e8	-1.9899569
66	0x3df7ee40	0.121059895
67	0x3f596886	0.84925115
68	0x3ee3165f	0.44353005
69	0x3f857ac1	1.0428087
70	0x3f7bb706	0.98326147
71	0xbf45aef1	-0.77220064
72	0x3ee900cf	0.4550843
73	0x3f0eeb37	0.5582766
74	0xbfbf9866	-1.4968383
75	0x3f727c12	0.94720566
76	0x3f101bdd	0.56292516
77	0xbf0f7360	-0.56035423
78	0x3d93d97b	0.072192155
79	0x3f47aab1	0.7799483
80	0xbea6cbba	-0.32577306
81	0x3f016d85	0.5055774
82	0x3f421f05	0.7582858
83	0x3f41d4ce	0.7571534
84	0xbd88b046	-0.066742465
85	0x3d18502c	0.037185833
86	0x3f054891	0.5206385
87	0x3f33a925	0.7017997
88	0xbf0414f7	-0.5159449
89	0x3f8158ff	1.0105284
90	0x3e8a1f33	0.26976928
91	0x3f25b742	0.64732754
92	0xbf378747	-0.7169079
93	0x3fa86638	1.3156195
94	0x3f61feaf	0.8827924
95	0xbe9ab180	-0.30213547
96	0x3f3d73da	0.740049
97	0x3fbe626e	1.4873788
98	0xc00de0a7	-2.2168367
99	0xc0356477	-2.834257

min f4 [1, 6]
0	0x3ccf20b4	0.025284149
1	0x3d206f58	0.039168686
2	0x41bd263c	23.64367
3	0xbf451a88	-0.7699361
4	0xbf4dc4b8	-0.80378294
5	0xbf17db5c	-0.5931909

max f4 [1, 6]
0	0x3f888b5f	1.0667533
1	0x3f88b3f6	1.067992
2	0x41ed69c8	29.676651
3	0x408e350b	4.443975
4	0x408d6d04	4.4195576
5	0x407f1ded	3.9862015
