examples/dce/models/prestress_rs/objective_gp_0.pth (torch, 27682 bytes, 5 tensors)

covar_module.base_kernel.raw_lengthscale f4 [1, 6]
000000 46 4e 33 c0 55 7b 41 c0 f3 3e cf be 44 19 25 3f
       -2.8016524 -3.0231526 -0.40477714 0.6449168
000010 42 ae e4 be 9f 5f b2 bf
       -0.44664198 -1.3935431

train_x f4 [800, 6]
000000 75 66 f6 3e ec 94 64 3f cd 34 00 3f fb ed d4 3e
       0.48125044 0.89289737 0.5008057 0.41587815
000010 14 fc f1 3e 8e 09 12 3f 34 b8 0c 3f 07 1e 6f 3f
       0.47262633 0.5704583 0.5496857 0.93405193
000020 d0 0b ec 3e 8d 7d e4 3e d1 33 04 3f 88 95 ea 3e
       0.46102762 0.44627038 0.51641566 0.45817208
000030 ac 56 44 3f 35 8d f0 3e 37 ae 3d 3f 2b 5a f0 3e
       0.7669475 0.46982732 0.74093956 0.46943793
000040 7a 1e f3 3e da 0d b7 3e 68 8a 2e 3e 60 05 21 3f
       0.4748419 0.35752755 0.17044985 0.62898827
000050 ce 00 04 3f e8 64 65 3f 35 95 1e 3f 9e 35 37 3f
       0.5156373 0.89607096 0.6194642 0.7156619
000060 32 b6 16 3f 28 4e cb 3e 1b 8b 17 3f be 4c d3 3e
       0.5887176 0.39708066 0.59196633 0.41269487
000070 05 b0 cb 3e ca b3 16 3f 96 b0 3f 3f 78 36 4b 3f
       0.3978273 0.58868086 0.74878824 0.7937999
000080 47 84 f6 3e d7 15 2f 3f 25 e4 18 3f 34 8d 07 3f
       0.48147795 0.683927 0.5972312 0.52949834
000090 d3 f0 3b 3b 02 7c 45 3f 57 9f d0 3e 4b 06 0a 3f
       0.0028677478 0.77142346 0.40746567 0.5391585
0000a0 db 13 ea 3e cc 37 ae 3e 81 33 6b 3f ce e8 0f 3f
       0.45718274 0.34026945 0.91875464 0.56214607
0000b0 7c 08 2f 3f 9e c5 25 3f 8b 15 15 3f b6 a4 b2 3e
       0.6837232 0.64754665 0.58235997 0.3489129
0000c0 ff ee e9 3e 06 0c 2c 3f 3d 62 e7 3e b8 39 15 3f
       0.45690152 0.67205846 0.45192137 0.58291197
0000d0 e6 4d 11 3f 3b f0 e3 3e 81 8f 8b 3c 22 16 3a 3f
       0.5675949 0.4451922 0.017036201 0.7269002
0000e0 c4 c1 12 3f cd d5 86 3e 7a f4 51 3e c7 b4 a7 3e
       0.5732691 0.26334992 0.20503417 0.3275511
0000f0 25 17 48 3f ea 8f 14 3e f6 96 a1 3e 54 6c 8d 3e
       0.78160316 0.14508024 0.31560487 0.2762171
000100 76 f3 e8 3e b0 ee 7f 3e 22 d2 70 3d 97 09 97 3e
       0.45498246 0.24993396 0.05879415 0.29499504
000110 ef 6e e9 3e 85 f9 ff 3e 97 28 fc 3e d9 7e 10 3f
       0.45592448 0.49995056 0.49249718 0.56443554
000120 f3 db ff 3d 3e 2a 01 3f fc 28 12 3f 70 10 e8 3e
       0.12493124 0.5045508 0.5709379 0.4532504
000130 c9 bc f4 3e 34 ed 10 3f 7f 94 35 3f 1f 15 d3 3d
       0.47800282 0.56611943 0.7092971 0.10306763
000140 b6 d1 e6 3e 08 53 3e 3e 88 35 72 3e e9 df de 3e
       0.45081872 0.18586361 0.23653233 0.43530205
000150 62 08 97 3c 59 0a 2a 3f fa 06 f9 3e 8b 95 0a 3f
       0.018436614 0.6642204 0.48638135 0.54134434
000160 d0 64 03 3f 67 dc 0f 3f 36 b8 f5 3e b6 6b 99 3d
       0.513257 0.5619568 0.47992104 0.07491247
000170 e9 f6 07 3f 7e 80 d5 3e 39 90 81 3e 89 db 0a 3f
       0.5311113 0.41699594 0.25305346 0.54241234
000180 4f 80 73 3f 22 cb 7c 3f 8d b5 87 3e 25 a5 04 3f
       0.9511766 0.98747456 0.265057 0.5181449
000190 28 33 af 3e a3 e5 f7 3e de da 6d 3f bc 5e 47 3e
       0.34218717 0.48417386 0.9291209 0.19469732
0001a0 3a d8 8b 3e fe e2 07 3f 03 ed 0c 3f 8f 98 82 3e
       0.27313405 0.5308074 0.5504915 0.25507018
0001b0 2e 09 ff 3e 72 ed 39 3f c7 09 76 3e 20 49 90 3e
       0.4981169 0.7262794 0.24027167 0.2818079
0001c0 dd 68 91 3e f0 7c c3 3e 4e d1 1a 3f 17 69 3b 3f
       0.28400317 0.38181257 0.60475624 0.7320723
0001d0 10 af d9 3e 9d 54 03 3f f6 32 25 3f 28 c4 25 3f
       0.42516375 0.51300985 0.64530885 0.64752436
0001e0 77 75 0f 3f 59 68 23 3e 73 1d e8 3e c4 01 22 3f
       0.5603861 0.15957774 0.45334968 0.63283944
0001f0 fd 47 53 3f e0 d8 41 3f 40 88 70 3f e9 53 9c 3e
       0.8253172 0.7572155 0.939579 0.30532768
000200 64 f8 c5 3e b8 23 1b 3f a9 4e 0d 3f 3b 54 f2 3e
       0.3866607 0.6060138 0.5519815 0.47329888
000210 96 eb 35 3f a3 4f ca 3e 36 cb a6 3e 39 3f fc 3e
       0.710626 0.39513883 0.32576913 0.49266985
000220 f0 23 d5 3e 87 9d bc 3e 28 dd 28 3f e9 a2 9a 3e
       0.4162898 0.36838934 0.6596246 0.30202416
000230 b6 59 03 3f 46 d1 2f 3f 50 f5 1a 3f 16 6c 07 3f
       0.51308763 0.686787 0.6053057 0.528993
000240 c1 ae 24 3f fd 2d 1d 3e 72 79 af 3e f0 ba d6 3e
       0.64329153 0.15349574 0.34272343 0.41939497
000250 6a e5 d9 3e e9 44 c0 3e 96 bb 9a 3d d2 3d 63 3f
       0.42557842 0.37552574 0.075553104 0.88766205
000260 16 44 1b 3f 6f 29 d2 3e f5 cc d4 3e 51 86 0a 3f
       0.60650766 0.41047236 0.4156262 0.541112
000270 b7 f6 02 3f f6 3d 20 3f 16 9f 14 3f 4f c0 cc 3e
       0.51157707 0.62594545 0.58055246 0.3999047
000280 82 60 dd 3e 2f bc 20 3f fc 26 14 3f 11 73 4f 3f
       0.43237692 0.62787145 0.57871985 0.8103495
000290 ee cd aa 3e df 6e d4 3e b0 4d b3 3e 42 2a d9 3e
       0.33360237 0.41490838 0.35020208 0.42415053
0002a0 31 df 3d 3f 41 3e 41 3f e1 6b 1d 3f 3e 0a 2d 3f
       0.7416869 0.75485617 0.61492735 0.67593753
0002b0 1b 59 1c 3f b8 70 12 3f b2 67 4c 3f 70 60 41 3f
       0.61073464 0.57203245 0.79845726 0.75537777
0002c0 bf ae 0b 3f ce 96 91 3e 8b f7 b8 3e 3f 51 60 3e
       0.54563516 0.28435367 0.3612636 0.21905993
0002d0 4a 9f 30 3d 40 15 32 3e c4 8b 26 3f 83 7a 53 3f
       0.04312066 0.17390919 0.65057015 0.82608813
0002e0 9a b2 53 3f 8e 79 2b 3f 14 3a 2a 3f 24 76 11 3f
       0.826944 0.6698235 0.6649487 0.56820893
0002f0 62 2d ef 3e 4c 13 ad 3e 70 c7 a6 3e 4b a7 cd 3e
       0.46714312 0.33803785 0.32574034 0.40166697
000300 4f 10 05 3f 97 7d 07 3f 63 1c 4d 3e 53 87 f5 3e
       0.5197801 0.5292601 0.2003036 0.47954807
000310 9f ac f4 3e d7 75 e1 3e cd ed 20 3f 08 57 23 3f
       0.4778795 0.44035217 0.62862855 0.63804674
000320 28 5a cc 3e 30 a6 08 3f 01 0a 05 3f a9 ae e2 3e
       0.39912534 0.5337858 0.5196839 0.4427388
000330 ae b4 06 3f 9f 6a f2 3e 28 5e ac 3e 4c 87 c0 3e
       0.52619445 0.4734697 0.33665586 0.37603223
000340 a3 c1 ec 3e d6 43 b8 3e a9 05 b0 3e 1b 45 55 3f
       0.46241483 0.35989255 0.34379318 0.8330857
000350 f0 7e fc 3e 1e e7 71 3e f1 e4 5d 3e 2d 96 93 3e
       0.49315596 0.2362332 0.21669365 0.28825513
000360 f5 c5 b8 3e e7 7d 4e 3f 64 f0 e8 3e 9f 9f 8b 3e
       0.3608853 0.8066086 0.45495903 0.2727022
000370 08 aa 81 3e da 24 d7 3e 45 d5 3c 3e 26 3c 4f 3f
       0.25325036 0.42020303 0.18440731 0.80951154
000380 97 d2 04 3e bb 5c e8 3e a1 55 11 3f a8 0c fa 3e
       0.12970959 0.45383248 0.56771284 0.4883778
000390 1d 23 06 3f 92 a6 28 3e b6 f7 9c 3d 06 75 cf 3e
       0.5239733 0.16469792 0.076644346 0.4051897
0003a0 7d ba f3 3e c0 0c cb 3e 82 e6 04 3d 37 5e 6d 3f
       0.47603217 0.39658165 0.032446392 0.92721885
0003b0 4c 03 b9 3e e0 07 f3 3e 64 bf b8 3e 00 4a fc 3e
       0.36135328 0.47466946 0.3608352 0.49275208
0003c0 9e 1e 06 3f e9 62 96 3e 55 56 22 3f 33 5a fe 3e
       0.5239047 0.29372337 0.6341298 0.49678192
0003d0 be 23 18 3f 70 e5 d2 3e 22 e9 4b 3e c9 17 1b 3f
       0.5942954 0.41190672 0.19913152 0.6058317
0003e0 b5 7d f8 3e 35 e3 cc 3e a3 81 e9 3e 62 56 13 3f
       0.48533407 0.40017095 0.45606717 0.57553685
0003f0 2a de 17 3f 28 22 04 3f cf e2 ad 3e 6e c8 bc 3d
       0.5932337 0.5161462 0.33962104 0.092179164

train_y f4 [800]
000000 83 ce ea bd 51 7c 20 bf 41 77 b7 bd a8 23 28 3f
       -0.1146517 -0.6268969 -0.08958293 0.6567941
000010 c3 14 1a bf 33 a8 54 bf e4 9e a2 3f 7c bd 87 bf
       -0.6018793 -0.8306915 1.270474 -1.0604701
000020 43 80 91 3e 9a c6 a1 3f 99 ca 14 3f 22 77 8b 3f
       0.28418168 1.2638733 0.5812164 1.0895731
000030 69 d1 50 3f 1f c7 38 3f 09 54 9a 3f b4 e8 72 3f
       0.81569535 0.72178835 1.2056895 0.94886327
000040 5a 89 25 c0 8e 32 a9 3e 61 eb b4 bd 14 4d be be
       -2.5865083 0.33046383 -0.088339575 -0.3716818
000050 43 50 45 3f 8e e8 bb bf 94 c7 76 be 9b 27 4b bf
       0.77075595 -1.4680345 -0.2409957 -0.7935731
000060 23 ee 32 3f 73 e2 77 3f 40 ed b5 be 4a b2 f7 be
       0.6989462 0.9682991 -0.3553257 -0.4837821
000070 0c c7 1b bf 33 2d 9f c0 c6 57 a3 3f 23 9f 81 bd
       -0.60850596 -4.9742675 1.2761161 -0.06329181
000080 d0 31 92 bc 9f ea d5 bd fa 07 36 3e 33 10 d3 3e
       -0.017846018 -0.10445141 0.1777648 0.41223297
000090 65 5b 0d 3e 74 67 28 3f 16 c8 4c 3f a0 2d 92 3f
       0.13804395 0.65782857 0.79992807 1.1420174
0000a0 71 d1 ad be f0 e7 05 3f 39 fe 65 3e 8f 57 5c 3f
       -0.33948854 0.52307034 0.2246026 0.86071104
0000b0 84 2e 65 3f d9 29 59 bf de 8b bd be 3a 48 86 3f
       0.895241 -0.8482948 -0.37020773 1.0490792
0000c0 f1 9c 53 3f 1f b2 b5 3e c2 71 d7 3e 1a 4e 3d bf
       0.8266135 0.35487458 0.42078978 -0.739473
0000d0 89 7c d9 3e 37 cc 44 be 28 7d 3e 3f 24 cf bc bf
       0.42477825 -0.19218527 0.74409723 -1.4750714
0000e0 d6 8e 80 3f d7 fb a5 bf d1 23 02 3e 1e 92 b3 bf
       1.004359 -1.296748 0.12708975 -1.4028966
0000f0 83 a0 18 bf fe c7 c9 bf 33 15 d9 3e d2 fc a2 3f
       -0.5961992 -1.5764158 0.42398986 1.2733405
000100 28 10 f7 bf 7c a1 86 3f c5 39 74 bf e5 8e 80 3f
       -1.9301805 1.0518031 -0.9540065 1.0043608
000110 a0 db e6 3e ea ed 96 3f 74 97 e5 be 8b a0 8a 3f
       0.45089436 1.1791356 -0.44842112 1.0830244
000120 18 73 cc 3e 54 7a e8 bf 75 09 81 3f 02 60 73 3f
       0.3993156 -1.8162332 1.0081011 0.9506837
000130 94 75 91 bf 76 2f f3 bf 43 84 7d 3e 59 b6 ce be
       -1.1364007 -1.8998859 0.24757485 -0.40373495
000140 3e a7 ae bf 12 60 a0 3f 06 98 3f 3f 64 40 99 3f
       -1.3644788 1.2529318 0.74841344 1.1972775
000150 1f 82 87 3f 05 7f 3f 3f 5a 7f 35 3f d9 95 8b 3e
       1.0586585 0.7480319 0.7089745 0.27262762
000160 88 a9 d7 be ee 31 ba bf e6 4f 0d 3e 1a f0 63 bf
       -0.4212153 -1.4546487 0.1380001 -0.8903824
000170 b3 84 67 3f 91 fa da 3e 67 25 a7 3f 6e 40 3f 3f
       0.9043686 0.42769292 1.3058289 0.74707687
000180 ef 30 8b 3f 3f 98 9e 3f 52 94 c7 bf e3 a7 58 3f
       1.0874308 1.2390212 -1.5592139 0.84631175
000190 80 22 a0 3e ff 49 a1 3e ca 87 1f 3f af 8d 80 3f
       0.3127632 0.31501767 0.6231657 1.0043238
0001a0 be 20 74 3f fc 5e 92 3f 1f 01 7a bf 2f 63 62 3f
       0.9536246 1.1435237 -0.9765796 0.8843259
0001b0 d1 fe 1e bf 56 a5 37 bd b7 f1 3e be 5c a0 7b bf
       -0.6210757 -0.04483541 -0.18646894 -0.98291564
0001c0 60 03 10 c0 e8 5b c9 3e 7b e6 2b 3f 01 2a f7 3e
       -2.250206 0.3932793 0.6714856 0.48274234
0001d0 80 f1 2d 3f d4 bf a0 3f b4 0f 7e bf 80 7f af bf
       0.67946625 1.2558541 -0.9924271 -1.3710785
0001e0 bf fe 43 bf f8 6a 5b bf e4 25 98 3e 1c 5e 00 bd
       -0.76560587 -0.85710096 0.29716408 -0.03133975
0001f0 86 57 82 3f f8 08 ac be 76 da 26 bf a9 60 02 bf
       1.018296 -0.33600593 -0.65177095 -0.5092874
000200 1e 90 d8 bd 5f 3b d4 3e 7d 12 51 3f 3b ee a3 bf
       -0.10574363 0.41451547 0.81668836 -1.2807077
000210 57 3c da bd f7 13 da bf 82 2a 51 c0 07 e0 30 3f
       -0.1065604 -1.7037343 -3.2682195 0.6909184
000220 2c b2 52 3f 46 20 9f 3f 25 7b 36 3f f4 d0 5c 3f
       0.8230312 1.2431724 0.71281654 0.8625634
000230 20 cb 36 bf e6 8d 87 3f 00 b7 9c 3e 9e 8a fa bd
       -0.71403694 1.0590179 0.30608368 -0.122334704
000240 90 66 48 3f e8 71 a2 3d 9d bc 31 3f 6b ba 2a 3e
       0.782815 0.07931882 0.69428426 0.16672675
000250 2d d7 a7 3f 92 fa 16 3f 5c 1f 86 bf 23 94 18 bf
       1.3112541 0.5897609 -1.047832 -0.5960104
000260 f6 c4 7b 3f 43 3b 3b 3f 05 d8 32 be 60 2d cb be
       0.98347414 0.731373 -0.17465217 -0.39683056
000270 54 6d 1b 3e 5e cf 6f 3f 49 19 1c bf 93 bb 99 3f
       0.15178424 0.9367579 -0.6097608 1.2010368
000280 12 88 4f 3f 4b f7 18 3f 4b ad 45 bf b6 02 ab c0
       0.81067 0.5975234 -0.7721755 -5.344081
000290 67 9c 10 be 85 e2 84 be 39 d1 3d be 60 51 33 bf
       -0.14122163 -0.2595407 -0.18536843 -0.70046043
0002a0 76 a8 72 bd 7a 16 7d 3f 78 67 eb be f1 42 98 bf
       -0.059242688 0.9886242 -0.45977378 -1.1895429
0002b0 84 83 1f 3f c8 b9 43 3e a8 39 5f 3e 63 1b 14 3f
       0.6231005 0.19113839 0.21799338 0.5785429
0002c0 e9 02 81 be dd e2 b3 3e 6b f3 a8 bd 35 80 b6 bf
       -0.25197533 0.3513402 -0.08249553 -1.4257876
0002d0 ac 9c 76 3f 50 6c 5b 3f ae 55 77 3f 6d 6c a6 3f
       0.9633281 0.85712147 0.9661511 1.3001839
0002e0 f1 2a 6b 3f f3 56 b3 3e 4d 71 04 bf d9 bf 91 3f
       0.918624 0.35027274 -0.51735383 1.1386672
0002f0 60 95 ce be b9 55 95 3c a3 5a 75 3f 09 fe 10 bf
       -0.4034834 0.018229352 0.95841426 -0.56637627
000300 fd 14 57 3f e4 44 93 bf fa 8a 77 3f fb 46 1f 3f
       0.840164 -1.1505399 0.96696436 0.6221768
000310 9c 86 91 3f 58 c5 39 3f f7 97 5b 3f 7b 5f e5 3d
       1.1369205 0.7256675 0.85778755 0.11199852
000320 14 3f 72 3f 40 1a 55 3e ca 66 e6 be fc 3b 88 3f
       0.946275 0.20810795 -0.45000297 1.0643306
000330 5a 55 7f bf 6c 1e 86 bf ac d0 48 3f 4a 7c 8d 3f
       -0.9973961 -1.0478034 0.7844341 1.1053555
000340 e9 05 c4 be 75 45 ae bf ec e4 22 3f d4 15 b7 bd
       -0.3828576 -1.3614947 0.6363056 -0.0893971
000350 26 a2 8d 3f 4b 56 dd be 45 77 be be 15 48 6f 3f
       1.1065109 -0.432299 -0.3720037 0.93469363
000360 52 b6 4c 3f c3 ac 8e 3f 50 46 57 bf e5 7e 0e 3f
       0.799657 1.1146473 -0.84091663 0.55662376
000370 6c 14 41 3e 31 27 04 3f fb 90 87 bf 30 68 b9 3d
       0.18855447 0.516223 -1.059112 0.09053075
000380 e2 3c ca be cd 5a cf be 2a 45 82 3f e0 3e 6d 3f
       -0.39499575 -0.40498963 1.0177357 0.92674065
000390 b1 97 ca bc 8a e3 55 3f cf 13 bd bf 01 0f 5f bf
       -0.024730535 0.8355032 -1.477167 -0.8713227
0003a0 1f f1 7f be 32 70 80 be 80 c7 dc be 30 c4 40 3c
       -0.24994324 -0.25085598 -0.43120956 0.011765525
0003b0 51 b7 95 3e b0 28 96 3f 06 59 c0 bf 13 de 6c 3f
       0.29241422 1.1731167 -1.5027168 0.9252636
0003c0 0a ff 66 3f a7 28 e1 be b1 9d a2 3f 70 e0 a0 be
       0.9023291 -0.43976328 1.2704374 -0.31421232
0003d0 f3 85 57 3f 95 9c 27 bf 32 cc 80 3f fb 9f 98 3f
       0.84188765 -0.654733 1.0062315 1.1923822
0003e0 77 0a 1a bf 33 50 40 3f 70 1f 23 3f 41 a1 8f bf
       -0.6017222 0.75122374 0.63719845 -1.1221086
0003f0 3c 16 98 3f c4 90 8f 3e 00 4c 1f 3f ed ca 05 3f
       1.1881785 0.28040135 0.6222534 0.52262765

min f4 [1, 6]
000000 8a 1a 5a 3c d6 c4 9d 3c 92 1a b9 41 ce b5 9d bf
       0.0133119915 0.019258898 23.137974 -1.2321107
000010 8e 14 ad bf b0 12 f5 bf
       -1.3521898 -1.9146328

max f4 [1, 6]
000000 f0 5d 8b 3f 0c 1c 8a 3f bc 22 02 42 06 21 88 40
       1.0888042 1.0789809 32.53392 4.254031
000010 12 79 8a 40 6a 3d ac 40
       4.327279 5.382497
