examples/dce/models/prestress_rs/problem.pth (torch, 25540 bytes, 8 tensors)

x f4 [800, 6]
00000000: 9ce8 073f d329 773f 86bf de41 9254 863f
00000010: 7e81 aa3f 78e0 0f40 2ac0 1a3f 012a 813f
00000020: 14c2 db41 2eac 9b3f e656 ca3f eadf b63f
00000030: 8791 563f a263 043f 65cc f041 02f1 ab3f
00000040: d21d ac3f 1fbd 313f 3e59 493e 5a91 2f3f
00000050: eddc df41 64c4 6b40 5ea0 0a40 73b0 5340
00000060: 447f 253f c34e e13e b899 e541 5018 843f
00000070: 1142 683f 1663 1840 9a91 513f 8347 5c3f
00000080: 9a4b dd41 d847 2140 888b 0240 e87e f93f
00000090: 6451 863c 7835 563f 64bb d741 ace6 dc3f
000000a0: 5e47 9f3f de7f 113f b62e 803f 2a6f 1d3f
000000b0: 637f ec41 cc81 1440 7447 fa3f 65a5 213f
000000c0: 6a34 013f 9340 3b3f d912 db41 39a0 fb3f
000000d0: 9a8b ef3f 42c0 aa3f f692 013d 5521 4a3f
000000e0: ee31 e441 b0c4 593e a035 40be 487b f33e
000000f0: 839a 5a3f dd27 313e b9d3 d041 e006 913e
00000100: e1ad 9d3f 5006 babd 70c3 9c3d 14eb a93e
00000110: e15f db41 435e c13f 8ff3 b83f 6810 0d40
00000120: 0138 173e 2ecf 0d3f 1205 e441 f992 a03f
00000130: 166a ae3f bad9 0d40 21b2 463f c590 033e
00000140: a1fd da41 f888 59be 005f 10bc 6783 a13f
00000150: 42be 073d 3920 393f f5a9 dd41 9d6f de3f
00000160: 100b c83f 0fe8 0b40 e98a 073f 8c06 ca3d
00000170: b106 e141 841d 873f b01e ae3d 66c7 0240
00000180: 51a5 843f 1a69 883f 0907 cd41 0d25 ce3f
00000190: 465c 173f 4229 cf3f 099c 813f 7bff 663e
000001a0: 76a2 cd41 6209 d73f 941c e33f 4088 5abd
000001b0: 6b8d 0c3f 37f6 493f 182a cb41 1cbb a03e
000001c0: 3c87 853e d41a 5f3f bae9 293f 8988 4b3f
000001d0: f40f d941 ee89 ca3f 4605 1440 31de 3340
000001e0: 5eb2 1d3f 44e3 403e 552e db41 d857 0f40
000001f0: 7c73 5540 7218 6740 990c 833f 4886 af3e
00000200: 0b2b d641 9eec 0540 e231 e43f ea00 c53f
00000210: cb0f 473f 0a41 e03e 5097 d141 6841 bc3f
00000220: fe8c 813f 8007 463f 0905 393f 6cbb ad3e
00000230: ddab df41 eb48 2240 e27a 0540 1206 f93f
00000240: d485 343f b149 3a3e 90dd d241 cbcc 883f
00000250: a74d 883f 4f5c 533f 45ad c13d 3cbe 753f
00000260: 89b1 e641 c688 823f 7e11 813f ef2b 0240
00000270: 2342 103f 08be 2e3f 15be e441 0a3a 763f
00000280: e13e 8d3f 8fb0 2a40 98be 223f e2c4 603f
00000290: 0c2e d241 3ca6 853f 8003 233f f018 973f
000002a0: 129d 4f3f dfb6 513f 8e53 e741 b679 1e40
000002b0: 1074 0740 aa9c 1040 723e 5f3f 19db 513f
000002c0: 2c1e e241 b8e1 a73e b418 333f 04db a1be
000002d0: 547b 743d 8a70 503e 6d01 ea41 fd31 5340
000002e0: de0a 5640 3248 3e40 4d7c 3a3f 3b14 1f3f
000002f0: c237 dc41 7456 1f3f 34e5 fe3e d818 823f
00000300: 5184 123f 3d83 143f fe28 c841 830a b33f
00000310: 2253 ae3f f53a a63f 547c 303f 7706 323f
00000320: e61a d741 d120 d93f 23b7 cc3f a075 a83f
00000330: 6c48 143f 9960 053f ce68 d241 f4b2 543f
00000340: 1715 a33f 2228 363f 4b20 c43e e9ef 663f
00000350: 522c de41 10dd 823d 10cd f8bd 6055 413e
00000360: b789 cd3e 14c1 5f3f 4d4d db41 5c27 873e
00000370: 0069 b03d 0b69 933f 52b8 583e af8a 603f
00000380: 8fda c241 9efb a03f 8fa1 ef3f 7a16 d33f
00000390: ddab 133f a671 463e 6edd be41 38a6 7d3f
000003a0: 56fb ac3f c4b1 7a3f 9475 453d ba3c 803f
000003b0: 0e44 d441 7a9d af3f 4179 323f 6a2c d73f
000003c0: 07a7 133f 723a a93e 11c5 e841 a124 bf3f
000003d0: 597a 0140 4ca9 8b3f 93ef 683e 2149 293f
000003e0: ce95 dd41 c899 763f c277 9e3f a53f 1240
000003f0: 94bd 263f 7af4 103f dda1 d241 88f5 39bf
0.5308931 0.96548194 27.843517 1.0494559 1.3320768 2.2480755 0.6044947 1.0090944
27.469765 1.216192 1.5807769 1.4287083 0.8381581 0.5171453 30.099802 1.3432925
1.34466 0.694292 0.1966295 0.68581164 27.982874 3.6838617 2.166038 3.3076446
0.64647317 0.44005403 28.700058 1.031992 0.9072581 2.3810477 0.81862795 0.8604662
27.661915 2.52001 2.0397663 1.9491854 0.016396232 0.83675337 26.9665 1.7257895
1.2443655 0.56835735 1.0014255 0.6149775 29.5622 2.3204222 1.9553056 0.63143
0.504706 0.7314541 27.384203 1.9658271 1.8714478 1.3339922 0.031634293 0.7895711
28.52438 0.21266437 -0.18770456 0.47554994 0.85392016 0.17300363 26.10338 0.28325558
1.2318689 -0.09083235 0.07654464 0.33187163 27.421816 1.5106891 1.4449328 2.2041264
0.14767458 0.55394256 28.502476 1.2544852 1.3626125 2.216414 0.77615553 0.12848194
27.373842 -0.21243656 -0.008811712 1.2618226 0.03314043 0.7231479 27.707987 1.7377812
1.5628376 2.1860387 0.52946335 0.0986453 28.128267 1.0555882 0.08501947 2.0434203
1.036295 1.0657074 25.628435 1.6105057 0.59125173 1.6184466 1.0125743 0.22558396
25.704327 1.6799738 1.7743096 -0.053352594 0.54903287 0.7889132 25.395554 0.31392753
0.26079738 0.8715031 0.66372263 0.7950521 27.13279 1.5823343 2.3128219 2.8104365
0.6160029 0.18836695 27.397623 2.2397366 3.3351736 3.610867 1.023822 0.34282136
26.771017 2.092567 1.7827723 1.5390904 0.77758473 0.4379962 26.198883 1.470746
1.0121152 0.77355194 0.7227331 0.33932054 27.958918 2.5357006 2.0856252 1.9454978
0.70516706 0.18192174 26.358185 1.0687498 1.0648698 0.82562727 0.09456877 0.959934
28.836687 1.019799 1.0083463 2.0339315 0.56350917 0.68258715 28.592813 0.9618231
1.1034814 2.6670263 0.63572073 0.8780042 26.272484 1.0441356 0.63677216 1.1804485
0.81099045 0.81919664 28.915798 2.4761786 2.116459 2.259562 0.8720466 0.8197494
28.264732 0.32789397 0.6995957 -0.31612408 0.059687927 0.2035543 29.250696 3.299926
3.3444133 2.9731565 0.7284592 0.62140244 27.527225 0.6224129 0.49784243 1.0163832
0.5723315 0.58012754 25.020016 1.3987583 1.361912 1.2986742 0.6893971 0.69541115
26.888134 1.696314 1.5993389 1.3160896 0.57923007 0.5210052 26.301174 0.8308556
1.2740811 0.7115499 0.38305888 0.90209824 27.77164 0.063898206 -0.121484876 0.18880224
0.4014413 0.8740399 27.412745 0.26397216 0.08613777 1.1516432 0.21164063 0.87711614
24.356718 1.2576787 1.8721179 1.6491234 0.5768412 0.19379291 23.85812 0.99081755
1.3514202 0.979275 0.048207834 1.0018532 26.53323 1.3719933 0.6971627 1.6810429
0.5767674 0.33052403 29.096224 1.4933053 2.0230925 1.091104 0.2274764 0.6612721
27.698147 0.963284 1.2380297 2.2851346 0.65133023 0.5662304 26.329035 -0.72640276

m f4 [800, 1]
00000000: 45ef 1048 4fdd 0449 9c27 eb47 0595 d048
00000010: b26d b349 a732 bf48 a2b9 0d47 6ad2 5149
00000020: 0016 b346 0000 0000 0000 0000 8b68 5648
00000030: 1a57 c048 0000 0000 e8ff a947 0000 0000
00000040: 0efe bf49 0000 0000 7067 a548 c746 b848
00000050: 0000 0000 382b 094a 3be9 2349 d338 dd49
00000060: 0000 0000 5c49 3348 5f81 5349 3241 e548
00000070: cd25 3e48 34ab c24a 0000 0000 39e3 cf47
00000080: fb9b 0049 79c1 df47 6214 a048 0000 0000
00000090: ce0e b548 c81e 7d48 0000 0000 c46c b847
000000a0: 0506 ae49 0fb7 0649 0000 0000 0000 0000
000000b0: 0000 0000 18cb 1549 4c9e 7048 9186 7448
000000c0: c744 2b48 0000 0000 a86c 3548 b044 2b49
000000d0: 1245 d447 397d ee48 ed8e 4f48 c022 074a
000000e0: 0000 0000 3575 0949 effa 4547 699e 2349
000000f0: dfb0 7e48 4d7b 234a 31dd 5348 0000 0000
00000100: c313 5049 0000 0000 0000 e449 fa5e 5b48
00000110: b840 1448 a978 a047 b9ad 1e49 38e9 2548
00000120: 0000 0000 2862 224a 1b02 0048 0000 0000
00000130: a232 6f49 259f d149 7744 ad48 9c2d af48
00000140: fa95 1749 5dfc 7d47 b177 9048 0000 0000
00000150: 199b 5448 0000 0000 0000 0000 7af9 0449
00000160: c650 9a48 d135 094a 6862 2648 7491 7f49
00000170: 0000 0000 23fa 1f47 0000 0000 0000 0000
00000180: 0000 0000 0000 0000 dadb f349 3e42 d848
00000190: 61dd 9748 ed23 1748 0000 0000 0000 0000
000001a0: 3d3d a148 07b2 b247 3144 a148 0000 0000
000001b0: 1ef5 8f48 09b7 c547 45bb e348 659c fe49
000001c0: 88a4 494a 7a1c 3449 0000 0000 bfea 0349
000001d0: 0000 0000 690f 8847 e08d 2e49 d38b b649
000001e0: f93f 0b49 f85f e249 722f 3649 86b6 2948
000001f0: 0000 0000 35a3 b449 5890 b448 148f 5348
00000200: 81f2 bb48 4145 0749 250e 7248 6a70 4649
00000210: d683 a049 de04 0b4a 73a4 384a 0000 0000
00000220: e48f 8748 3c30 8f47 e180 ba48 0000 0000
00000230: a189 da49 0000 0000 1e38 5a47 daf8 9748
00000240: 0000 0000 fc2e 4749 1ca5 0f49 fedf 5449
00000250: 0000 0000 0000 0000 6d4c 3a49 bae1 c749
00000260: 5031 9748 0000 0000 9623 a246 0000 0000
00000270: f430 2049 0000 0000 43f1 2e49 0000 0000
00000280: 0000 0000 0000 0000 0769 3f48 a6f6 d14a
00000290: 0000 0000 358d 8148 6a77 6749 9e64 9349
000002a0: ef19 6149 435f 6b48 58ca 3249 590b c749
000002b0: 9913 6048 be5d 4c48 3dc0 1448 b597 cf48
000002c0: 0000 0000 fa2b 3b49 2bf3 2848 6aca 7e49
000002d0: 0000 0000 0000 0000 ca71 a248 0000 0000
000002e0: 0000 0000 837c 8d47 d194 3a49 38f6 e647
000002f0: ee1b 6547 c1aa 5a49 0000 0000 e3c8 8149
00000300: 6178 9048 03f4 3749 ac7a 5b48 0000 0000
00000310: 0000 0000 0000 0000 d9fb 5c46 ab83 2d49
00000320: 3c44 a948 6abf c247 cad2 3649 f51b 1a48
00000330: d817 e948 99b1 1249 f341 7648 0000 0000
00000340: ce24 aa49 0341 1149 0000 0000 2a1e 7149
00000350: 0000 0000 827d a848 0000 0000 0000 0000
00000360: 0000 0000 0000 0000 35b0 e649 0000 0000
00000370: 14a7 5149 6084 a447 46e0 5b49 127d e348
00000380: 8721 9748 5d06 6448 0000 0000 70de 9745
00000390: 6020 2948 0000 0000 9147 b749 21e2 de49
000003a0: 44a4 6249 92e8 0248 42b5 6249 c256 d647
000003b0: 0ef4 3848 0000 0000 d6b0 4349 095c 2c48
000003c0: a1e5 bb48 259d a449 0000 0000 2bb3 4149
000003d0: 172b 8a48 7228 1849 1e5a 5e48 0000 0000
000003e0: 4539 3549 0000 0000 0294 d848 c448 1349
000003f0: 4d5e a947 3340 2d49 0000 0000 17ad cb47
148413.08 544212.94 120399.22 427176.16 1.4698782e+06 391573.22 36281.633 859430.6
22923.0 0.0 0.0 219554.17 393912.8 0.0 87039.81 0.0
1.5728018e+06 0.0 338747.5 377398.22 0.0 2.247374e+06 671379.7 1.8122504e+06
0.0 183589.44 866325.94 469513.56 194711.2 6.378906e+06 0.0 106438.445
526783.7 114562.945 327843.06 0.0 370806.44 259195.12 0.0 94425.53
1.4256006e+06 551792.94 0.0 0.0 0.0 613553.5 246393.19 250394.27
175379.11 0.0 185778.62 701515.0 108682.14 488425.78 212539.7 2.214064e+06
0.0 563027.3 50682.934 670182.56 260803.48 2.6784832e+06 216948.77 0.0
852284.2 0.0 1.867776e+06 224635.9 151810.88 82161.32 649947.56 169892.88
0.0 2.66049e+06 131080.42 0.0 979754.1 1.7172206e+06 354851.72 358764.88
620895.6 65020.363 295869.53 0.0 217708.39 0.0 0.0 544663.6
316038.2 2.2480522e+06 170377.62 1.04680725e+06 0.0 40954.137 0.0 0.0
0.0 0.0 1.9976912e+06 442897.94 311019.03 154767.7 0.0 0.0
330217.9 91492.055 330273.53 0.0 294824.94 101230.07 466394.16 2.0857726e+06
3.303714e+06 737735.6 0.0 540331.94 0.0 69662.82 714974.0 1.4954184e+06
570367.56 1.854463e+06 746231.1 173786.1 0.0 1.4797826e+06 369794.75 216636.31
384916.03 554068.06 247864.58 812806.6 1.3149388e+06 2.2776875e+06 3.0251808e+06 0.0
277631.12 73312.47 381959.03 0.0 1.7902601e+06 0.0 55864.117 311238.8
0.0 815855.75 588369.75 871935.9 0.0 0.0 763078.8 1.6374312e+06
309642.5 0.0 20753.793 0.0 656143.25 0.0 716564.2 0.0
0.0 0.0 196004.11 6.880083e+06 0.0 265321.66 948086.6 1.2074438e+06
922014.94 241021.05 732325.5 1.6305711e+06 229454.39 209270.97 152320.95 425149.66
0.0 766655.6 173004.67 1.0436226e+06 0.0 0.0 332686.3 0.0
0.0 72441.02 764237.06 118252.44 58651.93 895660.06 0.0 1.0631964e+06
295875.03 753472.2 224746.69 0.0 0.0 0.0 14142.962 710714.7
346657.88 99710.83 748844.6 157807.83 477374.75 600857.56 252167.8 0.0
1.3938178e+06 594960.2 0.0 987618.6 0.0 345068.06 0.0 0.0
0.0 0.0 1.8897986e+06 0.0 858737.25 84232.75 900612.4 465896.56
309516.22 233497.45 0.0 4859.8047 173185.5 0.0 1.5014261e+06 1.8258601e+06
928324.25 134050.28 928596.1 109741.516 189392.22 0.0 801549.4 176496.14
384813.03 1.3485166e+06 0.0 793394.7 282968.72 623239.1 227688.47 0.0
742292.3 0.0 443552.06 603276.25 86716.6 709635.2 0.0 104282.18

b f4 [2]
00000000: 0ad7 233c 1f85 8b3f
0.01 1.09

h f4 [2]
00000000: e3a5 9b3c 355e 8a3f
0.019 1.081

covariance_matrix f4 [4, 4]
00000000: f6de f73f 0000 0000 0000 0000 0000 0000
00000010: 0000 0000 0000 803f 6666 663f 3333 333f
00000020: 0000 0000 6666 663f 0000 803f 3333 333f
00000030: 0000 0000 3333 333f 3333 333f 0000 803f
1.9364917 0.0 0.0 0.0 0.0 1.0 0.9 0.7
0.0 0.9 1.0 0.7 0.0 0.7 0.7 1.0

loc f4 [4]
00000000: 0000 dc41 0000 c03f 0000 c03f 0000 c03f
27.5 1.5 1.5 1.5

mu f4 [4]
00000000: 0000 dc41 0000 c03f 0000 c03f 0000 c03f
27.5 1.5 1.5 1.5

cov f4 [4, 4]
00000000: f6de f73f 0000 0000 0000 0000 0000 0000
00000010: 0000 0000 0000 803f 6666 663f 3333 333f
00000020: 0000 0000 6666 663f 0000 803f 3333 333f
00000030: 0000 0000 3333 333f 3333 333f 0000 803f
1.9364917 0.0 0.0 0.0 0.0 1.0 0.9 0.7
0.0 0.9 1.0 0.7 0.0 0.7 0.7 1.0
