examples/dce/models/prestress_rs/problem.pth (torch, 6020 bytes, 8 tensors)

x f4 [100, 6]
00000000: 6417 623f 2a81 323f f4fc d841 e854 adbe
00000010: 1867 00be 48ff 56be 9e88 313f aca9 213f
00000020: 10d7 e641 0d19 3240 86d7 2d40 3c20 3040
00000030: d777 483f e41c 353f 9d83 e641 6574 e63f
00000040: 385a 0840 dca9 3c40 e328 023f d880 8d3e
00000050: 5609 da41 f258 5f40 5701 2140 a85f ac3f
00000060: 7896 693f c991 843e b323 df41 a16e 743f
00000070: 10a7 ea3d d209 9a3f 0311 943e 8d3e 673f
00000080: dda4 e341 fd30 1440 904e ec3f 3ad2 b43f
00000090: 42f3 2e3f 1900 563f cf45 cd41 0e27 fa3f
000000a0: edc1 ee3f 506b 1540 b8df c93e dbd1 7f3e
000000b0: 5403 cf41 e61a fb3f 26ae 1040 1636 1940
000000c0: 11f1 453f 2c0a 583e 29fd e141 1c98 d03f
000000d0: a436 c33f d9af b53f d09a 0c3f 3b18 703e
000000e0: 0a0b eb41 94d9 8c3f 4583 bf3f de35 2640
000000f0: 6277 f03e cf01 4d3f fe21 d841 5973 223f
00000100: 8684 ae3f 8cea 303f baa3 033f 4006 753f
00000110: 37b2 e841 083e 05bf 009c b5bd 8955 ad3f
00000120: 26a7 b33e cc8d 813f 1805 eb41 40f4 1540
00000130: c265 2340 92ec 3140 3054 413f f58b 0b3f
00000140: e2d4 cd41 a602 0a40 8e72 3740 285f 2740
00000150: e63a 1a3f 5ad8 383d e094 d941 b034 5540
00000160: 91d6 5740 7aac 5740 4fcf 793f dc1a 843e
00000170: c46d e341 3ab1 963f ca10 993f bffb be3f
00000180: 8ac4 8a3e 586f 203d c869 ed41 d935 603f
00000190: ac5b a73f 9c40 8d3e a106 e83e 9466 c73e
000001a0: 5c58 da41 e657 4b40 d27c 8240 05ca 1140
000001b0: 64b2 8f3e be29 8f3e 96e6 c941 20f3 943f
000001c0: 40b0 d43e 8ea0 8a3f 5141 593f f59d 5c3f
000001d0: 382a e241 1e37 1040 dcfc 1540 ab6f 0840
000001e0: 684b 033f d593 f13e 26ca e141 9ee9 953f
000001f0: d604 0c40 b40b f43f d036 4c3f f086 d83e
00000200: c226 cb41 2465 913f fac9 863f 8ae2 9c3f
00000210: 491e 763f 8e82 263f 7a7d dd41 e44c 9d3e
00000220: 7e1e 513f 6a9e 703f f370 453f 3b4c 3c3f
00000230: f42b db41 0b35 8e40 046d 8d40 a6a9 7940
00000240: 93d2 413f 6d2e 813f 91ba de41 0720 0f40
00000250: bac7 c43f 4000 d1bc a252 7a3f e068 343f
00000260: fa62 dc41 c37a 513f 04a2 453f 2454 b93f
00000270: e666 0a3e 451d 7c3f d275 dd41 3237 eb3f
00000280: 1269 883f a2a8 d93f 761d c43e e3a7 dd3e
00000290: 861a dd41 d7e5 0940 de60 f03f 61ca a93f
000002a0: 06c3 833f 53e2 983e c8cf dd41 dac0 453f
000002b0: c0e4 aa3f 4e91 a03f 5ff3 7d3f 41ec 753e
000002c0: 5d3f da41 80f3 11bc 2c94 ee3e 903f 443e
000002d0: 7ffd 793f 3f88 673f 6669 da41 4ff4 1b40
000002e0: 5237 4840 6f67 e63f 3445 2f3e d062 cb3e
000002f0: c3e9 e341 57aa 2e40 7c0c 2c40 8e8e e13f
00000300: 5d09 6c3f bbe2 353f f001 ce41 72e2 0540
00000310: 7525 1240 18c7 8e3f 6915 413f c373 c53e
00000320: a515 e741 b306 c53f 5a78 e53f 0b69 f03f
00000330: dbbf 363f b6ee 613e 9bc4 d741 a011 f93f
00000340: 180e e83f be2e 2f40 6cb3 293f c292 743f
00000350: c167 d841 41e8 103f ec78 ea3e 6c9a 8e3f
00000360: 5465 7f3f 87b9 983e 0490 d341 0689 1e40
00000370: c128 0a40 b60a 2240 3bf9 153d 134b ac3e
00000380: 36fe e841 8636 5140 7abc 4540 2c8e 3140
00000390: 7fc4 293f c4e0 b13e 28f2 d141 a3b5 623f
000003a0: 4028 903e 18ab 7e3e 92ff 2f3e c018 673f
000003b0: 2593 e641 9c55 0240 8f5f 2340 4e72 2840
000003c0: 8fe7 673f 8bc1 683f 92df d841 218d c93f
000003d0: 6263 d93f 1fa1 783f 350f 853e 3ea5 1a3f
000003e0: 8f19 eb41 0354 b33f e788 ef3f 6c9e 2140
000003f0: 5ec8 343f 722a 163f de23 d741 b7bf 693f
0.8831694 0.6972834 27.123512 -0.3385384 -0.12539327 -0.2099582 0.69349086 0.63149524
28.855011 2.782779 2.7162795 2.7519674 0.7830786 0.7074721 28.814264 1.8004271
2.1305065 2.9478674 0.5084364 0.27637362 27.254559 3.4898038 2.5157068 1.3466692
0.9124522 0.25892475 27.892431 0.95481306 0.11457646 1.2034247 0.2891923 0.9032982
28.4555 2.31549 1.8461475 1.4126656 0.6833993 0.835939 25.659086 1.9543169
1.8652931 2.3346748 0.39428496 0.24982397 25.876625 1.9617584 2.2606292 2.3939261
0.77320963 0.2109763 28.248613 1.629642 1.525105 1.419429 0.54923725 0.23446743
29.38039 1.10039 1.4961935 2.5970378 0.46966082 0.80080885 27.016598 0.63457257
1.3634193 0.6910789 0.514217 0.9571266 29.087019 -0.5204778 -0.08867645 1.3541728
0.35088462 1.0121398 29.377487 2.3430328 2.5530858 2.780064 0.75519085 0.5451043
25.728947 2.1564116 2.8663669 2.6151829 0.6024612 0.045128204 27.197693 3.3313408
3.372471 3.3699021 0.9758195 0.25801742 28.428596 1.1772835 1.1958249 1.4920577
0.27103072 0.039168686 29.676651 0.87582165 1.3074851 0.27588356 0.45317557 0.38945448
27.293144 3.17724 4.077737 2.2779553 0.2806579 0.27961534 25.23759 1.1636696
0.41540718 1.0830247 0.8486529 0.86178523 28.270615 2.253364 2.3435583 2.1318157
0.51286936 0.471831 28.223705 1.1711919 2.1877952 1.9066072 0.7977114 0.4229045
25.393925 1.1358991 1.0530388 1.2256634 0.9613996 0.6504296 27.686268 0.30722725
0.8168715 0.9399172 0.7712547 0.7355382 27.396461 4.443975 4.4195576 3.9009795
0.75711936 1.0092293 27.841097 2.2363298 1.5373452 -0.025512815 0.9778234 0.70472527
27.548328 0.81827945 0.7720034 1.4478803 0.13515815 0.9848216 27.68253 1.8376219
1.0657065 1.7004588 0.38303727 0.4329215 27.63795 2.1546533 1.8779562 1.3264886
1.0293891 0.29860172 27.726456 0.77247393 1.3351059 1.2544343 0.9919948 0.24015905
27.28094 -0.008908153 0.4659742 0.19164872 0.9765243 0.9044227 27.301464 2.4367864
3.1283765 1.8000315 0.17116243 0.39723825 28.489141 2.7291467 2.688262 1.7621629
0.9220179 0.7104909 25.750946 2.0919461 2.2835362 1.1154509 0.75423294 0.38564882
28.885569 1.539267 1.7927353 1.8782057 0.713865 0.22063717 26.970999 1.9458504
1.8129301 2.737228 0.662894 0.95536435 27.050661 0.5660439 0.4579538 1.1140876
0.9976399 0.29829046 26.44532 2.4771132 2.1587374 2.5319037 0.036614638 0.33651027
29.124126 3.2689528 3.0896287 2.7743025 0.66315454 0.34741795 26.24324 0.88558406
0.28155708 0.24869955 0.17187336 0.9027214 28.821848 2.0364752 2.5527074 2.6319766
0.90587705 0.90920323 27.109165 1.5746194 1.6983454 0.9712085 0.25988165 0.6040839
29.38748 1.4010013 1.8713654 2.5252943 0.70618236 0.58658516 26.892513 0.9130816

m f4 [100, 1]
00000000: 0000 0000 8bb5 b948 4483 bf48 8ce9 3549
00000010: 4161 9949 3163 ac47 bd80 4f48 6842 2c49
00000020: 0000 0000 389e 8649 6bf1 b248 d078 484a
00000030: 2781 0848 37ff ea48 0000 0000 68d5 ba49
00000040: 0000 0000 12da ec48 1978 b748 b69f b648
00000050: 86fd dd48 dd53 0249 0092 0349 218e b848
00000060: 4b88 f449 b1e4 b948 65b9 5d47 9a51 a248
00000070: c679 9c49 0000 0000 4d67 4f49 2bdd 3848
00000080: db48 0a49 8b07 3249 e046 c149 5720 2f49
00000090: 77a1 a049 7476 3b47 962a aa48 ff83 c447
000000a0: 701a 9549 35d4 5448 e2cb 5648 769b 7948
000000b0: 5552 f448 52f8 8548 0000 0000 fc81 fa48
000000c0: 0000 0000 c47c 6c48 3284 ae48 e68c ed48
000000d0: f5ba 0148 93ce 9f48 8ad2 9449 0000 0000
000000e0: 0000 0000 c5fb 8949 d4eb 1949 ab65 1649
000000f0: 4592 6b49 30e8 c149 bc60 8447 eef9 d247
00000100: 0000 0000 2628 6149 0209 2e49 5451 fe47
00000110: b998 3b48 0000 0000 fa28 0148 50e6 d348
00000120: 13b0 0349 0000 0000 089b 3649 0000 0000
00000130: 0000 0000 c87f d548 49f9 0348 e761 b448
00000140: 4429 cf48 d34a 0549 772c a247 b13c 7048
00000150: 31ef c448 add2 6b49 0000 0000 4b5b 1b48
00000160: 6ab0 bd48 0000 0000 f866 8548 a0c4 fb47
00000170: d626 8349 0000 0000 96af 0c48 c81e 0249
00000180: 0000 0000 0000 0000 c336 8549 6aa0 ba49
0.0 380332.34 392218.12 745112.75 1.2564881e+06 88262.38 212482.95 705574.5
0.0 1.102791e+06 366475.34 3.284532e+06 139780.61 481273.72 0.0 1.530541e+06
0.0 485072.56 375744.78 374013.7 454636.2 533821.8 538912.0 377969.03
2.0032094e+06 380709.53 56761.395 332428.8 1.2818488e+06 0.0 849524.8 189300.67
566413.7 729208.7 1.583324e+06 717317.44 1.3158869e+06 47990.453 348500.7 100615.99
1.221454e+06 217936.83 219951.53 255597.84 500370.66 274370.56 0.0 513039.88
0.0 242163.06 357409.56 486503.2 132843.83 327284.6 1.2191532e+06 0.0
0.0 1.1303606e+06 630461.25 616026.7 964900.3 1.588486e+06 67777.47 108019.86
0.0 922242.4 712848.1 130210.66 192098.89 0.0 132259.9 433970.5
539393.2 0.0 747952.5 0.0 0.0 437246.25 135141.14 369423.22
424266.12 545965.2 83032.93 246002.77 403321.53 965930.8 0.0 159085.17
388483.3 0.0 273207.75 128905.25 1.0743948e+06 0.0 144062.34 532972.5
0.0 0.0 1.0912884e+06 1.5288452e+06

b f4 [2]
00000000: 0ad7 233c 1f85 8b3f
0.01 1.09

h f4 [2]
00000000: e3a5 9b3c 355e 8a3f
0.019 1.081

covariance_matrix f4 [4, 4]
00000000: f6de f73f 0000 0000 0000 0000 0000 0000
00000010: 0000 0000 0000 803f 6666 663f 3333 333f
00000020: 0000 0000 6666 663f 0000 803f 3333 333f
00000030: 0000 0000 3333 333f 3333 333f 0000 803f
1.9364917 0.0 0.0 0.0 0.0 1.0 0.9 0.7
0.0 0.9 1.0 0.7 0.0 0.7 0.7 1.0

loc f4 [4]
00000000: 0000 dc41 0000 c03f 0000 c03f 0000 c03f
27.5 1.5 1.5 1.5

mu f4 [4]
00000000: 0000 dc41 0000 c03f 0000 c03f 0000 c03f
27.5 1.5 1.5 1.5

cov f4 [4, 4]
00000000: f6de f73f 0000 0000 0000 0000 0000 0000
00000010: 0000 0000 0000 803f 6666 663f 3333 333f
00000020: 0000 0000 6666 663f 0000 803f 3333 333f
00000030: 0000 0000 3333 333f 3333 333f 0000 803f
1.9364917 0.0 0.0 0.0 0.0 1.0 0.9 0.7
0.0 0.9 1.0 0.7 0.0 0.7 0.7 1.0
