examples/iwoba/models/branin_rs/constraint_gp_0.pth (torch, 15282 bytes, 5 tensors)

covar_module.base_kernel.raw_lengthscale f4 [1, 4]
0	0x3f39b7f0	0.7254629
1	0x3f2390f3	0.6389305
2	0x4038b8c1	2.8862765
3	0x4013d65a	2.309958

train_x f4 [500, 4]
0	0x3e94d757	0.2907054
1	0x3f0627e4	0.5240462
2	0x00000000	0.0
3	0x3f2aaaab	0.6666667
4	0x3ec7b929	0.39008453
5	0x3f36c074	0.7138741
6	0x3f800000	1.0
7	0x00000000	0.0
8	0x3df0cf5a	0.11758299
9	0x3f493670	0.7859869
10	0x3f800000	1.0
11	0x3f2aaaab	0.6666667
12	0x3ee285e5	0.44242778
13	0x3f131cb9	0.574657
14	0x00000000	0.0
15	0x3f2aaaab	0.6666667
16	0x3f0b5e07	0.5444035
17	0x3f62a60a	0.88534606
18	0x3f800000	1.0
19	0x3f2aaaab	0.6666667
20	0x3ecf431a	0.40480882
21	0x3dd20dde	0.10256551
22	0x3f800000	1.0
23	0x3f2aaaab	0.6666667
24	0x3f2d37cf	0.6766328
25	0x3e60d61e	0.21956679
26	0x00000000	0.0
27	0x3f800000	1.0
28	0x3e796a50	0.24356961
29	0x3f305de3	0.6889326
30	0x00000000	0.0
31	0x3eaaaaaa	0.3333333
32	0x3f48e619	0.784761
33	0x3f203060	0.62573814
34	0x3f800000	1.0
35	0x00000000	0.0
36	0x3e880420	0.26565647
37	0x3f0da240	0.553257
38	0x3f000000	0.5
39	0x3f800000	1.0
40	0x3f68ced3	0.9094059
41	0x3e8a0586	0.2695734
42	0x3f000000	0.5
43	0x3f800000	1.0
44	0x3e435abd	0.19077583
45	0x3e5cb532	0.21553496
46	0x00000000	0.0
47	0x3eaaaaaa	0.3333333
48	0x3f2d006c	0.6757877
49	0x3e857a03	0.2606965
50	0x3f000000	0.5
51	0x3f2aaaab	0.6666667
52	0x3f7ae806	0.9801029
53	0x3e40efc1	0.18841459
54	0x00000000	0.0
55	0x3f2aaaab	0.6666667
56	0x3f5d1278	0.86356306
57	0x3cfec812	0.03110126
58	0x3f800000	1.0
59	0x3f2aaaab	0.6666667
60	0x3f0a06e3	0.5391676
61	0x3e481ec9	0.19542994
62	0x3f000000	0.5
63	0x3f2aaaab	0.6666667
64	0x3f03658c	0.51326823
65	0x3f76f15f	0.96462053
66	0x3f800000	1.0
67	0x3eaaaaaa	0.3333333
68	0x3ec02afb	0.37532791
69	0x3b9a701f	0.004713073
70	0x3f800000	1.0
71	0x3f2aaaab	0.6666667
72	0x3eadaca0	0.33920765
73	0x3ee24b45	0.4419805
74	0x00000000	0.0
75	0x00000000	0.0
76	0x3d8ab1ef	0.067722194
77	0x3f671fc7	0.90282863
78	0x3f000000	0.5
79	0x3eaaaaaa	0.3333333
80	0x3f800000	1.0
81	0x3e9ab2aa	0.30214435
82	0x3f800000	1.0
83	0x3eaaaaaa	0.3333333
84	0x3f19c166	0.6006073
85	0x3ea7d975	0.32783094
86	0x3f000000	0.5
87	0x3eaaaaaa	0.3333333
88	0x3dea6d6b	0.11446651
89	0x00000000	0.0
90	0x3f000000	0.5
91	0x3eaaaaaa	0.3333333
92	0x3ecc8df2	0.39952046
93	0x3e7e09d4	0.24808437
94	0x3f000000	0.5
95	0x3eaaaaaa	0.3333333
96	0x3ebc29e2	0.36750704
97	0x3ed4e124	0.4157802
98	0x00000000	0.0
99	0x00000000	0.0
100	0x3ee9f289	0.45692852
101	0x3f6b6509	0.9195104
102	0x3f000000	0.5
103	0x3eaaaaaa	0.3333333
104	0x3f1fa3d8	0.6235938
105	0x3e827be0	0.25485134
106	0x3f000000	0.5
107	0x3eaaaaaa	0.3333333
108	0x3e86449a	0.26224214
109	0x3ea00e56	0.31260937
110	0x3f000000	0.5
111	0x3f2aaaab	0.6666667
112	0x3ef254f2	0.47330433
113	0x3f51cde0	0.81954765
114	0x3f800000	1.0
115	0x00000000	0.0
116	0x3ef9a85a	0.48761255
117	0x3ed84a75	0.42244306
118	0x3f000000	0.5
119	0x3eaaaaaa	0.3333333
120	0x3de15651	0.11002792
121	0x3ec4b9fd	0.38423148
122	0x3f000000	0.5
123	0x3f2aaaab	0.6666667
124	0x3ec50aaf	0.38484713
125	0x3ebd9aa3	0.3703204
126	0x3f000000	0.5
127	0x00000000	0.0
128	0x3f67c42e	0.9053372
129	0x3eddc27f	0.4331245
130	0x3f000000	0.5
131	0x3f2aaaab	0.6666667
132	0x3eaa136f	0.33217952
133	0x3ebbafef	0.36657664
134	0x3f000000	0.5
135	0x3f800000	1.0
136	0x3f32667e	0.6968764
137	0x3eaf8669	0.34282234
138	0x00000000	0.0
139	0x3f800000	1.0
140	0x3d4815b2	0.048848815
141	0x3d2a7105	0.04161169
142	0x3f000000	0.5
143	0x3f2aaaab	0.6666667
144	0x3f39e725	0.72618324
145	0x3e70aa58	0.23502481
146	0x3f000000	0.5
147	0x3f2aaaab	0.6666667
148	0x3e9b7a7d	0.3036689
149	0x3f06fb37	0.52727073
150	0x3f000000	0.5
151	0x3eaaaaaa	0.3333333
152	0x3f6a9375	0.9163125
153	0x3f47c799	0.78038937
154	0x3f000000	0.5
155	0x3f2aaaab	0.6666667
156	0x3e1e9ee6	0.15490302
157	0x3e390e95	0.18071969
158	0x3f800000	1.0
159	0x3f800000	1.0
160	0x3e3b10f0	0.1826818
161	0x3f5dacce	0.86591804
162	0x3f800000	1.0
163	0x3eaaaaaa	0.3333333
164	0x3e8a7e3a	0.27049428
165	0x3f759f43	0.9594614
166	0x3f000000	0.5
167	0x3eaaaaaa	0.3333333
168	0x3e92913b	0.28626427
169	0x3f1034bf	0.56330484
170	0x3f000000	0.5
171	0x3f2aaaab	0.6666667
172	0x3f47c71b	0.78038186
173	0x3f2e9430	0.68194866
174	0x00000000	0.0
175	0x3f2aaaab	0.6666667
176	0x3e5a9bb6	0.21348462
177	0x3f5a8250	0.8535509
178	0x3f000000	0.5
179	0x3f800000	1.0
180	0x3dd75ce0	0.105157614
181	0x3ef37f91	0.47558263
182	0x3f800000	1.0
183	0x3f800000	1.0
184	0x3f6845a9	0.9073129
185	0x3dd7c6fa	0.10535999
186	0x3f000000	0.5
187	0x3eaaaaaa	0.3333333
188	0x3f058388	0.52153826
189	0x3f17eb8e	0.593438
190	0x00000000	0.0
191	0x3f2aaaab	0.6666667
192	0x3d39f63c	0.045400843
193	0x3e8d49e2	0.2759543
194	0x3f000000	0.5
195	0x3f2aaaab	0.6666667
196	0x3f670ec7	0.90256923
197	0x3d3b85fc	0.045782074
198	0x00000000	0.0
199	0x3f800000	1.0
200	0x3e06943c	0.13142484
201	0x3dc7e31e	0.09760116
202	0x3f000000	0.5
203	0x3eaaaaaa	0.3333333
204	0x3f626cd6	0.8844732
205	0x3f53fda5	0.82808906
206	0x00000000	0.0
207	0x3eaaaaaa	0.3333333
208	0x3f760d20	0.9611378
209	0x3efcaa71	0.49348786
210	0x3f000000	0.5
211	0x3eaaaaaa	0.3333333
212	0x3eeee22b	0.46656927
213	0x3f13e895	0.57776767
214	0x3f000000	0.5
215	0x3eaaaaaa	0.3333333
216	0x3f20dd88	0.6283803
217	0x3f27d3ab	0.65557355
218	0x3f800000	1.0
219	0x3f2aaaab	0.6666667
220	0x3f62a20e	0.88528526
221	0x3f69d28b	0.9133689
222	0x00000000	0.0
223	0x3f2aaaab	0.6666667
224	0x3f1110ab	0.5666606
225	0x3ed0221f	0.40651032
226	0x3f000000	0.5
227	0x3f2aaaab	0.6666667
228	0x3d11c49d	0.035587896
229	0x3de4d09b	0.11172601
230	0x3f000000	0.5
231	0x3f2aaaab	0.6666667
232	0x3e4d8a06	0.20072183
233	0x3f236450	0.6382494
234	0x3f000000	0.5
235	0x3f2aaaab	0.6666667
236	0x3f1f3ba0	0.62200356
237	0x3f4c1556	0.79720056
238	0x3f000000	0.5
239	0x3f2aaaab	0.6666667
240	0x3eb4c052	0.3530298
241	0x3f612551	0.87947565
242	0x3f800000	1.0
243	0x3f2aaaab	0.6666667
244	0x3db09028	0.086212456
245	0x3f55f2a0	0.8357334
246	0x3f800000	1.0
247	0x3f800000	1.0
248	0x3ea9b88d	0.33148614
249	0x3eca4c4c	0.39511335
250	0x00000000	0.0
251	0x3f800000	1.0
252	0x3ec5f1da	0.3866108
253	0x3d9fbf53	0.07800164
254	0x3f800000	1.0
255	0x3eaaaaaa	0.3333333

train_y f4 [500]
0	0xbf5f775b	-0.87291497
1	0x3e29b4e0	0.16572905
2	0x3f31d08c	0.6945884
3	0xbef85420	-0.48501682
4	0x3fb61d0e	1.4227617
5	0xbe2a535b	-0.1663336
6	0x3d6be360	0.05758989
7	0xbf6fb667	-0.936377
8	0x3f4a1dfb	0.78951997
9	0x3e2fd1e6	0.17169914
10	0x3f8b4a70	1.0882092
11	0xc0139c57	-2.3064172
12	0xbdb8ad2e	-0.090174064
13	0x3ee7593a	0.45185262
14	0x3f63c50d	0.8897255
15	0xbf018309	-0.5059057
16	0x3fa4f0e2	1.2886012
17	0xbe721fc0	-0.23644924
18	0xbff57b91	-1.9178334
19	0x3dc64984	0.09681991
20	0x3f902772	1.1262038
21	0xbf24e58a	-0.6441275
22	0xbff130f0	-1.884306
23	0xbfa1552d	-1.2604119
24	0xbff68c4c	-1.9261565
25	0x3f08d0a7	0.5344338
26	0xbf2d7972	-0.67763436
27	0xbf627bf9	-0.8847042
28	0x3f188355	0.59575397
29	0xbf43f849	-0.7655073
30	0xbf66c82f	-0.90149206
31	0xbfb54973	-1.416304
32	0x3f4d43ba	0.8018147
33	0xbdb50f58	-0.08840817
34	0x3e7adb01	0.24497606
35	0xbfa761ce	-1.3076723
36	0x3cd24b38	0.025670633
37	0xbf605bd6	-0.8764013
38	0x3fc0ccf4	1.5062547
39	0x3e21bb45	0.15794094
40	0x3f1bed88	0.6090932
41	0x3ed9899e	0.42487806
42	0xbeb3f58b	-0.35148272
43	0x3f1799e1	0.59219176
44	0x3f61be07	0.88180584
45	0x3efd06c6	0.4941923
46	0x3e002829	0.1251532
47	0xbe8b975f	-0.27263924
48	0xbf8dd8f2	-1.1081831
49	0x3f21d236	0.6321138
50	0xbfeb4ee1	-1.8383447
51	0x3f6c4c99	0.9230438
52	0x3f3b8f29	0.7326532
53	0xbee99e69	-0.4562867
54	0x3f828907	1.0198067
55	0x3fbd2ab8	1.4778662
56	0xbe2c20eb	-0.16809432
57	0xbfa3f292	-1.2808402
58	0xbe7ee043	-0.24890237
59	0x3f53e051	0.82764155
60	0x3f91aea2	1.1381419
61	0x3fa38fd3	1.2778267
62	0xbee10909	-0.43952206
63	0xbf24ca48	-0.64371157
64	0x3db95076	0.0904855
65	0xbe20bee9	-0.15697826
66	0xbfba5473	-1.4557022
67	0xbf0d5458	-0.55206823
68	0xbe666ad1	-0.22501685
69	0x3f66466f	0.89951223
70	0x3f4ff3ae	0.812312
71	0x3f0b2192	0.543481
72	0x3de89f91	0.1135856
73	0x3f212f67	0.62962955
74	0x3d418c6b	0.047253054
75	0x3ff3a029	1.9033252
76	0xbf37a665	-0.7173827
77	0xbe0ec2c0	-0.13941479
78	0x3ff82469	1.9386111
79	0x3f9b6899	1.2141296
80	0xbed5ef3b	-0.4178408
81	0xbf87d1d8	-1.0610914
82	0xbf171cb2	-0.5902816
83	0xbf4302fe	-0.7617644
84	0x3e190de2	0.14946702
85	0xbe45dd0f	-0.19322608
86	0xbe2318e5	-0.15927465
87	0x3f0d820d	0.55276567
88	0xbc05cdd5	-0.00816675
89	0x3f775dad	0.9662731
90	0xbfb76774	-1.4328446
91	0xbf5315e4	-0.8245528
92	0x3d08330b	0.033251803
93	0xbddc2997	-0.1075012
94	0x3f7ad5f0	0.9798269
95	0xbf1341aa	-0.5752207
96	0xbfbdb47c	-1.4820704
97	0xbfbbaa5b	-1.4661363
98	0xbe51dc88	-0.20494282
99	0x3d1c3050	0.038132012
100	0xbed810f0	-0.42200422
101	0x3e11cb94	0.14237815
102	0xbf1ab33b	-0.60429734
103	0x3f26bb8b	0.6512992
104	0xc01f30e0	-2.487358
105	0x3e3b90b5	0.1831692
106	0x3f50e445	0.8159831
107	0x3f964eaa	1.1742756
108	0x3f8157cf	1.0104922
109	0xbf98bbf4	-1.1932359
110	0x3f9508c8	1.1643305
111	0x3e9f42e7	0.3110573
112	0xbf85d9a2	-1.0457041
113	0x3e6c47c9	0.23074259
114	0x3f7c86ff	0.9864349
115	0x3e97d54f	0.2965493
116	0xbf65d50a	-0.89778197
117	0x3fc03cf8	1.5018606
118	0xbf969e95	-1.1767145
119	0x3fca815f	1.5820731
120	0xbf684f5f	-0.9074611
121	0xbf160b2b	-0.5861079
122	0xbb4d8b9e	-0.0031363736
123	0x3fc42219	1.5322906
124	0xbef2ea95	-0.47444597
125	0xbffc1ea4	-1.9696851
126	0xbf498a31	-0.7872649
127	0x3fc466da	1.5343888
128	0x3f35b357	0.70976776
129	0xbf08dc9b	-0.5346162
130	0x3e4f1cc0	0.20225811
131	0xc0275d76	-2.6150794
132	0xbf0f14f5	-0.5589135
133	0xbce37252	-0.027764473
134	0x3f797eac	0.9745891
135	0x3f859a32	1.0437682
136	0x3ff97bbe	1.9490888
137	0xbecaf72e	-0.39641708
138	0xbef5e4c4	-0.48026097
139	0xc028996b	-2.634364
140	0xc00dd5a6	-2.216165
141	0xbf8f6b9d	-1.1204716
142	0x3e5bf9ab	0.2148196
143	0xbe882d7b	-0.265972
144	0x3d900fe7	0.07034283
145	0xbef47c97	-0.47751305
146	0xbece3476	-0.402744
147	0xbfc1a09f	-1.5127143
148	0xbc36e8e1	-0.011163921
149	0xbf7d4941	-0.989399
150	0x3efd70b2	0.49500042
151	0x3e8f9d7a	0.28049833
152	0x3f2b9b8b	0.67034215
153	0x3f16090d	0.5860756
154	0x3f043439	0.51642185
155	0x3e6f62f2	0.23377588
156	0x3fb237be	1.3923261
157	0xbfae10c2	-1.3598864
158	0x3f22c895	0.63587314
159	0xbecfc889	-0.40582684
160	0x3ffb1730	1.9616451
161	0x3ec767d9	0.38946417
162	0x3f24ccde	0.643751
163	0x3f122e3d	0.57101804
164	0xbf763b5a	-0.96184313
165	0xbe55e312	-0.20887402
166	0xbfd65143	-1.6743549
167	0x3eb5b3ca	0.3548873
168	0x3e5378ca	0.20651546
169	0x3f787237	0.9704928
170	0x3da948b0	0.08265817
171	0x3f449539	0.76790196
172	0x3ef4ca46	0.47810572
173	0xbe8715ee	-0.2638392
174	0x3eb2449f	0.3481798
175	0x3f307d68	0.68941355
176	0x3efcaec7	0.49352095
177	0x3f035f43	0.5131723
178	0xbeebd015	-0.46057191
179	0x3f5ff695	0.8748563
180	0xc02be3e5	-2.6857846
181	0x3e34d08a	0.17657676
182	0x3e8ec1fd	0.27882376
183	0x3e2f423c	0.1711511
184	0x3fe5bfc8	1.7949152
185	0x3ea2982a	0.31756717
186	0xc006d09d	-2.1064827
187	0xbd50a435	-0.05093785
188	0xc0403927	-3.0034883
189	0x3f19d16f	0.60085195
190	0x3f923390	1.1421986
191	0x3fb9da8c	1.451982
192	0x3ebd06aa	0.36919147
193	0xbf1d03ff	-0.6133422
194	0x3e802b52	0.2503305
195	0xbe631ca8	-0.221789
196	0xbe2f1749	-0.17098726
197	0x3e8f4fe5	0.27990642
198	0xbf4bc9d9	-0.7960487
199	0xbd584e45	-0.05280902
200	0xbf01f256	-0.507604
201	0x3f281057	0.6564993
202	0x3e9483f8	0.29006934
203	0xbd8e5cb7	-0.06951278
204	0x3ec46e5f	0.38365456
205	0xbe801da0	-0.25022602
206	0x3f9dfea5	1.2343336
207	0xbe9d81bf	-0.3076305
208	0x3ff8e2dd	1.9444233
209	0x3f98281e	1.1887243
210	0xbe4acaed	-0.19803973
211	0x3ec28ebf	0.37999532
212	0x3f57d944	0.84315896
213	0xbcdefebf	-0.027221082
214	0x3fff65a2	1.9952891
215	0xbf78ead9	-0.9723335
216	0xbf6a9a6d	-0.91641885
217	0x3f89ed71	1.0775586
218	0x3f3572a5	0.7087806
219	0xbe1d7d10	-0.15379739
220	0xbfcf4ded	-1.6195656
221	0x3ee52bd1	0.44759992
222	0x3e273294	0.16327888
223	0xbf443dd1	-0.76656824
224	0xbd4514e2	-0.04811562
225	0x3f14a3c0	0.5806236
226	0xbeb8f4cb	-0.36124262
227	0x3df654ee	0.12027918
228	0xc01a27f6	-2.408689
229	0xbfbfad7b	-1.4974817
230	0xbe75fc5b	-0.24022047
231	0x3f96d5ca	1.1783993
232	0xbeb7f471	-0.35928681
233	0xbdf96497	-0.12177389
234	0x3e94cf0c	0.29064214
235	0xbd539d02	-0.051663406
236	0xbf83cf81	-1.02977
237	0x3d48e890	0.049049914
238	0x3ef582ed	0.4795145
239	0x3f59f84d	0.851445
240	0x3ee9a18e	0.4563107
241	0xc014c10c	-2.3242826
242	0x3ecb9d21	0.39768317
243	0x3f8bd637	1.0924748
244	0xbfe2ecbb	-1.7728494
245	0x3f130c77	0.57440895
246	0xc029a753	-2.6508377
247	0x3ec160f2	0.37769276
248	0xbe9d72ef	-0.3075175
249	0x3f8987f7	1.0744618
250	0xbf5f403a	-0.87207377
251	0x3fbf87f8	1.4963369
252	0x3f9606a6	1.1720779
253	0x3fbbae45	1.4662558
254	0x3f064306	0.5244602
255	0x3df5bf0b	0.11999329

min f4 [1, 4]
0	0x3a4c457f	0.0007792338
1	0x3ab5aa86	0.0013860024
2	0x3e800000	0.25
3	0x3e4ccccd	0.2

max f4 [1, 4]
0	0x3f7fb0a2	0.99878895
1	0x3f7fb4a2	0.99885
2	0x3f400000	0.75
3	0x3f4ccccd	0.8
