examples/iwoba/models/branin_er/constraint_gp_0.pth (torch, 7218 bytes, 5 tensors)

covar_module.base_kernel.raw_lengthscale f4 [1, 4]
0	0x3f6ed56a	0.93294394
1	0x3f6c96c9	0.9241758
2	0x3f805eb2	1.0028899
3	0x3f7e6ba1	0.9938298

train_x f4 [100, 4]
0	0x3d6d899c	0.057992563
1	0x3f664719	0.89952236
2	0x3f800000	1.0
3	0x3eaaaaaa	0.3333333
4	0x3dde3573	0.108500384
5	0x3f1872ea	0.59550345
6	0x3f000000	0.5
7	0x3eaaaaaa	0.3333333
8	0x3f128ad2	0.57243073
9	0x3f2cc7bc	0.6749227
10	0x3f000000	0.5
11	0x3f2aaaab	0.6666667
12	0x3f572fe2	0.8405744
13	0x3dd0dc86	0.101983115
14	0x00000000	0.0
15	0x3eaaaaaa	0.3333333
16	0x3f68ac6f	0.9088811
17	0x00000000	0.0
18	0x3f000000	0.5
19	0x3eaaaaaa	0.3333333
20	0x3e96febb	0.2949122
21	0x3e6fffb6	0.2343739
22	0x3f800000	1.0
23	0x3f2aaaab	0.6666667
24	0x3f0cd7e0	0.550169
25	0x3f78c735	0.97178966
26	0x3f800000	1.0
27	0x00000000	0.0
28	0x3eaafc3e	0.3339557
29	0x3f4aedd3	0.7926914
30	0x00000000	0.0
31	0x3f2aaaab	0.6666667
32	0x3e97e847	0.296694
33	0x3eb44cf0	0.3521495
34	0x00000000	0.0
35	0x3eaaaaaa	0.3333333
36	0x3d9761ca	0.07391699
37	0x3f13441b	0.57525796
38	0x3f000000	0.5
39	0x3f800000	1.0
40	0x3f785ba3	0.97014827
41	0x3de7f30c	0.113256544
42	0x3f800000	1.0
43	0x3eaaaaaa	0.3333333
44	0x3f2a3638	0.6648898
45	0x3c5f4ab0	0.013628647
46	0x3f000000	0.5
47	0x00000000	0.0
48	0x3e7c2554	0.24623615
49	0x3e494e8e	0.19658872
50	0x3f800000	1.0
51	0x00000000	0.0
52	0x3f421aeb	0.75822324
53	0x3f198166	0.5996307
54	0x3f000000	0.5
55	0x3f2aaaab	0.6666667
56	0x3f6dd161	0.9289761
57	0x3f40ad99	0.7526489
58	0x3f000000	0.5
59	0x3f2aaaab	0.6666667
60	0x3ecdcf14	0.4019705
61	0x3ebf8248	0.37404084
62	0x00000000	0.0
63	0x3f2aaaab	0.6666667
64	0x3d00a84d	0.031410504
65	0x3f1532c1	0.5828057
66	0x3f000000	0.5
67	0x3f2aaaab	0.6666667
68	0x3d3ea6da	0.04654584
69	0x3f0345e8	0.51278543
70	0x3f800000	1.0
71	0x3f800000	1.0
72	0x3f71b984	0.944237
73	0x3f68103b	0.90649766
74	0x3f000000	0.5
75	0x3f2aaaab	0.6666667
76	0x3ea63cb1	0.3246818
77	0x3ef233aa	0.47305042
78	0x3f000000	0.5
79	0x3f2aaaab	0.6666667
80	0x3f5e2128	0.8676934
81	0x3f7bc777	0.98351234
82	0x3f000000	0.5
83	0x3f2aaaab	0.6666667
84	0x3f21944e	0.6311692
85	0x3f725b49	0.9467054
86	0x00000000	0.0
87	0x3eaaaaaa	0.3333333
88	0x3e165de1	0.1468425
89	0x3f703c26	0.9384178
90	0x00000000	0.0
91	0x3f2aaaab	0.6666667
92	0x3f4c0ec0	0.79710007
93	0x3f5912e8	0.84794474
94	0x3f800000	1.0
95	0x3f2aaaab	0.6666667
96	0x3e36f8dd	0.17868371
97	0x3ed2dcc7	0.41184065
98	0x3f000000	0.5
99	0x00000000	0.0
100	0x3ec1a266	0.37819213
101	0x3def9328	0.1169799
102	0x3f800000	1.0
103	0x3f2aaaab	0.6666667
104	0x3f7a07f7	0.97668403
105	0x3f42d6f8	0.76109266
106	0x3f000000	0.5
107	0x3eaaaaaa	0.3333333
108	0x3c3dec17	0.011591933
109	0x3d564297	0.0523096
110	0x3f000000	0.5
111	0x3f2aaaab	0.6666667
112	0x3e855c55	0.26047006
113	0x3ce0c771	0.027438851
114	0x3f000000	0.5
115	0x3eaaaaaa	0.3333333
116	0x3f36230e	0.7114724
117	0x3f350cb3	0.707225
118	0x00000000	0.0
119	0x3f2aaaab	0.6666667
120	0x3f26ecf2	0.652053
121	0x3ead51b0	0.33851385
122	0x3f000000	0.5
123	0x3f800000	1.0
124	0x3f446aa1	0.767252
125	0x3ec99c96	0.39377278
126	0x3f000000	0.5
127	0x3eaaaaaa	0.3333333
128	0x3f6152cb	0.8801696
129	0x3e310f62	0.17291024
130	0x3f000000	0.5
131	0x00000000	0.0
132	0x3d0fd2f2	0.035113283
133	0x3f2609e8	0.64858866
134	0x3f000000	0.5
135	0x3eaaaaaa	0.3333333
136	0x3f36c216	0.713899
137	0x3e0f37ee	0.13986179
138	0x3f800000	1.0
139	0x3f2aaaab	0.6666667
140	0x3f1f5bbe	0.6224936
141	0x3f602a47	0.8756451
142	0x00000000	0.0
143	0x3f2aaaab	0.6666667
144	0x3f3fc1be	0.74905
145	0x3ee9f4d8	0.45694613
146	0x00000000	0.0
147	0x3f800000	1.0
148	0x3f59b9ae	0.8504895
149	0x3f0ab260	0.5417843
150	0x3f000000	0.5
151	0x3f800000	1.0
152	0x3f73a67d	0.95175916
153	0x3f5ceab3	0.8629562
154	0x00000000	0.0
155	0x3f800000	1.0
156	0x3ee7d99f	0.4528322
157	0x3f3cf9fd	0.7381895
158	0x3f000000	0.5
159	0x3f2aaaab	0.6666667
160	0x3eda3505	0.42618576
161	0x3efd61e2	0.4948874
162	0x3f000000	0.5
163	0x00000000	0.0
164	0x3f7e9ffb	0.9946286
165	0x3f36b6b7	0.7137255
166	0x00000000	0.0
167	0x3eaaaaaa	0.3333333
168	0x3f24e8f5	0.64417964
169	0x3ee4f154	0.4471537
170	0x00000000	0.0
171	0x3eaaaaaa	0.3333333
172	0x3c84d2ee	0.01621386
173	0x3f48d4b8	0.78449583
174	0x00000000	0.0
175	0x3f800000	1.0
176	0x3dfac525	0.122446336
177	0x3e9626f2	0.29326588
178	0x3f000000	0.5
179	0x3eaaaaaa	0.3333333
180	0x3f305666	0.68881834
181	0x3f38d349	0.72197396
182	0x00000000	0.0
183	0x3eaaaaaa	0.3333333
184	0x3e54f402	0.20796207
185	0x3e1b981b	0.15194742
186	0x00000000	0.0
187	0x3eaaaaaa	0.3333333
188	0x3f1b8203	0.6074526
189	0x3f615930	0.88026714
190	0x3f000000	0.5
191	0x3f2aaaab	0.6666667
192	0x3e8fc94d	0.28083268
193	0x3d70be6a	0.058775343
194	0x3f000000	0.5
195	0x3eaaaaaa	0.3333333
196	0x3e9f7812	0.31146294
197	0x3e3dfba2	0.18553022
198	0x3f800000	1.0
199	0x3f800000	1.0
200	0x3f6a83bb	0.91607255
201	0x3e921aea	0.2853616
202	0x3f000000	0.5
203	0x00000000	0.0
204	0x3ed43483	0.41446313
205	0x3db72908	0.08943373
206	0x3f000000	0.5
207	0x3f2aaaab	0.6666667
208	0x3f319834	0.6937287
209	0x3f00276f	0.5006017
210	0x3f000000	0.5
211	0x3f800000	1.0
212	0x3e654c1b	0.22392313
213	0x3ed8b63d	0.42326537
214	0x3f800000	1.0
215	0x3eaaaaaa	0.3333333
216	0x3eb75e55	0.35814157
217	0x3f50963c	0.8147924
218	0x3f000000	0.5
219	0x00000000	0.0
220	0x3d8ee2b6	0.069768354
221	0x3e0043e5	0.125259
222	0x3f000000	0.5
223	0x3f2aaaab	0.6666667
224	0x3eb06f66	0.3445999
225	0x3f08d72e	0.5345334
226	0x3f800000	1.0
227	0x3f2aaaab	0.6666667
228	0x3e4a3321	0.19746067
229	0x3ef6c8b8	0.4820001
230	0x3f800000	1.0
231	0x3eaaaaaa	0.3333333
232	0x3f4ae13a	0.7924992
233	0x3f1d0e2a	0.6134974
234	0x3f000000	0.5
235	0x3eaaaaaa	0.3333333
236	0x3f646865	0.89221793
237	0x3f10a1c6	0.56496847
238	0x00000000	0.0
239	0x3f2aaaab	0.6666667
240	0x3f47f3da	0.7810646
241	0x3e82e453	0.25564823
242	0x00000000	0.0
243	0x3eaaaaaa	0.3333333
244	0x3efde033	0.49585113
245	0x3f2f5272	0.68485177
246	0x3f800000	1.0
247	0x3eaaaaaa	0.3333333
248	0x3f53e7cb	0.82775563
249	0x3f739363	0.9514677
250	0x3f000000	0.5
251	0x00000000	0.0
252	0x3f5031d6	0.81326044
253	0x3cc6b06e	0.02425405
254	0x00000000	0.0
255	0x00000000	0.0

train_y f4 [100]
0	0x3f2759ea	0.6537157
1	0xbf5a128a	-0.8518454
2	0x3ed091fd	0.4073638
3	0xbeffb662	-0.49943835
4	0x3dc9dea8	0.098569214
5	0xbe5cf16a	-0.21576467
6	0x3f94d52a	1.1627553
7	0xbcb11909	-0.021618383
8	0xbfe469d1	-1.7844793
9	0x3dd1f083	0.10250952
10	0x3f5f710a	0.8728186
11	0xbf78de2c	-0.9721401
12	0xbf8469ac	-1.0344748
13	0x3f2a4c55	0.66522723
14	0x3fb85d4e	1.4403474
15	0xbf7a6e2b	-0.9782435
16	0xbeea3ecb	-0.45751032
17	0x3f0a9c4e	0.5414475
18	0x3fec224d	1.8447968
19	0xbef51529	-0.47867706
20	0x3feda3c8	1.8565607
21	0x3f1e5e7f	0.6186294
22	0x3e90a1ae	0.28248352
23	0x3fe4c3f2	1.7872298
24	0xbfcde586	-1.608567
25	0xbe403ab5	-0.18772395
26	0x3fa58577	1.2931355
27	0xbfa307e1	-1.273678
28	0xbfd3a6c6	-1.653527
29	0x3eee7383	0.46572503
30	0x3ef10082	0.470707
31	0xbd455b12	-0.048182555
32	0xbe32c32c	-0.17457265
33	0xbf393ea5	-0.7236121
34	0x3f01570b	0.5052344
35	0x3f38bceb	0.72163266
36	0x3f0abdb2	0.541957
37	0x3f9f7653	1.2457985
38	0x3ff16ff1	1.8862287
39	0x3eb2f701	0.34954074
40	0xbf7f3de6	-0.99703825
41	0x3f71e3fc	0.944885
42	0xbf36eaf4	-0.7145226
43	0x3e8ab806	0.27093524
44	0xbfc6bce9	-1.5526401
45	0x3da1d245	0.07901434
46	0xc01336ce	-2.30022
47	0x3f8191ad	1.0122582
48	0xbfce36ba	-1.6110451
49	0x3e9b9437	0.30386516
50	0x3d5ada4a	0.053430833
51	0xbf52958d	-0.82259446
52	0x3f4c5b2e	0.7982663
53	0xbee719ea	-0.45136958
54	0xbe3a7301	-0.18207933
55	0xbf9c80ed	-1.2226845
56	0x3e95b2d1	0.2923799
57	0xbeb932e5	-0.36171642
58	0x3edff120	0.4373865
59	0x3f25ba8b	0.64737767
60	0xbf15d7dd	-0.58532506
61	0x3ef9a326	0.48757285
62	0x3f99d165	1.2017027
63	0xbf66dc6d	-0.90180093
64	0xbf041fd9	-0.51611096
65	0xbf3f6b87	-0.7477345
66	0xbf9fce33	-1.2484802
67	0xbfafe286	-1.3741004
68	0xbe9b57e0	-0.3034048
69	0x3fdf3a3b	1.7439646
70	0xbf5b175d	-0.85582525
71	0xbf4b408f	-0.79395384
72	0x3d83800f	0.064209096
73	0xbfc88ead	-1.5668541
74	0xbeb52708	-0.3538134
75	0xbeb8f4ad	-0.36124173
76	0x3fd81ffd	1.6884762
77	0x3e8263c9	0.25466755
78	0x3f9d4ef8	1.2289724
79	0xbee80fcb	-0.4532455
80	0x3f31a13e	0.6938666
81	0x3e8253bc	0.2545451
82	0x3fa4878f	1.2853869
83	0x3f098b9c	0.5372865
84	0xbdcbdb64	-0.09953955
85	0x3e855d80	0.26047897
86	0xbfe4accb	-1.7865232
87	0x3eda225a	0.42604333
88	0xbea5cf8e	-0.32384914
89	0x4006a676	2.10391
90	0x3f752ae2	0.9576856
91	0xbf37028d	-0.7148827
92	0xbf8b5fa5	-1.0888563
93	0xbb38ac98	-0.0028179046
94	0x3e7d0ff2	0.24713114
95	0xbfb01adc	-1.3758197
96	0xbfcbd97b	-1.5925745
97	0x3fd67c86	1.6756752
98	0xbf507f41	-0.81444174
99	0x3fa33f6e	1.2753732

min f4 [1, 4]
0	0x3befabff	0.0073142047
1	0x3bb4b1cc	0.005514359
2	0x3e800000	0.25
3	0x3e4ccccd	0.2

max f4 [1, 4]
0	0x3f7e7e70	0.9941168
1	0x3f7fd9c5	0.99941665
2	0x3f400000	0.75
3	0x3f4ccccd	0.8
